HloModule train_step_shard_parallel.6, input_output_alias={ {0}: (0, {}, may-alias), {1}: (1, {}, may-alias), {2}: (2, {}, may-alias), {3}: (3, {}, may-alias), {4}: (4, {}, may-alias), {5}: (5, {}, may-alias), {6}: (6, {}, may-alias), {7}: (7, {}, may-alias), {8}: (8, {}, may-alias), {9}: (9, {}, may-alias), {10}: (10, {}, may-alias), {11}: (11, {}, may-alias), {12}: (12, {}, may-alias), {13}: (13, {}, may-alias), {14}: (14, {}, may-alias), {15}: (15, {}, may-alias), {16}: (16, {}, may-alias), {17}: (17, {}, may-alias), {18}: (18, {}, may-alias), {19}: (19, {}, may-alias), {20}: (20, {}, may-alias), {21}: (21, {}, may-alias), {22}: (22, {}, may-alias), {23}: (23, {}, may-alias), {24}: (24, {}, may-alias), {25}: (25, {}, may-alias), {26}: (26, {}, may-alias), {27}: (27, {}, may-alias), {28}: (28, {}, may-alias), {29}: (29, {}, may-alias), {30}: (30, {}, may-alias), {31}: (31, {}, may-alias), {32}: (32, {}, may-alias), {33}: (33, {}, may-alias), {34}: (34, {}, may-alias), {35}: (35, {}, may-alias), {36}: (36, {}, may-alias), {37}: (37, {}, may-alias), {38}: (38, {}, may-alias), {39}: (39, {}, may-alias), {40}: (40, {}, may-alias), {41}: (41, {}, may-alias), {42}: (42, {}, may-alias), {43}: (43, {}, may-alias), {44}: (44, {}, may-alias), {45}: (45, {}, may-alias), {46}: (46, {}, may-alias), {47}: (47, {}, may-alias), {48}: (48, {}, may-alias), {49}: (49, {}, may-alias), {50}: (50, {}, may-alias), {51}: (51, {}, may-alias), {52}: (52, {}, may-alias), {53}: (53, {}, may-alias), {54}: (54, {}, may-alias), {55}: (55, {}, may-alias), {56}: (56, {}, may-alias), {57}: (57, {}, may-alias), {58}: (58, {}, may-alias), {59}: (59, {}, may-alias), {60}: (60, {}, may-alias), {61}: (61, {}, may-alias), {62}: (62, {}, may-alias), {63}: (63, {}, may-alias), {64}: (64, {}, may-alias), {65}: (65, {}, may-alias), {66}: (66, {}, may-alias), {67}: (67, {}, may-alias), {68}: (68, {}, may-alias), {69}: (69, {}, may-alias), {70}: (70, {}, may-alias), {71}: (71, {}, may-alias), {72}: (72, {}, may-alias), {73}: (73, {}, may-alias), {74}: (74, {}, may-alias), {75}: (75, {}, may-alias), {76}: (76, {}, may-alias), {77}: (77, {}, may-alias), {78}: (78, {}, may-alias), {79}: (79, {}, may-alias), {80}: (80, {}, may-alias), {81}: (81, {}, may-alias), {82}: (82, {}, may-alias), {83}: (83, {}, may-alias), {84}: (84, {}, may-alias), {85}: (85, {}, may-alias), {86}: (86, {}, may-alias), {87}: (87, {}, may-alias), {88}: (88, {}, may-alias), {89}: (89, {}, may-alias), {90}: (90, {}, may-alias), {91}: (91, {}, may-alias), {92}: (92, {}, may-alias), {93}: (93, {}, may-alias), {94}: (94, {}, may-alias), {95}: (95, {}, may-alias), {96}: (96, {}, may-alias), {97}: (97, {}, may-alias), {98}: (98, {}, may-alias), {99}: (99, {}, may-alias), {100}: (100, {}, may-alias), {101}: (101, {}, may-alias), {102}: (102, {}, may-alias), {103}: (103, {}, may-alias), {104}: (104, {}, may-alias), {105}: (105, {}, may-alias), {106}: (106, {}, may-alias), {107}: (107, {}, may-alias), {108}: (108, {}, may-alias), {109}: (109, {}, may-alias), {110}: (110, {}, may-alias), {111}: (111, {}, may-alias), {112}: (112, {}, may-alias), {113}: (113, {}, may-alias), {114}: (114, {}, may-alias), {115}: (115, {}, may-alias), {116}: (116, {}, may-alias), {117}: (117, {}, may-alias), {118}: (118, {}, may-alias), {119}: (119, {}, may-alias), {120}: (120, {}, may-alias), {121}: (121, {}, may-alias), {122}: (122, {}, may-alias), {123}: (123, {}, may-alias), {124}: (124, {}, may-alias), {125}: (125, {}, may-alias), {126}: (126, {}, may-alias), {127}: (127, {}, may-alias), {128}: (128, {}, may-alias), {129}: (129, {}, may-alias), {130}: (130, {}, may-alias), {131}: (131, {}, may-alias), {132}: (132, {}, may-alias), {133}: (133, {}, may-alias), {134}: (134, {}, may-alias), {135}: (135, {}, may-alias), {136}: (136, {}, may-alias), {137}: (137, {}, may-alias), {138}: (138, {}, may-alias), {139}: (139, {}, may-alias), {140}: (140, {}, may-alias), {141}: (141, {}, may-alias), {142}: (142, {}, may-alias), {143}: (143, {}, may-alias), {144}: (144, {}, may-alias), {145}: (145, {}, may-alias), {146}: (146, {}, may-alias), {147}: (147, {}, may-alias), {148}: (148, {}, may-alias), {149}: (149, {}, may-alias), {150}: (150, {}, may-alias), {151}: (151, {}, may-alias), {152}: (152, {}, may-alias), {153}: (153, {}, may-alias), {154}: (154, {}, may-alias), {155}: (155, {}, may-alias), {156}: (156, {}, may-alias), {157}: (157, {}, may-alias), {158}: (158, {}, may-alias), {159}: (159, {}, may-alias), {160}: (160, {}, may-alias), {161}: (161, {}, may-alias), {162}: (162, {}, may-alias), {163}: (163, {}, may-alias), {164}: (164, {}, may-alias), {165}: (165, {}, may-alias), {166}: (166, {}, may-alias), {167}: (167, {}, may-alias), {168}: (168, {}, may-alias), {169}: (169, {}, may-alias), {170}: (170, {}, may-alias), {171}: (171, {}, may-alias), {172}: (172, {}, may-alias), {173}: (173, {}, may-alias), {174}: (174, {}, may-alias), {175}: (175, {}, may-alias), {176}: (176, {}, may-alias), {177}: (177, {}, may-alias), {178}: (178, {}, may-alias), {179}: (179, {}, may-alias), {180}: (180, {}, may-alias), {181}: (181, {}, may-alias), {182}: (182, {}, may-alias), {183}: (183, {}, may-alias), {184}: (184, {}, may-alias), {185}: (185, {}, may-alias), {186}: (186, {}, may-alias), {187}: (187, {}, may-alias), {188}: (188, {}, may-alias), {189}: (189, {}, may-alias), {190}: (190, {}, may-alias), {191}: (191, {}, may-alias), {192}: (192, {}, may-alias), {193}: (193, {}, may-alias), {194}: (194, {}, may-alias), {195}: (195, {}, may-alias), {196}: (196, {}, may-alias), {197}: (197, {}, may-alias), {198}: (198, {}, may-alias), {199}: (199, {}, may-alias), {200}: (200, {}, may-alias), {201}: (201, {}, may-alias), {202}: (202, {}, may-alias), {203}: (203, {}, may-alias), {204}: (204, {}, may-alias), {205}: (205, {}, may-alias), {206}: (206, {}, may-alias), {207}: (207, {}, may-alias), {208}: (208, {}, may-alias), {209}: (209, {}, may-alias), {210}: (210, {}, may-alias), {211}: (211, {}, may-alias), {212}: (212, {}, may-alias), {213}: (213, {}, may-alias), {214}: (214, {}, may-alias), {215}: (215, {}, may-alias), {216}: (216, {}, may-alias), {217}: (217, {}, may-alias), {218}: (218, {}, may-alias), {219}: (219, {}, may-alias), {220}: (220, {}, may-alias), {221}: (221, {}, may-alias), {222}: (222, {}, may-alias), {223}: (223, {}, may-alias), {224}: (224, {}, may-alias), {225}: (225, {}, may-alias), {226}: (226, {}, may-alias), {227}: (227, {}, may-alias), {228}: (228, {}, may-alias), {229}: (229, {}, may-alias), {230}: (230, {}, may-alias), {231}: (231, {}, may-alias), {232}: (232, {}, may-alias) }, entry_computation_layout={(s32[],f32[6400]{0},f32[1024]{0},f32[1024]{0},f32[128,1024]{1,0},f32[6400,1024]{1,0},f32[1024]{0},f32[1024]{0},f32[1024]{0},f32[128,1024]{1,0},f32[384]{0},f32[1024,384]{1,0},f32[512]{0},f32[1024,512]{1,0},f32[1024]{0},f32[1024]{0},f32[1024]{0},f32[512,1024]{1,0},f32[1024]{0},f32[1024]{0},f32[1024]{0},f32[128,1024]{1,0},f32[384]{0},f32[1024,384]{1,0},f32[512]{0},f32[1024,512]{1,0},f32[1024]{0},f32[1024]{0},f32[1024]{0},f32[512,1024]{1,0},f32[1024]{0},f32[1024]{0},f32[1024]{0},f32[128,1024]{1,0},f32[384]{0},f32[1024,384]{1,0},f32[512]{0},f32[1024,512]{1,0},f32[1024]{0},f32[1024]{0},f32[1024]{0},f32[512,1024]{1,0},f32[1024]{0},f32[1024]{0},f32[1024]{0},f32[128,1024]{1,0},f32[384]{0},f32[1024,384]{1,0},f32[512]{0},f32[1024,512]{1,0},f32[1024]{0},f32[1024]{0},f32[1024]{0},f32[512,1024]{1,0},f32[1024]{0},f32[1024]{0},f32[1024]{0},f32[128,1024]{1,0},f32[384]{0},f32[1024,384]{1,0},f32[512]{0},f32[1024,512]{1,0},f32[1024]{0},f32[1024]{0},f32[1024]{0},f32[512,1024]{1,0},f32[1024]{0},f32[1024]{0},f32[1024]{0},f32[128,1024]{1,0},f32[384]{0},f32[1024,384]{1,0},f32[512]{0},f32[1024,512]{1,0},f32[1024]{0},f32[1024]{0},f32[1024]{0},f32[512,1024]{1,0},s32[],f32[6400]{0},f32[1024]{0},f32[1024]{0},f32[128,1024]{1,0},f32[6400,1024]{1,0},f32[1024]{0},f32[1024]{0},f32[1024]{0},f32[128,1024]{1,0},f32[384]{0},f32[1024,384]{1,0},f32[512]{0},f32[1024,512]{1,0},f32[1024]{0},f32[1024]{0},f32[1024]{0},f32[512,1024]{1,0},f32[1024]{0},f32[1024]{0},f32[1024]{0},f32[128,1024]{1,0},f32[384]{0},f32[1024,384]{1,0},f32[512]{0},f32[1024,512]{1,0},f32[1024]{0},f32[1024]{0},f32[1024]{0},f32[512,1024]{1,0},f32[1024]{0},f32[1024]{0},f32[1024]{0},f32[128,1024]{1,0},f32[384]{0},f32[1024,384]{1,0},f32[512]{0},f32[1024,512]{1,0},f32[1024]{0},f32[1024]{0},f32[1024]{0},f32[512,1024]{1,0},f32[1024]{0},f32[1024]{0},f32[1024]{0},f32[128,1024]{1,0},f32[384]{0},f32[1024,384]{1,0},f32[512]{0},f32[1024,512]{1,0},f32[1024]{0},f32[1024]{0},f32[1024]{0},f32[512,1024]{1,0},f32[1024]{0},f32[1024]{0},f32[1024]{0},f32[128,1024]{1,0},f32[384]{0},f32[1024,384]{1,0},f32[512]{0},f32[1024,512]{1,0},f32[1024]{0},f32[1024]{0},f32[1024]{0},f32[512,1024]{1,0},f32[1024]{0},f32[1024]{0},f32[1024]{0},f32[128,1024]{1,0},f32[384]{0},f32[1024,384]{1,0},f32[512]{0},f32[1024,512]{1,0},f32[1024]{0},f32[1024]{0},f32[1024]{0},f32[512,1024]{1,0},f32[6400]{0},f32[1024]{0},f32[1024]{0},f32[128,1024]{1,0},f32[6400,1024]{1,0},f32[1024]{0},f32[1024]{0},f32[1024]{0},f32[128,1024]{1,0},f32[384]{0},f32[1024,384]{1,0},f32[512]{0},f32[1024,512]{1,0},f32[1024]{0},f32[1024]{0},f32[1024]{0},f32[512,1024]{1,0},f32[1024]{0},f32[1024]{0},f32[1024]{0},f32[128,1024]{1,0},f32[384]{0},f32[1024,384]{1,0},f32[512]{0},f32[1024,512]{1,0},f32[1024]{0},f32[1024]{0},f32[1024]{0},f32[512,1024]{1,0},f32[1024]{0},f32[1024]{0},f32[1024]{0},f32[128,1024]{1,0},f32[384]{0},f32[1024,384]{1,0},f32[512]{0},f32[1024,512]{1,0},f32[1024]{0},f32[1024]{0},f32[1024]{0},f32[512,1024]{1,0},f32[1024]{0},f32[1024]{0},f32[1024]{0},f32[128,1024]{1,0},f32[384]{0},f32[1024,384]{1,0},f32[512]{0},f32[1024,512]{1,0},f32[1024]{0},f32[1024]{0},f32[1024]{0},f32[512,1024]{1,0},f32[1024]{0},f32[1024]{0},f32[1024]{0},f32[128,1024]{1,0},f32[384]{0},f32[1024,384]{1,0},f32[512]{0},f32[1024,512]{1,0},f32[1024]{0},f32[1024]{0},f32[1024]{0},f32[512,1024]{1,0},f32[1024]{0},f32[1024]{0},f32[1024]{0},f32[128,1024]{1,0},f32[384]{0},f32[1024,384]{1,0},f32[512]{0},f32[1024,512]{1,0},f32[1024]{0},f32[1024]{0},f32[1024]{0},f32[512,1024]{1,0},s32[4,1024]{1,0},s32[4,1024]{1,0},s32[4,1024]{1,0},s32[4,1024]{1,0},s32[4,1024]{1,0},u32[1]{0})->(s32[], f32[6400]{0}, f32[1024]{0}, f32[1024]{0}, f32[128,1024]{1,0}, /*index=5*/f32[6400,1024]{1,0}, f32[1024]{0}, f32[1024]{0}, f32[1024]{0}, f32[128,1024]{1,0}, /*index=10*/f32[384]{0}, f32[1024,384]{1,0}, f32[512]{0}, f32[1024,512]{1,0}, f32[1024]{0}, /*index=15*/f32[1024]{0}, f32[1024]{0}, f32[512,1024]{1,0}, f32[1024]{0}, f32[1024]{0}, /*index=20*/f32[1024]{0}, f32[128,1024]{1,0}, f32[384]{0}, f32[1024,384]{1,0}, f32[512]{0}, /*index=25*/f32[1024,512]{1,0}, f32[1024]{0}, f32[1024]{0}, f32[1024]{0}, f32[512,1024]{1,0}, /*index=30*/f32[1024]{0}, f32[1024]{0}, f32[1024]{0}, f32[128,1024]{1,0}, f32[384]{0}, /*index=35*/f32[1024,384]{1,0}, f32[512]{0}, f32[1024,512]{1,0}, f32[1024]{0}, f32[1024]{0}, /*index=40*/f32[1024]{0}, f32[512,1024]{1,0}, f32[1024]{0}, f32[1024]{0}, f32[1024]{0}, /*index=45*/f32[128,1024]{1,0}, f32[384]{0}, f32[1024,384]{1,0}, f32[512]{0}, f32[1024,512]{1,0}, /*index=50*/f32[1024]{0}, f32[1024]{0}, f32[1024]{0}, f32[512,1024]{1,0}, f32[1024]{0}, /*index=55*/f32[1024]{0}, f32[1024]{0}, f32[128,1024]{1,0}, f32[384]{0}, f32[1024,384]{1,0}, /*index=60*/f32[512]{0}, f32[1024,512]{1,0}, f32[1024]{0}, f32[1024]{0}, f32[1024]{0}, /*index=65*/f32[512,1024]{1,0}, f32[1024]{0}, f32[1024]{0}, f32[1024]{0}, f32[128,1024]{1,0}, /*index=70*/f32[384]{0}, f32[1024,384]{1,0}, f32[512]{0}, f32[1024,512]{1,0}, f32[1024]{0}, /*index=75*/f32[1024]{0}, f32[1024]{0}, f32[512,1024]{1,0}, s32[], f32[6400]{0}, /*index=80*/f32[1024]{0}, f32[1024]{0}, f32[128,1024]{0,1}, f32[6400,1024]{1,0}, f32[1024]{0}, /*index=85*/f32[1024]{0}, f32[1024]{0}, f32[128,1024]{0,1}, f32[384]{0}, f32[1024,384]{0,1}, /*index=90*/f32[512]{0}, f32[1024,512]{0,1}, f32[1024]{0}, f32[1024]{0}, f32[1024]{0}, /*index=95*/f32[512,1024]{0,1}, f32[1024]{0}, f32[1024]{0}, f32[1024]{0}, f32[128,1024]{0,1}, /*index=100*/f32[384]{0}, f32[1024,384]{0,1}, f32[512]{0}, f32[1024,512]{0,1}, f32[1024]{0}, /*index=105*/f32[1024]{0}, f32[1024]{0}, f32[512,1024]{0,1}, f32[1024]{0}, f32[1024]{0}, /*index=110*/f32[1024]{0}, f32[128,1024]{0,1}, f32[384]{0}, f32[1024,384]{0,1}, f32[512]{0}, /*index=115*/f32[1024,512]{0,1}, f32[1024]{0}, f32[1024]{0}, f32[1024]{0}, f32[512,1024]{0,1}, /*index=120*/f32[1024]{0}, f32[1024]{0}, f32[1024]{0}, f32[128,1024]{0,1}, f32[384]{0}, /*index=125*/f32[1024,384]{0,1}, f32[512]{0}, f32[1024,512]{0,1}, f32[1024]{0}, f32[1024]{0}, /*index=130*/f32[1024]{0}, f32[512,1024]{0,1}, f32[1024]{0}, f32[1024]{0}, f32[1024]{0}, /*index=135*/f32[128,1024]{0,1}, f32[384]{0}, f32[1024,384]{0,1}, f32[512]{0}, f32[1024,512]{0,1}, /*index=140*/f32[1024]{0}, f32[1024]{0}, f32[1024]{0}, f32[512,1024]{0,1}, f32[1024]{0}, /*index=145*/f32[1024]{0}, f32[1024]{0}, f32[128,1024]{0,1}, f32[384]{0}, f32[1024,384]{0,1}, /*index=150*/f32[512]{0}, f32[1024,512]{0,1}, f32[1024]{0}, f32[1024]{0}, f32[1024]{0}, /*index=155*/f32[512,1024]{0,1}, f32[6400]{0}, f32[1024]{0}, f32[1024]{0}, f32[128,1024]{0,1}, /*index=160*/f32[6400,1024]{1,0}, f32[1024]{0}, f32[1024]{0}, f32[1024]{0}, f32[128,1024]{0,1}, /*index=165*/f32[384]{0}, f32[1024,384]{0,1}, f32[512]{0}, f32[1024,512]{0,1}, f32[1024]{0}, /*index=170*/f32[1024]{0}, f32[1024]{0}, f32[512,1024]{0,1}, f32[1024]{0}, f32[1024]{0}, /*index=175*/f32[1024]{0}, f32[128,1024]{0,1}, f32[384]{0}, f32[1024,384]{0,1}, f32[512]{0}, /*index=180*/f32[1024,512]{0,1}, f32[1024]{0}, f32[1024]{0}, f32[1024]{0}, f32[512,1024]{0,1}, /*index=185*/f32[1024]{0}, f32[1024]{0}, f32[1024]{0}, f32[128,1024]{0,1}, f32[384]{0}, /*index=190*/f32[1024,384]{0,1}, f32[512]{0}, f32[1024,512]{0,1}, f32[1024]{0}, f32[1024]{0}, /*index=195*/f32[1024]{0}, f32[512,1024]{0,1}, f32[1024]{0}, f32[1024]{0}, f32[1024]{0}, /*index=200*/f32[128,1024]{0,1}, f32[384]{0}, f32[1024,384]{0,1}, f32[512]{0}, f32[1024,512]{0,1}, /*index=205*/f32[1024]{0}, f32[1024]{0}, f32[1024]{0}, f32[512,1024]{0,1}, f32[1024]{0}, /*index=210*/f32[1024]{0}, f32[1024]{0}, f32[128,1024]{0,1}, f32[384]{0}, f32[1024,384]{0,1}, /*index=215*/f32[512]{0}, f32[1024,512]{0,1}, f32[1024]{0}, f32[1024]{0}, f32[1024]{0}, /*index=220*/f32[512,1024]{0,1}, f32[1024]{0}, f32[1024]{0}, f32[1024]{0}, f32[128,1024]{0,1}, /*index=225*/f32[384]{0}, f32[1024,384]{0,1}, f32[512]{0}, f32[1024,512]{0,1}, f32[1024]{0}, /*index=230*/f32[1024]{0}, f32[1024]{0}, f32[512,1024]{0,1})}

%add.1 (x.1: f16[], y.1: f16[]) -> f16[] {
  %x.1 = f16[] parameter(0)
  %y.1 = f16[] parameter(1)
  ROOT %add.27 = f16[] add(f16[] %x.1, f16[] %y.1)
}

%region_40.1707 (Arg_0.1708: f32[], Arg_1.1709: f32[]) -> f32[] {
  %Arg_0.1708 = f32[] parameter(0)
  %Arg_1.1709 = f32[] parameter(1)
  ROOT %add.1710 = f32[] add(f32[] %Arg_0.1708, f32[] %Arg_1.1709), metadata={op_name="parallelize(train_step_shard_parallel)/jit(main)/reduce_sum[axes=(0, 1)]" source_file="/code/alpa/playground/alpa_micro_benchmark/test_export_hlo.py" source_line=90}
}

%region_41.1720 (Arg_0.1721: f16[], Arg_1.1722: f16[]) -> f16[] {
  %Arg_0.1721 = f16[] parameter(0)
  %Arg_1.1722 = f16[] parameter(1)
  ROOT %add.1723 = f16[] add(f16[] %Arg_0.1721, f16[] %Arg_1.1722), metadata={op_name="parallelize(train_step_shard_parallel)/jit(main)/reduce_sum[axes=(2,)]" source_file="/code/alpa/playground/alpa_micro_benchmark/test_export_hlo.py" source_line=88}
}

%region_0.466 (Arg_0.467: f32[], Arg_1.468: f32[]) -> f32[] {
  %Arg_0.467 = f32[] parameter(0)
  %Arg_1.468 = f32[] parameter(1)
  ROOT %add.469 = f32[] add(f32[] %Arg_0.467, f32[] %Arg_1.468), metadata={op_name="parallelize(train_step_shard_parallel)/jit(main)/jvp(FlaxGPTForLMModule)/transformers/embeddings/LayerNorm/reduce_sum[axes=(2,)]" source_file="/python3.9-env/lib/python3.9/site-packages/flax/linen/normalization.py" source_line=82}
}

%region_1.474 (Arg_0.475: f32[], Arg_1.476: f32[]) -> f32[] {
  %Arg_0.475 = f32[] parameter(0)
  %Arg_1.476 = f32[] parameter(1)
  ROOT %add.477 = f32[] add(f32[] %Arg_0.475, f32[] %Arg_1.476), metadata={op_name="parallelize(train_step_shard_parallel)/jit(main)/jvp(FlaxGPTForLMModule)/transformers/embeddings/LayerNorm/reduce_sum[axes=(2,)]" source_file="/python3.9-env/lib/python3.9/site-packages/flax/linen/normalization.py" source_line=83}
}

%region_2.539 (Arg_0.540: f16[], Arg_1.541: f16[]) -> f16[] {
  %Arg_0.540 = f16[] parameter(0)
  %Arg_1.541 = f16[] parameter(1)
  ROOT %maximum.542 = f16[] maximum(f16[] %Arg_0.540, f16[] %Arg_1.541), metadata={op_name="parallelize(train_step_shard_parallel)/jit(main)/jvp(FlaxGPTForLMModule)/transformers/encoder/layer/0/0/attention/self/reduce_max[axes=(3,)]" source_file="/python3.9-env/lib/python3.9/site-packages/flax/linen/attention.py" source_line=107}
}

%region_3.551 (Arg_0.552: f32[], Arg_1.553: f32[]) -> f32[] {
  %Arg_0.552 = f32[] parameter(0)
  %Arg_1.553 = f32[] parameter(1)
  ROOT %add.554 = f32[] add(f32[] %Arg_0.552, f32[] %Arg_1.553), metadata={op_name="parallelize(train_step_shard_parallel)/jit(main)/jvp(FlaxGPTForLMModule)/transformers/encoder/layer/0/0/attention/self/reduce_sum[axes=(3,)]" source_file="/python3.9-env/lib/python3.9/site-packages/flax/linen/attention.py" source_line=107}
}

%add.2 (x.2: f16[], y.2: f16[]) -> f16[] {
  %x.2 = f16[] parameter(0)
  %y.2 = f16[] parameter(1)
  ROOT %add.28 = f16[] add(f16[] %x.2, f16[] %y.2)
}

%region_4.576 (Arg_0.577: f32[], Arg_1.578: f32[]) -> f32[] {
  %Arg_0.577 = f32[] parameter(0)
  %Arg_1.578 = f32[] parameter(1)
  ROOT %add.579 = f32[] add(f32[] %Arg_0.577, f32[] %Arg_1.578), metadata={op_name="parallelize(train_step_shard_parallel)/jit(main)/jvp(FlaxGPTForLMModule)/transformers/encoder/layer/0/0/attention/output/LayerNorm/reduce_sum[axes=(2,)]" source_file="/python3.9-env/lib/python3.9/site-packages/flax/linen/normalization.py" source_line=82}
}

%region_5.588 (Arg_0.589: f32[], Arg_1.590: f32[]) -> f32[] {
  %Arg_0.589 = f32[] parameter(0)
  %Arg_1.590 = f32[] parameter(1)
  ROOT %add.591 = f32[] add(f32[] %Arg_0.589, f32[] %Arg_1.590), metadata={op_name="parallelize(train_step_shard_parallel)/jit(main)/jvp(FlaxGPTForLMModule)/transformers/encoder/layer/0/0/attention/output/LayerNorm/reduce_sum[axes=(2,)]" source_file="/python3.9-env/lib/python3.9/site-packages/flax/linen/normalization.py" source_line=83}
}

%add.3 (x.3: f16[], y.3: f16[]) -> f16[] {
  %x.3 = f16[] parameter(0)
  %y.3 = f16[] parameter(1)
  ROOT %add.29 = f16[] add(f16[] %x.3, f16[] %y.3)
}

%region_6.668 (Arg_0.669: f32[], Arg_1.670: f32[]) -> f32[] {
  %Arg_0.669 = f32[] parameter(0)
  %Arg_1.670 = f32[] parameter(1)
  ROOT %add.671 = f32[] add(f32[] %Arg_0.669, f32[] %Arg_1.670), metadata={op_name="parallelize(train_step_shard_parallel)/jit(main)/jvp(FlaxGPTForLMModule)/transformers/encoder/layer/0/0/output/LayerNorm/reduce_sum[axes=(2,)]" source_file="/python3.9-env/lib/python3.9/site-packages/flax/linen/normalization.py" source_line=82}
}

%region_7.680 (Arg_0.681: f32[], Arg_1.682: f32[]) -> f32[] {
  %Arg_0.681 = f32[] parameter(0)
  %Arg_1.682 = f32[] parameter(1)
  ROOT %add.683 = f32[] add(f32[] %Arg_0.681, f32[] %Arg_1.682), metadata={op_name="parallelize(train_step_shard_parallel)/jit(main)/jvp(FlaxGPTForLMModule)/transformers/encoder/layer/0/0/output/LayerNorm/reduce_sum[axes=(2,)]" source_file="/python3.9-env/lib/python3.9/site-packages/flax/linen/normalization.py" source_line=83}
}

%region_8.731 (Arg_0.732: f16[], Arg_1.733: f16[]) -> f16[] {
  %Arg_0.732 = f16[] parameter(0)
  %Arg_1.733 = f16[] parameter(1)
  ROOT %maximum.734 = f16[] maximum(f16[] %Arg_0.732, f16[] %Arg_1.733), metadata={op_name="parallelize(train_step_shard_parallel)/jit(main)/jvp(FlaxGPTForLMModule)/transformers/encoder/layer/1/1/attention/self/reduce_max[axes=(3,)]" source_file="/python3.9-env/lib/python3.9/site-packages/flax/linen/attention.py" source_line=107}
}

%region_9.743 (Arg_0.744: f32[], Arg_1.745: f32[]) -> f32[] {
  %Arg_0.744 = f32[] parameter(0)
  %Arg_1.745 = f32[] parameter(1)
  ROOT %add.746 = f32[] add(f32[] %Arg_0.744, f32[] %Arg_1.745), metadata={op_name="parallelize(train_step_shard_parallel)/jit(main)/jvp(FlaxGPTForLMModule)/transformers/encoder/layer/1/1/attention/self/reduce_sum[axes=(3,)]" source_file="/python3.9-env/lib/python3.9/site-packages/flax/linen/attention.py" source_line=107}
}

%add.4 (x.4: f16[], y.4: f16[]) -> f16[] {
  %x.4 = f16[] parameter(0)
  %y.4 = f16[] parameter(1)
  ROOT %add.30 = f16[] add(f16[] %x.4, f16[] %y.4)
}

%region_10.768 (Arg_0.769: f32[], Arg_1.770: f32[]) -> f32[] {
  %Arg_0.769 = f32[] parameter(0)
  %Arg_1.770 = f32[] parameter(1)
  ROOT %add.771 = f32[] add(f32[] %Arg_0.769, f32[] %Arg_1.770), metadata={op_name="parallelize(train_step_shard_parallel)/jit(main)/jvp(FlaxGPTForLMModule)/transformers/encoder/layer/1/1/attention/output/LayerNorm/reduce_sum[axes=(2,)]" source_file="/python3.9-env/lib/python3.9/site-packages/flax/linen/normalization.py" source_line=82}
}

%region_11.780 (Arg_0.781: f32[], Arg_1.782: f32[]) -> f32[] {
  %Arg_0.781 = f32[] parameter(0)
  %Arg_1.782 = f32[] parameter(1)
  ROOT %add.783 = f32[] add(f32[] %Arg_0.781, f32[] %Arg_1.782), metadata={op_name="parallelize(train_step_shard_parallel)/jit(main)/jvp(FlaxGPTForLMModule)/transformers/encoder/layer/1/1/attention/output/LayerNorm/reduce_sum[axes=(2,)]" source_file="/python3.9-env/lib/python3.9/site-packages/flax/linen/normalization.py" source_line=83}
}

%add.5 (x.5: f16[], y.5: f16[]) -> f16[] {
  %x.5 = f16[] parameter(0)
  %y.5 = f16[] parameter(1)
  ROOT %add.31 = f16[] add(f16[] %x.5, f16[] %y.5)
}

%region_12.860 (Arg_0.861: f32[], Arg_1.862: f32[]) -> f32[] {
  %Arg_0.861 = f32[] parameter(0)
  %Arg_1.862 = f32[] parameter(1)
  ROOT %add.863 = f32[] add(f32[] %Arg_0.861, f32[] %Arg_1.862), metadata={op_name="parallelize(train_step_shard_parallel)/jit(main)/jvp(FlaxGPTForLMModule)/transformers/encoder/layer/1/1/output/LayerNorm/reduce_sum[axes=(2,)]" source_file="/python3.9-env/lib/python3.9/site-packages/flax/linen/normalization.py" source_line=82}
}

%region_13.872 (Arg_0.873: f32[], Arg_1.874: f32[]) -> f32[] {
  %Arg_0.873 = f32[] parameter(0)
  %Arg_1.874 = f32[] parameter(1)
  ROOT %add.875 = f32[] add(f32[] %Arg_0.873, f32[] %Arg_1.874), metadata={op_name="parallelize(train_step_shard_parallel)/jit(main)/jvp(FlaxGPTForLMModule)/transformers/encoder/layer/1/1/output/LayerNorm/reduce_sum[axes=(2,)]" source_file="/python3.9-env/lib/python3.9/site-packages/flax/linen/normalization.py" source_line=83}
}

%region_14.923 (Arg_0.924: f16[], Arg_1.925: f16[]) -> f16[] {
  %Arg_0.924 = f16[] parameter(0)
  %Arg_1.925 = f16[] parameter(1)
  ROOT %maximum.926 = f16[] maximum(f16[] %Arg_0.924, f16[] %Arg_1.925), metadata={op_name="parallelize(train_step_shard_parallel)/jit(main)/jvp(FlaxGPTForLMModule)/transformers/encoder/layer/2/2/attention/self/reduce_max[axes=(3,)]" source_file="/python3.9-env/lib/python3.9/site-packages/flax/linen/attention.py" source_line=107}
}

%region_15.935 (Arg_0.936: f32[], Arg_1.937: f32[]) -> f32[] {
  %Arg_0.936 = f32[] parameter(0)
  %Arg_1.937 = f32[] parameter(1)
  ROOT %add.938 = f32[] add(f32[] %Arg_0.936, f32[] %Arg_1.937), metadata={op_name="parallelize(train_step_shard_parallel)/jit(main)/jvp(FlaxGPTForLMModule)/transformers/encoder/layer/2/2/attention/self/reduce_sum[axes=(3,)]" source_file="/python3.9-env/lib/python3.9/site-packages/flax/linen/attention.py" source_line=107}
}

%add.6 (x.6: f16[], y.6: f16[]) -> f16[] {
  %x.6 = f16[] parameter(0)
  %y.6 = f16[] parameter(1)
  ROOT %add.32 = f16[] add(f16[] %x.6, f16[] %y.6)
}

%region_16.960 (Arg_0.961: f32[], Arg_1.962: f32[]) -> f32[] {
  %Arg_0.961 = f32[] parameter(0)
  %Arg_1.962 = f32[] parameter(1)
  ROOT %add.963 = f32[] add(f32[] %Arg_0.961, f32[] %Arg_1.962), metadata={op_name="parallelize(train_step_shard_parallel)/jit(main)/jvp(FlaxGPTForLMModule)/transformers/encoder/layer/2/2/attention/output/LayerNorm/reduce_sum[axes=(2,)]" source_file="/python3.9-env/lib/python3.9/site-packages/flax/linen/normalization.py" source_line=82}
}

%region_17.972 (Arg_0.973: f32[], Arg_1.974: f32[]) -> f32[] {
  %Arg_0.973 = f32[] parameter(0)
  %Arg_1.974 = f32[] parameter(1)
  ROOT %add.975 = f32[] add(f32[] %Arg_0.973, f32[] %Arg_1.974), metadata={op_name="parallelize(train_step_shard_parallel)/jit(main)/jvp(FlaxGPTForLMModule)/transformers/encoder/layer/2/2/attention/output/LayerNorm/reduce_sum[axes=(2,)]" source_file="/python3.9-env/lib/python3.9/site-packages/flax/linen/normalization.py" source_line=83}
}

%add.7 (x.7: f16[], y.7: f16[]) -> f16[] {
  %x.7 = f16[] parameter(0)
  %y.7 = f16[] parameter(1)
  ROOT %add.33 = f16[] add(f16[] %x.7, f16[] %y.7)
}

%region_18.1052 (Arg_0.1053: f32[], Arg_1.1054: f32[]) -> f32[] {
  %Arg_0.1053 = f32[] parameter(0)
  %Arg_1.1054 = f32[] parameter(1)
  ROOT %add.1055 = f32[] add(f32[] %Arg_0.1053, f32[] %Arg_1.1054), metadata={op_name="parallelize(train_step_shard_parallel)/jit(main)/jvp(FlaxGPTForLMModule)/transformers/encoder/layer/2/2/output/LayerNorm/reduce_sum[axes=(2,)]" source_file="/python3.9-env/lib/python3.9/site-packages/flax/linen/normalization.py" source_line=82}
}

%region_19.1064 (Arg_0.1065: f32[], Arg_1.1066: f32[]) -> f32[] {
  %Arg_0.1065 = f32[] parameter(0)
  %Arg_1.1066 = f32[] parameter(1)
  ROOT %add.1067 = f32[] add(f32[] %Arg_0.1065, f32[] %Arg_1.1066), metadata={op_name="parallelize(train_step_shard_parallel)/jit(main)/jvp(FlaxGPTForLMModule)/transformers/encoder/layer/2/2/output/LayerNorm/reduce_sum[axes=(2,)]" source_file="/python3.9-env/lib/python3.9/site-packages/flax/linen/normalization.py" source_line=83}
}

%region_20.1115 (Arg_0.1116: f16[], Arg_1.1117: f16[]) -> f16[] {
  %Arg_0.1116 = f16[] parameter(0)
  %Arg_1.1117 = f16[] parameter(1)
  ROOT %maximum.1118 = f16[] maximum(f16[] %Arg_0.1116, f16[] %Arg_1.1117), metadata={op_name="parallelize(train_step_shard_parallel)/jit(main)/jvp(FlaxGPTForLMModule)/transformers/encoder/layer/3/3/attention/self/reduce_max[axes=(3,)]" source_file="/python3.9-env/lib/python3.9/site-packages/flax/linen/attention.py" source_line=107}
}

%region_21.1127 (Arg_0.1128: f32[], Arg_1.1129: f32[]) -> f32[] {
  %Arg_0.1128 = f32[] parameter(0)
  %Arg_1.1129 = f32[] parameter(1)
  ROOT %add.1130 = f32[] add(f32[] %Arg_0.1128, f32[] %Arg_1.1129), metadata={op_name="parallelize(train_step_shard_parallel)/jit(main)/jvp(FlaxGPTForLMModule)/transformers/encoder/layer/3/3/attention/self/reduce_sum[axes=(3,)]" source_file="/python3.9-env/lib/python3.9/site-packages/flax/linen/attention.py" source_line=107}
}

%add.8 (x.8: f16[], y.8: f16[]) -> f16[] {
  %x.8 = f16[] parameter(0)
  %y.8 = f16[] parameter(1)
  ROOT %add.34 = f16[] add(f16[] %x.8, f16[] %y.8)
}

%region_22.1152 (Arg_0.1153: f32[], Arg_1.1154: f32[]) -> f32[] {
  %Arg_0.1153 = f32[] parameter(0)
  %Arg_1.1154 = f32[] parameter(1)
  ROOT %add.1155 = f32[] add(f32[] %Arg_0.1153, f32[] %Arg_1.1154), metadata={op_name="parallelize(train_step_shard_parallel)/jit(main)/jvp(FlaxGPTForLMModule)/transformers/encoder/layer/3/3/attention/output/LayerNorm/reduce_sum[axes=(2,)]" source_file="/python3.9-env/lib/python3.9/site-packages/flax/linen/normalization.py" source_line=82}
}

%region_23.1164 (Arg_0.1165: f32[], Arg_1.1166: f32[]) -> f32[] {
  %Arg_0.1165 = f32[] parameter(0)
  %Arg_1.1166 = f32[] parameter(1)
  ROOT %add.1167 = f32[] add(f32[] %Arg_0.1165, f32[] %Arg_1.1166), metadata={op_name="parallelize(train_step_shard_parallel)/jit(main)/jvp(FlaxGPTForLMModule)/transformers/encoder/layer/3/3/attention/output/LayerNorm/reduce_sum[axes=(2,)]" source_file="/python3.9-env/lib/python3.9/site-packages/flax/linen/normalization.py" source_line=83}
}

%add.9 (x.9: f16[], y.9: f16[]) -> f16[] {
  %x.9 = f16[] parameter(0)
  %y.9 = f16[] parameter(1)
  ROOT %add.35 = f16[] add(f16[] %x.9, f16[] %y.9)
}

%region_24.1244 (Arg_0.1245: f32[], Arg_1.1246: f32[]) -> f32[] {
  %Arg_0.1245 = f32[] parameter(0)
  %Arg_1.1246 = f32[] parameter(1)
  ROOT %add.1247 = f32[] add(f32[] %Arg_0.1245, f32[] %Arg_1.1246), metadata={op_name="parallelize(train_step_shard_parallel)/jit(main)/jvp(FlaxGPTForLMModule)/transformers/encoder/layer/3/3/output/LayerNorm/reduce_sum[axes=(2,)]" source_file="/python3.9-env/lib/python3.9/site-packages/flax/linen/normalization.py" source_line=82}
}

%region_25.1256 (Arg_0.1257: f32[], Arg_1.1258: f32[]) -> f32[] {
  %Arg_0.1257 = f32[] parameter(0)
  %Arg_1.1258 = f32[] parameter(1)
  ROOT %add.1259 = f32[] add(f32[] %Arg_0.1257, f32[] %Arg_1.1258), metadata={op_name="parallelize(train_step_shard_parallel)/jit(main)/jvp(FlaxGPTForLMModule)/transformers/encoder/layer/3/3/output/LayerNorm/reduce_sum[axes=(2,)]" source_file="/python3.9-env/lib/python3.9/site-packages/flax/linen/normalization.py" source_line=83}
}

%region_26.1307 (Arg_0.1308: f16[], Arg_1.1309: f16[]) -> f16[] {
  %Arg_0.1308 = f16[] parameter(0)
  %Arg_1.1309 = f16[] parameter(1)
  ROOT %maximum.1310 = f16[] maximum(f16[] %Arg_0.1308, f16[] %Arg_1.1309), metadata={op_name="parallelize(train_step_shard_parallel)/jit(main)/jvp(FlaxGPTForLMModule)/transformers/encoder/layer/4/4/attention/self/reduce_max[axes=(3,)]" source_file="/python3.9-env/lib/python3.9/site-packages/flax/linen/attention.py" source_line=107}
}

%region_27.1319 (Arg_0.1320: f32[], Arg_1.1321: f32[]) -> f32[] {
  %Arg_0.1320 = f32[] parameter(0)
  %Arg_1.1321 = f32[] parameter(1)
  ROOT %add.1322 = f32[] add(f32[] %Arg_0.1320, f32[] %Arg_1.1321), metadata={op_name="parallelize(train_step_shard_parallel)/jit(main)/jvp(FlaxGPTForLMModule)/transformers/encoder/layer/4/4/attention/self/reduce_sum[axes=(3,)]" source_file="/python3.9-env/lib/python3.9/site-packages/flax/linen/attention.py" source_line=107}
}

%add.10 (x.10: f16[], y.10: f16[]) -> f16[] {
  %x.10 = f16[] parameter(0)
  %y.10 = f16[] parameter(1)
  ROOT %add.36 = f16[] add(f16[] %x.10, f16[] %y.10)
}

%region_28.1344 (Arg_0.1345: f32[], Arg_1.1346: f32[]) -> f32[] {
  %Arg_0.1345 = f32[] parameter(0)
  %Arg_1.1346 = f32[] parameter(1)
  ROOT %add.1347 = f32[] add(f32[] %Arg_0.1345, f32[] %Arg_1.1346), metadata={op_name="parallelize(train_step_shard_parallel)/jit(main)/jvp(FlaxGPTForLMModule)/transformers/encoder/layer/4/4/attention/output/LayerNorm/reduce_sum[axes=(2,)]" source_file="/python3.9-env/lib/python3.9/site-packages/flax/linen/normalization.py" source_line=82}
}

%region_29.1356 (Arg_0.1357: f32[], Arg_1.1358: f32[]) -> f32[] {
  %Arg_0.1357 = f32[] parameter(0)
  %Arg_1.1358 = f32[] parameter(1)
  ROOT %add.1359 = f32[] add(f32[] %Arg_0.1357, f32[] %Arg_1.1358), metadata={op_name="parallelize(train_step_shard_parallel)/jit(main)/jvp(FlaxGPTForLMModule)/transformers/encoder/layer/4/4/attention/output/LayerNorm/reduce_sum[axes=(2,)]" source_file="/python3.9-env/lib/python3.9/site-packages/flax/linen/normalization.py" source_line=83}
}

%add.11 (x.11: f16[], y.11: f16[]) -> f16[] {
  %x.11 = f16[] parameter(0)
  %y.11 = f16[] parameter(1)
  ROOT %add.37 = f16[] add(f16[] %x.11, f16[] %y.11)
}

%region_30.1436 (Arg_0.1437: f32[], Arg_1.1438: f32[]) -> f32[] {
  %Arg_0.1437 = f32[] parameter(0)
  %Arg_1.1438 = f32[] parameter(1)
  ROOT %add.1439 = f32[] add(f32[] %Arg_0.1437, f32[] %Arg_1.1438), metadata={op_name="parallelize(train_step_shard_parallel)/jit(main)/jvp(FlaxGPTForLMModule)/transformers/encoder/layer/4/4/output/LayerNorm/reduce_sum[axes=(2,)]" source_file="/python3.9-env/lib/python3.9/site-packages/flax/linen/normalization.py" source_line=82}
}

%region_31.1448 (Arg_0.1449: f32[], Arg_1.1450: f32[]) -> f32[] {
  %Arg_0.1449 = f32[] parameter(0)
  %Arg_1.1450 = f32[] parameter(1)
  ROOT %add.1451 = f32[] add(f32[] %Arg_0.1449, f32[] %Arg_1.1450), metadata={op_name="parallelize(train_step_shard_parallel)/jit(main)/jvp(FlaxGPTForLMModule)/transformers/encoder/layer/4/4/output/LayerNorm/reduce_sum[axes=(2,)]" source_file="/python3.9-env/lib/python3.9/site-packages/flax/linen/normalization.py" source_line=83}
}

%region_32.1499 (Arg_0.1500: f16[], Arg_1.1501: f16[]) -> f16[] {
  %Arg_0.1500 = f16[] parameter(0)
  %Arg_1.1501 = f16[] parameter(1)
  ROOT %maximum.1502 = f16[] maximum(f16[] %Arg_0.1500, f16[] %Arg_1.1501), metadata={op_name="parallelize(train_step_shard_parallel)/jit(main)/jvp(FlaxGPTForLMModule)/transformers/encoder/layer/5/5/attention/self/reduce_max[axes=(3,)]" source_file="/python3.9-env/lib/python3.9/site-packages/flax/linen/attention.py" source_line=107}
}

%region_33.1511 (Arg_0.1512: f32[], Arg_1.1513: f32[]) -> f32[] {
  %Arg_0.1512 = f32[] parameter(0)
  %Arg_1.1513 = f32[] parameter(1)
  ROOT %add.1514 = f32[] add(f32[] %Arg_0.1512, f32[] %Arg_1.1513), metadata={op_name="parallelize(train_step_shard_parallel)/jit(main)/jvp(FlaxGPTForLMModule)/transformers/encoder/layer/5/5/attention/self/reduce_sum[axes=(3,)]" source_file="/python3.9-env/lib/python3.9/site-packages/flax/linen/attention.py" source_line=107}
}

%add.12 (x.12: f16[], y.12: f16[]) -> f16[] {
  %x.12 = f16[] parameter(0)
  %y.12 = f16[] parameter(1)
  ROOT %add.38 = f16[] add(f16[] %x.12, f16[] %y.12)
}

%region_34.1536 (Arg_0.1537: f32[], Arg_1.1538: f32[]) -> f32[] {
  %Arg_0.1537 = f32[] parameter(0)
  %Arg_1.1538 = f32[] parameter(1)
  ROOT %add.1539 = f32[] add(f32[] %Arg_0.1537, f32[] %Arg_1.1538), metadata={op_name="parallelize(train_step_shard_parallel)/jit(main)/jvp(FlaxGPTForLMModule)/transformers/encoder/layer/5/5/attention/output/LayerNorm/reduce_sum[axes=(2,)]" source_file="/python3.9-env/lib/python3.9/site-packages/flax/linen/normalization.py" source_line=82}
}

%region_35.1548 (Arg_0.1549: f32[], Arg_1.1550: f32[]) -> f32[] {
  %Arg_0.1549 = f32[] parameter(0)
  %Arg_1.1550 = f32[] parameter(1)
  ROOT %add.1551 = f32[] add(f32[] %Arg_0.1549, f32[] %Arg_1.1550), metadata={op_name="parallelize(train_step_shard_parallel)/jit(main)/jvp(FlaxGPTForLMModule)/transformers/encoder/layer/5/5/attention/output/LayerNorm/reduce_sum[axes=(2,)]" source_file="/python3.9-env/lib/python3.9/site-packages/flax/linen/normalization.py" source_line=83}
}

%add.13 (x.13: f16[], y.13: f16[]) -> f16[] {
  %x.13 = f16[] parameter(0)
  %y.13 = f16[] parameter(1)
  ROOT %add.39 = f16[] add(f16[] %x.13, f16[] %y.13)
}

%region_36.1628 (Arg_0.1629: f32[], Arg_1.1630: f32[]) -> f32[] {
  %Arg_0.1629 = f32[] parameter(0)
  %Arg_1.1630 = f32[] parameter(1)
  ROOT %add.1631 = f32[] add(f32[] %Arg_0.1629, f32[] %Arg_1.1630), metadata={op_name="parallelize(train_step_shard_parallel)/jit(main)/jvp(FlaxGPTForLMModule)/transformers/encoder/layer/5/5/output/LayerNorm/reduce_sum[axes=(2,)]" source_file="/python3.9-env/lib/python3.9/site-packages/flax/linen/normalization.py" source_line=82}
}

%region_37.1640 (Arg_0.1641: f32[], Arg_1.1642: f32[]) -> f32[] {
  %Arg_0.1641 = f32[] parameter(0)
  %Arg_1.1642 = f32[] parameter(1)
  ROOT %add.1643 = f32[] add(f32[] %Arg_0.1641, f32[] %Arg_1.1642), metadata={op_name="parallelize(train_step_shard_parallel)/jit(main)/jvp(FlaxGPTForLMModule)/transformers/encoder/layer/5/5/output/LayerNorm/reduce_sum[axes=(2,)]" source_file="/python3.9-env/lib/python3.9/site-packages/flax/linen/normalization.py" source_line=83}
}

%region_38.1688 (Arg_0.1689: f16[], Arg_1.1690: f16[]) -> f16[] {
  %Arg_0.1689 = f16[] parameter(0)
  %Arg_1.1690 = f16[] parameter(1)
  ROOT %maximum.1691 = f16[] maximum(f16[] %Arg_0.1689, f16[] %Arg_1.1690), metadata={op_name="parallelize(train_step_shard_parallel)/jit(main)/reduce_max[axes=(2,)]" source_file="/code/alpa/playground/alpa_micro_benchmark/test_export_hlo.py" source_line=88}
}

%region_39.1700 (Arg_0.1701: f32[], Arg_1.1702: f32[]) -> f32[] {
  %Arg_0.1701 = f32[] parameter(0)
  %Arg_1.1702 = f32[] parameter(1)
  ROOT %add.1703 = f32[] add(f32[] %Arg_0.1701, f32[] %Arg_1.1702), metadata={op_name="parallelize(train_step_shard_parallel)/jit(main)/reduce_sum[axes=(2,)]" source_file="/code/alpa/playground/alpa_micro_benchmark/test_export_hlo.py" source_line=88}
}

%region_43.1737 (Arg_0.1738: f16[], Arg_1.1739: f16[]) -> f16[] {
  %Arg_0.1738 = f16[] parameter(0)
  %Arg_1.1739 = f16[] parameter(1)
  ROOT %add.1740 = f16[] add(f16[] %Arg_0.1738, f16[] %Arg_1.1739), metadata={op_name="parallelize(train_step_shard_parallel)/jit(main)/transpose(jvp(FlaxGPTForLMModule))/reduce_sum[axes=(0, 1)]" source_file="/code/alpa/alpa/model/gpt_model.py" source_line=75}
}

%add.14 (x.14: f16[], y.14: f16[]) -> f16[] {
  %x.14 = f16[] parameter(0)
  %y.14 = f16[] parameter(1)
  ROOT %add.40 = f16[] add(f16[] %x.14, f16[] %y.14)
}

%region_45.1817 (Arg_0.1818: f16[], Arg_1.1819: f16[]) -> f16[] {
  %Arg_0.1818 = f16[] parameter(0)
  %Arg_1.1819 = f16[] parameter(1)
  ROOT %maximum.1820 = f16[] maximum(f16[] %Arg_0.1818, f16[] %Arg_1.1819), metadata={op_name="parallelize(train_step_shard_parallel)/jit(main)/transpose(jvp(FlaxGPTForLMModule))/transformers/encoder/layer/5/remat(core_fn)/5/attention/self/reduce_max[axes=(3,)]" source_file="/python3.9-env/lib/python3.9/site-packages/flax/linen/attention.py" source_line=107}
}

%region_46.1829 (Arg_0.1830: f32[], Arg_1.1831: f32[]) -> f32[] {
  %Arg_0.1830 = f32[] parameter(0)
  %Arg_1.1831 = f32[] parameter(1)
  ROOT %add.1832 = f32[] add(f32[] %Arg_0.1830, f32[] %Arg_1.1831), metadata={op_name="parallelize(train_step_shard_parallel)/jit(main)/transpose(jvp(FlaxGPTForLMModule))/transformers/encoder/layer/5/remat(core_fn)/5/attention/self/reduce_sum[axes=(3,)]" source_file="/python3.9-env/lib/python3.9/site-packages/flax/linen/attention.py" source_line=107}
}

%add.15 (x.15: f16[], y.15: f16[]) -> f16[] {
  %x.15 = f16[] parameter(0)
  %y.15 = f16[] parameter(1)
  ROOT %add.41 = f16[] add(f16[] %x.15, f16[] %y.15)
}

%region_47.1854 (Arg_0.1855: f32[], Arg_1.1856: f32[]) -> f32[] {
  %Arg_0.1855 = f32[] parameter(0)
  %Arg_1.1856 = f32[] parameter(1)
  ROOT %add.1857 = f32[] add(f32[] %Arg_0.1855, f32[] %Arg_1.1856), metadata={op_name="parallelize(train_step_shard_parallel)/jit(main)/transpose(jvp(FlaxGPTForLMModule))/transformers/encoder/layer/5/remat(core_fn)/5/attention/output/LayerNorm/reduce_sum[axes=(2,)]" source_file="/python3.9-env/lib/python3.9/site-packages/flax/linen/normalization.py" source_line=82}
}

%region_48.1867 (Arg_0.1868: f32[], Arg_1.1869: f32[]) -> f32[] {
  %Arg_0.1868 = f32[] parameter(0)
  %Arg_1.1869 = f32[] parameter(1)
  ROOT %add.1870 = f32[] add(f32[] %Arg_0.1868, f32[] %Arg_1.1869), metadata={op_name="parallelize(train_step_shard_parallel)/jit(main)/transpose(jvp(FlaxGPTForLMModule))/transformers/encoder/layer/5/remat(core_fn)/5/attention/output/LayerNorm/reduce_sum[axes=(2,)]" source_file="/python3.9-env/lib/python3.9/site-packages/flax/linen/normalization.py" source_line=83}
}

%add.16 (x.16: f16[], y.16: f16[]) -> f16[] {
  %x.16 = f16[] parameter(0)
  %y.16 = f16[] parameter(1)
  ROOT %add.42 = f16[] add(f16[] %x.16, f16[] %y.16)
}

%region_49.1953 (Arg_0.1954: f32[], Arg_1.1955: f32[]) -> f32[] {
  %Arg_0.1954 = f32[] parameter(0)
  %Arg_1.1955 = f32[] parameter(1)
  ROOT %add.1956 = f32[] add(f32[] %Arg_0.1954, f32[] %Arg_1.1955), metadata={op_name="parallelize(train_step_shard_parallel)/jit(main)/transpose(jvp(FlaxGPTForLMModule))/transformers/encoder/layer/5/remat(core_fn)/5/output/LayerNorm/reduce_sum[axes=(2,)]" source_file="/python3.9-env/lib/python3.9/site-packages/flax/linen/normalization.py" source_line=82}
}

%region_53.2034 (Arg_0.2035: f32[], Arg_1.2036: f32[]) -> f32[] {
  %Arg_0.2035 = f32[] parameter(0)
  %Arg_1.2036 = f32[] parameter(1)
  ROOT %add.2037 = f32[] add(f32[] %Arg_0.2035, f32[] %Arg_1.2036), metadata={op_name="parallelize(train_step_shard_parallel)/jit(main)/transpose(jvp(FlaxGPTForLMModule))/transformers/encoder/layer/5/remat(core_fn)/5/output/LayerNorm/reduce_sum[axes=(2,)]" source_file="/python3.9-env/lib/python3.9/site-packages/flax/linen/normalization.py" source_line=144}
}

%region_50.1966 (Arg_0.1967: f32[], Arg_1.1968: f32[]) -> f32[] {
  %Arg_0.1967 = f32[] parameter(0)
  %Arg_1.1968 = f32[] parameter(1)
  ROOT %add.1969 = f32[] add(f32[] %Arg_0.1967, f32[] %Arg_1.1968), metadata={op_name="parallelize(train_step_shard_parallel)/jit(main)/transpose(jvp(FlaxGPTForLMModule))/transformers/encoder/layer/5/remat(core_fn)/5/output/LayerNorm/reduce_sum[axes=(2,)]" source_file="/python3.9-env/lib/python3.9/site-packages/flax/linen/normalization.py" source_line=83}
}

%region_54.2051 (Arg_0.2052: f32[], Arg_1.2053: f32[]) -> f32[] {
  %Arg_0.2052 = f32[] parameter(0)
  %Arg_1.2053 = f32[] parameter(1)
  ROOT %add.2054 = f32[] add(f32[] %Arg_0.2052, f32[] %Arg_1.2053), metadata={op_name="parallelize(train_step_shard_parallel)/jit(main)/transpose(jvp(FlaxGPTForLMModule))/transformers/encoder/layer/5/remat(core_fn)/5/output/LayerNorm/reduce_sum[axes=(2,)]" source_file="/python3.9-env/lib/python3.9/site-packages/flax/linen/normalization.py" source_line=138}
}

%add.17 (x.17: f16[], y.17: f16[]) -> f16[] {
  %x.17 = f16[] parameter(0)
  %y.17 = f16[] parameter(1)
  ROOT %add.43 = f16[] add(f16[] %x.17, f16[] %y.17)
}

%region_59.2114 (Arg_0.2115: f32[], Arg_1.2116: f32[]) -> f32[] {
  %Arg_0.2115 = f32[] parameter(0)
  %Arg_1.2116 = f32[] parameter(1)
  ROOT %add.2117 = f32[] add(f32[] %Arg_0.2115, f32[] %Arg_1.2116), metadata={op_name="parallelize(train_step_shard_parallel)/jit(main)/transpose(jvp(FlaxGPTForLMModule))/transformers/encoder/layer/5/remat(core_fn)/5/attention/output/LayerNorm/reduce_sum[axes=(2,)]" source_file="/python3.9-env/lib/python3.9/site-packages/flax/linen/normalization.py" source_line=144}
}

%region_60.2131 (Arg_0.2132: f32[], Arg_1.2133: f32[]) -> f32[] {
  %Arg_0.2132 = f32[] parameter(0)
  %Arg_1.2133 = f32[] parameter(1)
  ROOT %add.2134 = f32[] add(f32[] %Arg_0.2132, f32[] %Arg_1.2133), metadata={op_name="parallelize(train_step_shard_parallel)/jit(main)/transpose(jvp(FlaxGPTForLMModule))/transformers/encoder/layer/5/remat(core_fn)/5/attention/output/LayerNorm/reduce_sum[axes=(2,)]" source_file="/python3.9-env/lib/python3.9/site-packages/flax/linen/normalization.py" source_line=138}
}

%region_62.2162 (Arg_0.2163: f16[], Arg_1.2164: f16[]) -> f16[] {
  %Arg_0.2163 = f16[] parameter(0)
  %Arg_1.2164 = f16[] parameter(1)
  ROOT %add.2165 = f16[] add(f16[] %Arg_0.2163, f16[] %Arg_1.2164), metadata={op_name="parallelize(train_step_shard_parallel)/jit(main)/transpose(jvp(FlaxGPTForLMModule))/transformers/encoder/layer/5/remat(core_fn)/5/attention/self/reduce_sum[axes=(3,)]" source_file="/python3.9-env/lib/python3.9/site-packages/flax/linen/attention.py" source_line=107}
}

%add.18 (x.18: f16[], y.18: f16[]) -> f16[] {
  %x.18 = f16[] parameter(0)
  %y.18 = f16[] parameter(1)
  ROOT %add.44 = f16[] add(f16[] %x.18, f16[] %y.18)
}

%region_65.2276 (Arg_0.2277: f16[], Arg_1.2278: f16[]) -> f16[] {
  %Arg_0.2277 = f16[] parameter(0)
  %Arg_1.2278 = f16[] parameter(1)
  ROOT %maximum.2279 = f16[] maximum(f16[] %Arg_0.2277, f16[] %Arg_1.2278), metadata={op_name="parallelize(train_step_shard_parallel)/jit(main)/transpose(jvp(FlaxGPTForLMModule))/transformers/encoder/layer/4/remat(core_fn)/4/attention/self/reduce_max[axes=(3,)]" source_file="/python3.9-env/lib/python3.9/site-packages/flax/linen/attention.py" source_line=107}
}

%region_66.2288 (Arg_0.2289: f32[], Arg_1.2290: f32[]) -> f32[] {
  %Arg_0.2289 = f32[] parameter(0)
  %Arg_1.2290 = f32[] parameter(1)
  ROOT %add.2291 = f32[] add(f32[] %Arg_0.2289, f32[] %Arg_1.2290), metadata={op_name="parallelize(train_step_shard_parallel)/jit(main)/transpose(jvp(FlaxGPTForLMModule))/transformers/encoder/layer/4/remat(core_fn)/4/attention/self/reduce_sum[axes=(3,)]" source_file="/python3.9-env/lib/python3.9/site-packages/flax/linen/attention.py" source_line=107}
}

%add.19 (x.19: f16[], y.19: f16[]) -> f16[] {
  %x.19 = f16[] parameter(0)
  %y.19 = f16[] parameter(1)
  ROOT %add.45 = f16[] add(f16[] %x.19, f16[] %y.19)
}

%region_67.2313 (Arg_0.2314: f32[], Arg_1.2315: f32[]) -> f32[] {
  %Arg_0.2314 = f32[] parameter(0)
  %Arg_1.2315 = f32[] parameter(1)
  ROOT %add.2316 = f32[] add(f32[] %Arg_0.2314, f32[] %Arg_1.2315), metadata={op_name="parallelize(train_step_shard_parallel)/jit(main)/transpose(jvp(FlaxGPTForLMModule))/transformers/encoder/layer/4/remat(core_fn)/4/attention/output/LayerNorm/reduce_sum[axes=(2,)]" source_file="/python3.9-env/lib/python3.9/site-packages/flax/linen/normalization.py" source_line=82}
}

%region_68.2326 (Arg_0.2327: f32[], Arg_1.2328: f32[]) -> f32[] {
  %Arg_0.2327 = f32[] parameter(0)
  %Arg_1.2328 = f32[] parameter(1)
  ROOT %add.2329 = f32[] add(f32[] %Arg_0.2327, f32[] %Arg_1.2328), metadata={op_name="parallelize(train_step_shard_parallel)/jit(main)/transpose(jvp(FlaxGPTForLMModule))/transformers/encoder/layer/4/remat(core_fn)/4/attention/output/LayerNorm/reduce_sum[axes=(2,)]" source_file="/python3.9-env/lib/python3.9/site-packages/flax/linen/normalization.py" source_line=83}
}

%add.20 (x.20: f16[], y.20: f16[]) -> f16[] {
  %x.20 = f16[] parameter(0)
  %y.20 = f16[] parameter(1)
  ROOT %add.46 = f16[] add(f16[] %x.20, f16[] %y.20)
}

%region_69.2412 (Arg_0.2413: f32[], Arg_1.2414: f32[]) -> f32[] {
  %Arg_0.2413 = f32[] parameter(0)
  %Arg_1.2414 = f32[] parameter(1)
  ROOT %add.2415 = f32[] add(f32[] %Arg_0.2413, f32[] %Arg_1.2414), metadata={op_name="parallelize(train_step_shard_parallel)/jit(main)/transpose(jvp(FlaxGPTForLMModule))/transformers/encoder/layer/4/remat(core_fn)/4/output/LayerNorm/reduce_sum[axes=(2,)]" source_file="/python3.9-env/lib/python3.9/site-packages/flax/linen/normalization.py" source_line=82}
}

%region_73.2493 (Arg_0.2494: f32[], Arg_1.2495: f32[]) -> f32[] {
  %Arg_0.2494 = f32[] parameter(0)
  %Arg_1.2495 = f32[] parameter(1)
  ROOT %add.2496 = f32[] add(f32[] %Arg_0.2494, f32[] %Arg_1.2495), metadata={op_name="parallelize(train_step_shard_parallel)/jit(main)/transpose(jvp(FlaxGPTForLMModule))/transformers/encoder/layer/4/remat(core_fn)/4/output/LayerNorm/reduce_sum[axes=(2,)]" source_file="/python3.9-env/lib/python3.9/site-packages/flax/linen/normalization.py" source_line=144}
}

%region_70.2425 (Arg_0.2426: f32[], Arg_1.2427: f32[]) -> f32[] {
  %Arg_0.2426 = f32[] parameter(0)
  %Arg_1.2427 = f32[] parameter(1)
  ROOT %add.2428 = f32[] add(f32[] %Arg_0.2426, f32[] %Arg_1.2427), metadata={op_name="parallelize(train_step_shard_parallel)/jit(main)/transpose(jvp(FlaxGPTForLMModule))/transformers/encoder/layer/4/remat(core_fn)/4/output/LayerNorm/reduce_sum[axes=(2,)]" source_file="/python3.9-env/lib/python3.9/site-packages/flax/linen/normalization.py" source_line=83}
}

%region_74.2510 (Arg_0.2511: f32[], Arg_1.2512: f32[]) -> f32[] {
  %Arg_0.2511 = f32[] parameter(0)
  %Arg_1.2512 = f32[] parameter(1)
  ROOT %add.2513 = f32[] add(f32[] %Arg_0.2511, f32[] %Arg_1.2512), metadata={op_name="parallelize(train_step_shard_parallel)/jit(main)/transpose(jvp(FlaxGPTForLMModule))/transformers/encoder/layer/4/remat(core_fn)/4/output/LayerNorm/reduce_sum[axes=(2,)]" source_file="/python3.9-env/lib/python3.9/site-packages/flax/linen/normalization.py" source_line=138}
}

%add.21 (x.21: f16[], y.21: f16[]) -> f16[] {
  %x.21 = f16[] parameter(0)
  %y.21 = f16[] parameter(1)
  ROOT %add.47 = f16[] add(f16[] %x.21, f16[] %y.21)
}

%region_79.2573 (Arg_0.2574: f32[], Arg_1.2575: f32[]) -> f32[] {
  %Arg_0.2574 = f32[] parameter(0)
  %Arg_1.2575 = f32[] parameter(1)
  ROOT %add.2576 = f32[] add(f32[] %Arg_0.2574, f32[] %Arg_1.2575), metadata={op_name="parallelize(train_step_shard_parallel)/jit(main)/transpose(jvp(FlaxGPTForLMModule))/transformers/encoder/layer/4/remat(core_fn)/4/attention/output/LayerNorm/reduce_sum[axes=(2,)]" source_file="/python3.9-env/lib/python3.9/site-packages/flax/linen/normalization.py" source_line=144}
}

%region_80.2590 (Arg_0.2591: f32[], Arg_1.2592: f32[]) -> f32[] {
  %Arg_0.2591 = f32[] parameter(0)
  %Arg_1.2592 = f32[] parameter(1)
  ROOT %add.2593 = f32[] add(f32[] %Arg_0.2591, f32[] %Arg_1.2592), metadata={op_name="parallelize(train_step_shard_parallel)/jit(main)/transpose(jvp(FlaxGPTForLMModule))/transformers/encoder/layer/4/remat(core_fn)/4/attention/output/LayerNorm/reduce_sum[axes=(2,)]" source_file="/python3.9-env/lib/python3.9/site-packages/flax/linen/normalization.py" source_line=138}
}

%region_82.2621 (Arg_0.2622: f16[], Arg_1.2623: f16[]) -> f16[] {
  %Arg_0.2622 = f16[] parameter(0)
  %Arg_1.2623 = f16[] parameter(1)
  ROOT %add.2624 = f16[] add(f16[] %Arg_0.2622, f16[] %Arg_1.2623), metadata={op_name="parallelize(train_step_shard_parallel)/jit(main)/transpose(jvp(FlaxGPTForLMModule))/transformers/encoder/layer/4/remat(core_fn)/4/attention/self/reduce_sum[axes=(3,)]" source_file="/python3.9-env/lib/python3.9/site-packages/flax/linen/attention.py" source_line=107}
}

%add.22 (x.22: f16[], y.22: f16[]) -> f16[] {
  %x.22 = f16[] parameter(0)
  %y.22 = f16[] parameter(1)
  ROOT %add.48 = f16[] add(f16[] %x.22, f16[] %y.22)
}

%region_85.2735 (Arg_0.2736: f16[], Arg_1.2737: f16[]) -> f16[] {
  %Arg_0.2736 = f16[] parameter(0)
  %Arg_1.2737 = f16[] parameter(1)
  ROOT %maximum.2738 = f16[] maximum(f16[] %Arg_0.2736, f16[] %Arg_1.2737), metadata={op_name="parallelize(train_step_shard_parallel)/jit(main)/transpose(jvp(FlaxGPTForLMModule))/transformers/encoder/layer/3/remat(core_fn)/3/attention/self/reduce_max[axes=(3,)]" source_file="/python3.9-env/lib/python3.9/site-packages/flax/linen/attention.py" source_line=107}
}

%region_86.2747 (Arg_0.2748: f32[], Arg_1.2749: f32[]) -> f32[] {
  %Arg_0.2748 = f32[] parameter(0)
  %Arg_1.2749 = f32[] parameter(1)
  ROOT %add.2750 = f32[] add(f32[] %Arg_0.2748, f32[] %Arg_1.2749), metadata={op_name="parallelize(train_step_shard_parallel)/jit(main)/transpose(jvp(FlaxGPTForLMModule))/transformers/encoder/layer/3/remat(core_fn)/3/attention/self/reduce_sum[axes=(3,)]" source_file="/python3.9-env/lib/python3.9/site-packages/flax/linen/attention.py" source_line=107}
}

%add.23 (x.23: f16[], y.23: f16[]) -> f16[] {
  %x.23 = f16[] parameter(0)
  %y.23 = f16[] parameter(1)
  ROOT %add.49 = f16[] add(f16[] %x.23, f16[] %y.23)
}

%region_87.2772 (Arg_0.2773: f32[], Arg_1.2774: f32[]) -> f32[] {
  %Arg_0.2773 = f32[] parameter(0)
  %Arg_1.2774 = f32[] parameter(1)
  ROOT %add.2775 = f32[] add(f32[] %Arg_0.2773, f32[] %Arg_1.2774), metadata={op_name="parallelize(train_step_shard_parallel)/jit(main)/transpose(jvp(FlaxGPTForLMModule))/transformers/encoder/layer/3/remat(core_fn)/3/attention/output/LayerNorm/reduce_sum[axes=(2,)]" source_file="/python3.9-env/lib/python3.9/site-packages/flax/linen/normalization.py" source_line=82}
}

%region_88.2785 (Arg_0.2786: f32[], Arg_1.2787: f32[]) -> f32[] {
  %Arg_0.2786 = f32[] parameter(0)
  %Arg_1.2787 = f32[] parameter(1)
  ROOT %add.2788 = f32[] add(f32[] %Arg_0.2786, f32[] %Arg_1.2787), metadata={op_name="parallelize(train_step_shard_parallel)/jit(main)/transpose(jvp(FlaxGPTForLMModule))/transformers/encoder/layer/3/remat(core_fn)/3/attention/output/LayerNorm/reduce_sum[axes=(2,)]" source_file="/python3.9-env/lib/python3.9/site-packages/flax/linen/normalization.py" source_line=83}
}

%add.24 (x.24: f16[], y.24: f16[]) -> f16[] {
  %x.24 = f16[] parameter(0)
  %y.24 = f16[] parameter(1)
  ROOT %add.50 = f16[] add(f16[] %x.24, f16[] %y.24)
}

%region_89.2871 (Arg_0.2872: f32[], Arg_1.2873: f32[]) -> f32[] {
  %Arg_0.2872 = f32[] parameter(0)
  %Arg_1.2873 = f32[] parameter(1)
  ROOT %add.2874 = f32[] add(f32[] %Arg_0.2872, f32[] %Arg_1.2873), metadata={op_name="parallelize(train_step_shard_parallel)/jit(main)/transpose(jvp(FlaxGPTForLMModule))/transformers/encoder/layer/3/remat(core_fn)/3/output/LayerNorm/reduce_sum[axes=(2,)]" source_file="/python3.9-env/lib/python3.9/site-packages/flax/linen/normalization.py" source_line=82}
}

%region_93.2952 (Arg_0.2953: f32[], Arg_1.2954: f32[]) -> f32[] {
  %Arg_0.2953 = f32[] parameter(0)
  %Arg_1.2954 = f32[] parameter(1)
  ROOT %add.2955 = f32[] add(f32[] %Arg_0.2953, f32[] %Arg_1.2954), metadata={op_name="parallelize(train_step_shard_parallel)/jit(main)/transpose(jvp(FlaxGPTForLMModule))/transformers/encoder/layer/3/remat(core_fn)/3/output/LayerNorm/reduce_sum[axes=(2,)]" source_file="/python3.9-env/lib/python3.9/site-packages/flax/linen/normalization.py" source_line=144}
}

%region_90.2884 (Arg_0.2885: f32[], Arg_1.2886: f32[]) -> f32[] {
  %Arg_0.2885 = f32[] parameter(0)
  %Arg_1.2886 = f32[] parameter(1)
  ROOT %add.2887 = f32[] add(f32[] %Arg_0.2885, f32[] %Arg_1.2886), metadata={op_name="parallelize(train_step_shard_parallel)/jit(main)/transpose(jvp(FlaxGPTForLMModule))/transformers/encoder/layer/3/remat(core_fn)/3/output/LayerNorm/reduce_sum[axes=(2,)]" source_file="/python3.9-env/lib/python3.9/site-packages/flax/linen/normalization.py" source_line=83}
}

%region_94.2969 (Arg_0.2970: f32[], Arg_1.2971: f32[]) -> f32[] {
  %Arg_0.2970 = f32[] parameter(0)
  %Arg_1.2971 = f32[] parameter(1)
  ROOT %add.2972 = f32[] add(f32[] %Arg_0.2970, f32[] %Arg_1.2971), metadata={op_name="parallelize(train_step_shard_parallel)/jit(main)/transpose(jvp(FlaxGPTForLMModule))/transformers/encoder/layer/3/remat(core_fn)/3/output/LayerNorm/reduce_sum[axes=(2,)]" source_file="/python3.9-env/lib/python3.9/site-packages/flax/linen/normalization.py" source_line=138}
}

%add.25 (x.25: f16[], y.25: f16[]) -> f16[] {
  %x.25 = f16[] parameter(0)
  %y.25 = f16[] parameter(1)
  ROOT %add.51 = f16[] add(f16[] %x.25, f16[] %y.25)
}

%region_99.3032 (Arg_0.3033: f32[], Arg_1.3034: f32[]) -> f32[] {
  %Arg_0.3033 = f32[] parameter(0)
  %Arg_1.3034 = f32[] parameter(1)
  ROOT %add.3035 = f32[] add(f32[] %Arg_0.3033, f32[] %Arg_1.3034), metadata={op_name="parallelize(train_step_shard_parallel)/jit(main)/transpose(jvp(FlaxGPTForLMModule))/transformers/encoder/layer/3/remat(core_fn)/3/attention/output/LayerNorm/reduce_sum[axes=(2,)]" source_file="/python3.9-env/lib/python3.9/site-packages/flax/linen/normalization.py" source_line=144}
}

%region_100.3049 (Arg_0.3050: f32[], Arg_1.3051: f32[]) -> f32[] {
  %Arg_0.3050 = f32[] parameter(0)
  %Arg_1.3051 = f32[] parameter(1)
  ROOT %add.3052 = f32[] add(f32[] %Arg_0.3050, f32[] %Arg_1.3051), metadata={op_name="parallelize(train_step_shard_parallel)/jit(main)/transpose(jvp(FlaxGPTForLMModule))/transformers/encoder/layer/3/remat(core_fn)/3/attention/output/LayerNorm/reduce_sum[axes=(2,)]" source_file="/python3.9-env/lib/python3.9/site-packages/flax/linen/normalization.py" source_line=138}
}

%region_102.3080 (Arg_0.3081: f16[], Arg_1.3082: f16[]) -> f16[] {
  %Arg_0.3081 = f16[] parameter(0)
  %Arg_1.3082 = f16[] parameter(1)
  ROOT %add.3083 = f16[] add(f16[] %Arg_0.3081, f16[] %Arg_1.3082), metadata={op_name="parallelize(train_step_shard_parallel)/jit(main)/transpose(jvp(FlaxGPTForLMModule))/transformers/encoder/layer/3/remat(core_fn)/3/attention/self/reduce_sum[axes=(3,)]" source_file="/python3.9-env/lib/python3.9/site-packages/flax/linen/attention.py" source_line=107}
}

%add.26 (x.26: f16[], y.26: f16[]) -> f16[] {
  %x.26 = f16[] parameter(0)
  %y.26 = f16[] parameter(1)
  ROOT %add.52 = f16[] add(f16[] %x.26, f16[] %y.26)
}

%region_105.3194 (Arg_0.3195: f16[], Arg_1.3196: f16[]) -> f16[] {
  %Arg_0.3195 = f16[] parameter(0)
  %Arg_1.3196 = f16[] parameter(1)
  ROOT %maximum.3197 = f16[] maximum(f16[] %Arg_0.3195, f16[] %Arg_1.3196), metadata={op_name="parallelize(train_step_shard_parallel)/jit(main)/transpose(jvp(FlaxGPTForLMModule))/transformers/encoder/layer/2/remat(core_fn)/2/attention/self/reduce_max[axes=(3,)]" source_file="/python3.9-env/lib/python3.9/site-packages/flax/linen/attention.py" source_line=107}
}

%region_106.3206 (Arg_0.3207: f32[], Arg_1.3208: f32[]) -> f32[] {
  %Arg_0.3207 = f32[] parameter(0)
  %Arg_1.3208 = f32[] parameter(1)
  ROOT %add.3209 = f32[] add(f32[] %Arg_0.3207, f32[] %Arg_1.3208), metadata={op_name="parallelize(train_step_shard_parallel)/jit(main)/transpose(jvp(FlaxGPTForLMModule))/transformers/encoder/layer/2/remat(core_fn)/2/attention/self/reduce_sum[axes=(3,)]" source_file="/python3.9-env/lib/python3.9/site-packages/flax/linen/attention.py" source_line=107}
}

%add.27 (x.27: f16[], y.27: f16[]) -> f16[] {
  %x.27 = f16[] parameter(0)
  %y.27 = f16[] parameter(1)
  ROOT %add.53 = f16[] add(f16[] %x.27, f16[] %y.27)
}

%region_107.3231 (Arg_0.3232: f32[], Arg_1.3233: f32[]) -> f32[] {
  %Arg_0.3232 = f32[] parameter(0)
  %Arg_1.3233 = f32[] parameter(1)
  ROOT %add.3234 = f32[] add(f32[] %Arg_0.3232, f32[] %Arg_1.3233), metadata={op_name="parallelize(train_step_shard_parallel)/jit(main)/transpose(jvp(FlaxGPTForLMModule))/transformers/encoder/layer/2/remat(core_fn)/2/attention/output/LayerNorm/reduce_sum[axes=(2,)]" source_file="/python3.9-env/lib/python3.9/site-packages/flax/linen/normalization.py" source_line=82}
}

%region_108.3244 (Arg_0.3245: f32[], Arg_1.3246: f32[]) -> f32[] {
  %Arg_0.3245 = f32[] parameter(0)
  %Arg_1.3246 = f32[] parameter(1)
  ROOT %add.3247 = f32[] add(f32[] %Arg_0.3245, f32[] %Arg_1.3246), metadata={op_name="parallelize(train_step_shard_parallel)/jit(main)/transpose(jvp(FlaxGPTForLMModule))/transformers/encoder/layer/2/remat(core_fn)/2/attention/output/LayerNorm/reduce_sum[axes=(2,)]" source_file="/python3.9-env/lib/python3.9/site-packages/flax/linen/normalization.py" source_line=83}
}

%add.28 (x.28: f16[], y.28: f16[]) -> f16[] {
  %x.28 = f16[] parameter(0)
  %y.28 = f16[] parameter(1)
  ROOT %add.54 = f16[] add(f16[] %x.28, f16[] %y.28)
}

%region_109.3330 (Arg_0.3331: f32[], Arg_1.3332: f32[]) -> f32[] {
  %Arg_0.3331 = f32[] parameter(0)
  %Arg_1.3332 = f32[] parameter(1)
  ROOT %add.3333 = f32[] add(f32[] %Arg_0.3331, f32[] %Arg_1.3332), metadata={op_name="parallelize(train_step_shard_parallel)/jit(main)/transpose(jvp(FlaxGPTForLMModule))/transformers/encoder/layer/2/remat(core_fn)/2/output/LayerNorm/reduce_sum[axes=(2,)]" source_file="/python3.9-env/lib/python3.9/site-packages/flax/linen/normalization.py" source_line=82}
}

%region_113.3411 (Arg_0.3412: f32[], Arg_1.3413: f32[]) -> f32[] {
  %Arg_0.3412 = f32[] parameter(0)
  %Arg_1.3413 = f32[] parameter(1)
  ROOT %add.3414 = f32[] add(f32[] %Arg_0.3412, f32[] %Arg_1.3413), metadata={op_name="parallelize(train_step_shard_parallel)/jit(main)/transpose(jvp(FlaxGPTForLMModule))/transformers/encoder/layer/2/remat(core_fn)/2/output/LayerNorm/reduce_sum[axes=(2,)]" source_file="/python3.9-env/lib/python3.9/site-packages/flax/linen/normalization.py" source_line=144}
}

%region_110.3343 (Arg_0.3344: f32[], Arg_1.3345: f32[]) -> f32[] {
  %Arg_0.3344 = f32[] parameter(0)
  %Arg_1.3345 = f32[] parameter(1)
  ROOT %add.3346 = f32[] add(f32[] %Arg_0.3344, f32[] %Arg_1.3345), metadata={op_name="parallelize(train_step_shard_parallel)/jit(main)/transpose(jvp(FlaxGPTForLMModule))/transformers/encoder/layer/2/remat(core_fn)/2/output/LayerNorm/reduce_sum[axes=(2,)]" source_file="/python3.9-env/lib/python3.9/site-packages/flax/linen/normalization.py" source_line=83}
}

%region_114.3428 (Arg_0.3429: f32[], Arg_1.3430: f32[]) -> f32[] {
  %Arg_0.3429 = f32[] parameter(0)
  %Arg_1.3430 = f32[] parameter(1)
  ROOT %add.3431 = f32[] add(f32[] %Arg_0.3429, f32[] %Arg_1.3430), metadata={op_name="parallelize(train_step_shard_parallel)/jit(main)/transpose(jvp(FlaxGPTForLMModule))/transformers/encoder/layer/2/remat(core_fn)/2/output/LayerNorm/reduce_sum[axes=(2,)]" source_file="/python3.9-env/lib/python3.9/site-packages/flax/linen/normalization.py" source_line=138}
}

%add.29 (x.29: f16[], y.29: f16[]) -> f16[] {
  %x.29 = f16[] parameter(0)
  %y.29 = f16[] parameter(1)
  ROOT %add.55 = f16[] add(f16[] %x.29, f16[] %y.29)
}

%region_119.3491 (Arg_0.3492: f32[], Arg_1.3493: f32[]) -> f32[] {
  %Arg_0.3492 = f32[] parameter(0)
  %Arg_1.3493 = f32[] parameter(1)
  ROOT %add.3494 = f32[] add(f32[] %Arg_0.3492, f32[] %Arg_1.3493), metadata={op_name="parallelize(train_step_shard_parallel)/jit(main)/transpose(jvp(FlaxGPTForLMModule))/transformers/encoder/layer/2/remat(core_fn)/2/attention/output/LayerNorm/reduce_sum[axes=(2,)]" source_file="/python3.9-env/lib/python3.9/site-packages/flax/linen/normalization.py" source_line=144}
}

%region_120.3508 (Arg_0.3509: f32[], Arg_1.3510: f32[]) -> f32[] {
  %Arg_0.3509 = f32[] parameter(0)
  %Arg_1.3510 = f32[] parameter(1)
  ROOT %add.3511 = f32[] add(f32[] %Arg_0.3509, f32[] %Arg_1.3510), metadata={op_name="parallelize(train_step_shard_parallel)/jit(main)/transpose(jvp(FlaxGPTForLMModule))/transformers/encoder/layer/2/remat(core_fn)/2/attention/output/LayerNorm/reduce_sum[axes=(2,)]" source_file="/python3.9-env/lib/python3.9/site-packages/flax/linen/normalization.py" source_line=138}
}

%region_122.3539 (Arg_0.3540: f16[], Arg_1.3541: f16[]) -> f16[] {
  %Arg_0.3540 = f16[] parameter(0)
  %Arg_1.3541 = f16[] parameter(1)
  ROOT %add.3542 = f16[] add(f16[] %Arg_0.3540, f16[] %Arg_1.3541), metadata={op_name="parallelize(train_step_shard_parallel)/jit(main)/transpose(jvp(FlaxGPTForLMModule))/transformers/encoder/layer/2/remat(core_fn)/2/attention/self/reduce_sum[axes=(3,)]" source_file="/python3.9-env/lib/python3.9/site-packages/flax/linen/attention.py" source_line=107}
}

%add.30 (x.30: f16[], y.30: f16[]) -> f16[] {
  %x.30 = f16[] parameter(0)
  %y.30 = f16[] parameter(1)
  ROOT %add.56 = f16[] add(f16[] %x.30, f16[] %y.30)
}

%region_125.3653 (Arg_0.3654: f16[], Arg_1.3655: f16[]) -> f16[] {
  %Arg_0.3654 = f16[] parameter(0)
  %Arg_1.3655 = f16[] parameter(1)
  ROOT %maximum.3656 = f16[] maximum(f16[] %Arg_0.3654, f16[] %Arg_1.3655), metadata={op_name="parallelize(train_step_shard_parallel)/jit(main)/transpose(jvp(FlaxGPTForLMModule))/transformers/encoder/layer/1/remat(core_fn)/1/attention/self/reduce_max[axes=(3,)]" source_file="/python3.9-env/lib/python3.9/site-packages/flax/linen/attention.py" source_line=107}
}

%region_126.3665 (Arg_0.3666: f32[], Arg_1.3667: f32[]) -> f32[] {
  %Arg_0.3666 = f32[] parameter(0)
  %Arg_1.3667 = f32[] parameter(1)
  ROOT %add.3668 = f32[] add(f32[] %Arg_0.3666, f32[] %Arg_1.3667), metadata={op_name="parallelize(train_step_shard_parallel)/jit(main)/transpose(jvp(FlaxGPTForLMModule))/transformers/encoder/layer/1/remat(core_fn)/1/attention/self/reduce_sum[axes=(3,)]" source_file="/python3.9-env/lib/python3.9/site-packages/flax/linen/attention.py" source_line=107}
}

%add.31 (x.31: f16[], y.31: f16[]) -> f16[] {
  %x.31 = f16[] parameter(0)
  %y.31 = f16[] parameter(1)
  ROOT %add.57 = f16[] add(f16[] %x.31, f16[] %y.31)
}

%region_127.3690 (Arg_0.3691: f32[], Arg_1.3692: f32[]) -> f32[] {
  %Arg_0.3691 = f32[] parameter(0)
  %Arg_1.3692 = f32[] parameter(1)
  ROOT %add.3693 = f32[] add(f32[] %Arg_0.3691, f32[] %Arg_1.3692), metadata={op_name="parallelize(train_step_shard_parallel)/jit(main)/transpose(jvp(FlaxGPTForLMModule))/transformers/encoder/layer/1/remat(core_fn)/1/attention/output/LayerNorm/reduce_sum[axes=(2,)]" source_file="/python3.9-env/lib/python3.9/site-packages/flax/linen/normalization.py" source_line=82}
}

%region_128.3703 (Arg_0.3704: f32[], Arg_1.3705: f32[]) -> f32[] {
  %Arg_0.3704 = f32[] parameter(0)
  %Arg_1.3705 = f32[] parameter(1)
  ROOT %add.3706 = f32[] add(f32[] %Arg_0.3704, f32[] %Arg_1.3705), metadata={op_name="parallelize(train_step_shard_parallel)/jit(main)/transpose(jvp(FlaxGPTForLMModule))/transformers/encoder/layer/1/remat(core_fn)/1/attention/output/LayerNorm/reduce_sum[axes=(2,)]" source_file="/python3.9-env/lib/python3.9/site-packages/flax/linen/normalization.py" source_line=83}
}

%add.32 (x.32: f16[], y.32: f16[]) -> f16[] {
  %x.32 = f16[] parameter(0)
  %y.32 = f16[] parameter(1)
  ROOT %add.58 = f16[] add(f16[] %x.32, f16[] %y.32)
}

%region_129.3789 (Arg_0.3790: f32[], Arg_1.3791: f32[]) -> f32[] {
  %Arg_0.3790 = f32[] parameter(0)
  %Arg_1.3791 = f32[] parameter(1)
  ROOT %add.3792 = f32[] add(f32[] %Arg_0.3790, f32[] %Arg_1.3791), metadata={op_name="parallelize(train_step_shard_parallel)/jit(main)/transpose(jvp(FlaxGPTForLMModule))/transformers/encoder/layer/1/remat(core_fn)/1/output/LayerNorm/reduce_sum[axes=(2,)]" source_file="/python3.9-env/lib/python3.9/site-packages/flax/linen/normalization.py" source_line=82}
}

%region_133.3870 (Arg_0.3871: f32[], Arg_1.3872: f32[]) -> f32[] {
  %Arg_0.3871 = f32[] parameter(0)
  %Arg_1.3872 = f32[] parameter(1)
  ROOT %add.3873 = f32[] add(f32[] %Arg_0.3871, f32[] %Arg_1.3872), metadata={op_name="parallelize(train_step_shard_parallel)/jit(main)/transpose(jvp(FlaxGPTForLMModule))/transformers/encoder/layer/1/remat(core_fn)/1/output/LayerNorm/reduce_sum[axes=(2,)]" source_file="/python3.9-env/lib/python3.9/site-packages/flax/linen/normalization.py" source_line=144}
}

%region_130.3802 (Arg_0.3803: f32[], Arg_1.3804: f32[]) -> f32[] {
  %Arg_0.3803 = f32[] parameter(0)
  %Arg_1.3804 = f32[] parameter(1)
  ROOT %add.3805 = f32[] add(f32[] %Arg_0.3803, f32[] %Arg_1.3804), metadata={op_name="parallelize(train_step_shard_parallel)/jit(main)/transpose(jvp(FlaxGPTForLMModule))/transformers/encoder/layer/1/remat(core_fn)/1/output/LayerNorm/reduce_sum[axes=(2,)]" source_file="/python3.9-env/lib/python3.9/site-packages/flax/linen/normalization.py" source_line=83}
}

%region_134.3887 (Arg_0.3888: f32[], Arg_1.3889: f32[]) -> f32[] {
  %Arg_0.3888 = f32[] parameter(0)
  %Arg_1.3889 = f32[] parameter(1)
  ROOT %add.3890 = f32[] add(f32[] %Arg_0.3888, f32[] %Arg_1.3889), metadata={op_name="parallelize(train_step_shard_parallel)/jit(main)/transpose(jvp(FlaxGPTForLMModule))/transformers/encoder/layer/1/remat(core_fn)/1/output/LayerNorm/reduce_sum[axes=(2,)]" source_file="/python3.9-env/lib/python3.9/site-packages/flax/linen/normalization.py" source_line=138}
}

%add.33 (x.33: f16[], y.33: f16[]) -> f16[] {
  %x.33 = f16[] parameter(0)
  %y.33 = f16[] parameter(1)
  ROOT %add.59 = f16[] add(f16[] %x.33, f16[] %y.33)
}

%region_139.3950 (Arg_0.3951: f32[], Arg_1.3952: f32[]) -> f32[] {
  %Arg_0.3951 = f32[] parameter(0)
  %Arg_1.3952 = f32[] parameter(1)
  ROOT %add.3953 = f32[] add(f32[] %Arg_0.3951, f32[] %Arg_1.3952), metadata={op_name="parallelize(train_step_shard_parallel)/jit(main)/transpose(jvp(FlaxGPTForLMModule))/transformers/encoder/layer/1/remat(core_fn)/1/attention/output/LayerNorm/reduce_sum[axes=(2,)]" source_file="/python3.9-env/lib/python3.9/site-packages/flax/linen/normalization.py" source_line=144}
}

%region_140.3967 (Arg_0.3968: f32[], Arg_1.3969: f32[]) -> f32[] {
  %Arg_0.3968 = f32[] parameter(0)
  %Arg_1.3969 = f32[] parameter(1)
  ROOT %add.3970 = f32[] add(f32[] %Arg_0.3968, f32[] %Arg_1.3969), metadata={op_name="parallelize(train_step_shard_parallel)/jit(main)/transpose(jvp(FlaxGPTForLMModule))/transformers/encoder/layer/1/remat(core_fn)/1/attention/output/LayerNorm/reduce_sum[axes=(2,)]" source_file="/python3.9-env/lib/python3.9/site-packages/flax/linen/normalization.py" source_line=138}
}

%region_142.3998 (Arg_0.3999: f16[], Arg_1.4000: f16[]) -> f16[] {
  %Arg_0.3999 = f16[] parameter(0)
  %Arg_1.4000 = f16[] parameter(1)
  ROOT %add.4001 = f16[] add(f16[] %Arg_0.3999, f16[] %Arg_1.4000), metadata={op_name="parallelize(train_step_shard_parallel)/jit(main)/transpose(jvp(FlaxGPTForLMModule))/transformers/encoder/layer/1/remat(core_fn)/1/attention/self/reduce_sum[axes=(3,)]" source_file="/python3.9-env/lib/python3.9/site-packages/flax/linen/attention.py" source_line=107}
}

%add.34 (x.34: f16[], y.34: f16[]) -> f16[] {
  %x.34 = f16[] parameter(0)
  %y.34 = f16[] parameter(1)
  ROOT %add.60 = f16[] add(f16[] %x.34, f16[] %y.34)
}

%region_145.4112 (Arg_0.4113: f16[], Arg_1.4114: f16[]) -> f16[] {
  %Arg_0.4113 = f16[] parameter(0)
  %Arg_1.4114 = f16[] parameter(1)
  ROOT %maximum.4115 = f16[] maximum(f16[] %Arg_0.4113, f16[] %Arg_1.4114), metadata={op_name="parallelize(train_step_shard_parallel)/jit(main)/transpose(jvp(FlaxGPTForLMModule))/transformers/encoder/layer/0/remat(core_fn)/0/attention/self/reduce_max[axes=(3,)]" source_file="/python3.9-env/lib/python3.9/site-packages/flax/linen/attention.py" source_line=107}
}

%region_146.4124 (Arg_0.4125: f32[], Arg_1.4126: f32[]) -> f32[] {
  %Arg_0.4125 = f32[] parameter(0)
  %Arg_1.4126 = f32[] parameter(1)
  ROOT %add.4127 = f32[] add(f32[] %Arg_0.4125, f32[] %Arg_1.4126), metadata={op_name="parallelize(train_step_shard_parallel)/jit(main)/transpose(jvp(FlaxGPTForLMModule))/transformers/encoder/layer/0/remat(core_fn)/0/attention/self/reduce_sum[axes=(3,)]" source_file="/python3.9-env/lib/python3.9/site-packages/flax/linen/attention.py" source_line=107}
}

%add.35 (x.35: f16[], y.35: f16[]) -> f16[] {
  %x.35 = f16[] parameter(0)
  %y.35 = f16[] parameter(1)
  ROOT %add.61 = f16[] add(f16[] %x.35, f16[] %y.35)
}

%region_147.4149 (Arg_0.4150: f32[], Arg_1.4151: f32[]) -> f32[] {
  %Arg_0.4150 = f32[] parameter(0)
  %Arg_1.4151 = f32[] parameter(1)
  ROOT %add.4152 = f32[] add(f32[] %Arg_0.4150, f32[] %Arg_1.4151), metadata={op_name="parallelize(train_step_shard_parallel)/jit(main)/transpose(jvp(FlaxGPTForLMModule))/transformers/encoder/layer/0/remat(core_fn)/0/attention/output/LayerNorm/reduce_sum[axes=(2,)]" source_file="/python3.9-env/lib/python3.9/site-packages/flax/linen/normalization.py" source_line=82}
}

%region_148.4162 (Arg_0.4163: f32[], Arg_1.4164: f32[]) -> f32[] {
  %Arg_0.4163 = f32[] parameter(0)
  %Arg_1.4164 = f32[] parameter(1)
  ROOT %add.4165 = f32[] add(f32[] %Arg_0.4163, f32[] %Arg_1.4164), metadata={op_name="parallelize(train_step_shard_parallel)/jit(main)/transpose(jvp(FlaxGPTForLMModule))/transformers/encoder/layer/0/remat(core_fn)/0/attention/output/LayerNorm/reduce_sum[axes=(2,)]" source_file="/python3.9-env/lib/python3.9/site-packages/flax/linen/normalization.py" source_line=83}
}

%add.36 (x.36: f16[], y.36: f16[]) -> f16[] {
  %x.36 = f16[] parameter(0)
  %y.36 = f16[] parameter(1)
  ROOT %add.62 = f16[] add(f16[] %x.36, f16[] %y.36)
}

%region_149.4248 (Arg_0.4249: f32[], Arg_1.4250: f32[]) -> f32[] {
  %Arg_0.4249 = f32[] parameter(0)
  %Arg_1.4250 = f32[] parameter(1)
  ROOT %add.4251 = f32[] add(f32[] %Arg_0.4249, f32[] %Arg_1.4250), metadata={op_name="parallelize(train_step_shard_parallel)/jit(main)/transpose(jvp(FlaxGPTForLMModule))/transformers/encoder/layer/0/remat(core_fn)/0/output/LayerNorm/reduce_sum[axes=(2,)]" source_file="/python3.9-env/lib/python3.9/site-packages/flax/linen/normalization.py" source_line=82}
}

%region_153.4329 (Arg_0.4330: f32[], Arg_1.4331: f32[]) -> f32[] {
  %Arg_0.4330 = f32[] parameter(0)
  %Arg_1.4331 = f32[] parameter(1)
  ROOT %add.4332 = f32[] add(f32[] %Arg_0.4330, f32[] %Arg_1.4331), metadata={op_name="parallelize(train_step_shard_parallel)/jit(main)/transpose(jvp(FlaxGPTForLMModule))/transformers/encoder/layer/0/remat(core_fn)/0/output/LayerNorm/reduce_sum[axes=(2,)]" source_file="/python3.9-env/lib/python3.9/site-packages/flax/linen/normalization.py" source_line=144}
}

%region_150.4261 (Arg_0.4262: f32[], Arg_1.4263: f32[]) -> f32[] {
  %Arg_0.4262 = f32[] parameter(0)
  %Arg_1.4263 = f32[] parameter(1)
  ROOT %add.4264 = f32[] add(f32[] %Arg_0.4262, f32[] %Arg_1.4263), metadata={op_name="parallelize(train_step_shard_parallel)/jit(main)/transpose(jvp(FlaxGPTForLMModule))/transformers/encoder/layer/0/remat(core_fn)/0/output/LayerNorm/reduce_sum[axes=(2,)]" source_file="/python3.9-env/lib/python3.9/site-packages/flax/linen/normalization.py" source_line=83}
}

%region_154.4346 (Arg_0.4347: f32[], Arg_1.4348: f32[]) -> f32[] {
  %Arg_0.4347 = f32[] parameter(0)
  %Arg_1.4348 = f32[] parameter(1)
  ROOT %add.4349 = f32[] add(f32[] %Arg_0.4347, f32[] %Arg_1.4348), metadata={op_name="parallelize(train_step_shard_parallel)/jit(main)/transpose(jvp(FlaxGPTForLMModule))/transformers/encoder/layer/0/remat(core_fn)/0/output/LayerNorm/reduce_sum[axes=(2,)]" source_file="/python3.9-env/lib/python3.9/site-packages/flax/linen/normalization.py" source_line=138}
}

%add.37 (x.37: f16[], y.37: f16[]) -> f16[] {
  %x.37 = f16[] parameter(0)
  %y.37 = f16[] parameter(1)
  ROOT %add.63 = f16[] add(f16[] %x.37, f16[] %y.37)
}

%region_159.4409 (Arg_0.4410: f32[], Arg_1.4411: f32[]) -> f32[] {
  %Arg_0.4410 = f32[] parameter(0)
  %Arg_1.4411 = f32[] parameter(1)
  ROOT %add.4412 = f32[] add(f32[] %Arg_0.4410, f32[] %Arg_1.4411), metadata={op_name="parallelize(train_step_shard_parallel)/jit(main)/transpose(jvp(FlaxGPTForLMModule))/transformers/encoder/layer/0/remat(core_fn)/0/attention/output/LayerNorm/reduce_sum[axes=(2,)]" source_file="/python3.9-env/lib/python3.9/site-packages/flax/linen/normalization.py" source_line=144}
}

%region_160.4426 (Arg_0.4427: f32[], Arg_1.4428: f32[]) -> f32[] {
  %Arg_0.4427 = f32[] parameter(0)
  %Arg_1.4428 = f32[] parameter(1)
  ROOT %add.4429 = f32[] add(f32[] %Arg_0.4427, f32[] %Arg_1.4428), metadata={op_name="parallelize(train_step_shard_parallel)/jit(main)/transpose(jvp(FlaxGPTForLMModule))/transformers/encoder/layer/0/remat(core_fn)/0/attention/output/LayerNorm/reduce_sum[axes=(2,)]" source_file="/python3.9-env/lib/python3.9/site-packages/flax/linen/normalization.py" source_line=138}
}

%region_162.4457 (Arg_0.4458: f16[], Arg_1.4459: f16[]) -> f16[] {
  %Arg_0.4458 = f16[] parameter(0)
  %Arg_1.4459 = f16[] parameter(1)
  ROOT %add.4460 = f16[] add(f16[] %Arg_0.4458, f16[] %Arg_1.4459), metadata={op_name="parallelize(train_step_shard_parallel)/jit(main)/transpose(jvp(FlaxGPTForLMModule))/transformers/encoder/layer/0/remat(core_fn)/0/attention/self/reduce_sum[axes=(3,)]" source_file="/python3.9-env/lib/python3.9/site-packages/flax/linen/attention.py" source_line=107}
}

%add.38 (x.38: f16[], y.38: f16[]) -> f16[] {
  %x.38 = f16[] parameter(0)
  %y.38 = f16[] parameter(1)
  ROOT %add.64 = f16[] add(f16[] %x.38, f16[] %y.38)
}

%region_165.4507 (Arg_0.4508: f32[], Arg_1.4509: f32[]) -> f32[] {
  %Arg_0.4508 = f32[] parameter(0)
  %Arg_1.4509 = f32[] parameter(1)
  ROOT %add.4510 = f32[] add(f32[] %Arg_0.4508, f32[] %Arg_1.4509), metadata={op_name="parallelize(train_step_shard_parallel)/jit(main)/transpose(jvp(FlaxGPTForLMModule))/transformers/embeddings/LayerNorm/reduce_sum[axes=(0, 1)]" source_file="/python3.9-env/lib/python3.9/site-packages/flax/linen/normalization.py" source_line=150}
}

%region_166.4517 (Arg_0.4518: f32[], Arg_1.4519: f32[]) -> f32[] {
  %Arg_0.4518 = f32[] parameter(0)
  %Arg_1.4519 = f32[] parameter(1)
  ROOT %add.4520 = f32[] add(f32[] %Arg_0.4518, f32[] %Arg_1.4519), metadata={op_name="parallelize(train_step_shard_parallel)/jit(main)/transpose(jvp(FlaxGPTForLMModule))/transformers/embeddings/LayerNorm/reduce_sum[axes=(0, 1)]" source_file="/python3.9-env/lib/python3.9/site-packages/flax/linen/normalization.py" source_line=144}
}

%region_167.4526 (Arg_0.4527: f32[], Arg_1.4528: f32[]) -> f32[] {
  %Arg_0.4527 = f32[] parameter(0)
  %Arg_1.4528 = f32[] parameter(1)
  ROOT %add.4529 = f32[] add(f32[] %Arg_0.4527, f32[] %Arg_1.4528), metadata={op_name="parallelize(train_step_shard_parallel)/jit(main)/transpose(jvp(FlaxGPTForLMModule))/transformers/embeddings/LayerNorm/reduce_sum[axes=(2,)]" source_file="/python3.9-env/lib/python3.9/site-packages/flax/linen/normalization.py" source_line=144}
}

%region_168.4542 (Arg_0.4543: f32[], Arg_1.4544: f32[]) -> f32[] {
  %Arg_0.4543 = f32[] parameter(0)
  %Arg_1.4544 = f32[] parameter(1)
  ROOT %add.4545 = f32[] add(f32[] %Arg_0.4543, f32[] %Arg_1.4544), metadata={op_name="parallelize(train_step_shard_parallel)/jit(main)/transpose(jvp(FlaxGPTForLMModule))/transformers/embeddings/LayerNorm/reduce_sum[axes=(2,)]" source_file="/python3.9-env/lib/python3.9/site-packages/flax/linen/normalization.py" source_line=138}
}

%add.39 (x.39: f16[], y.39: f16[]) -> f16[] {
  %x.39 = f16[] parameter(0)
  %y.39 = f16[] parameter(1)
  ROOT %add.65 = f16[] add(f16[] %x.39, f16[] %y.39)
}

%add.40 (x.40: f16[], y.40: f16[]) -> f16[] {
  %x.40 = f16[] parameter(0)
  %y.40 = f16[] parameter(1)
  ROOT %add.66 = f16[] add(f16[] %x.40, f16[] %y.40)
}

%add.41 (x.41: f16[], y.41: f16[]) -> f16[] {
  %x.41 = f16[] parameter(0)
  %y.41 = f16[] parameter(1)
  ROOT %add.67 = f16[] add(f16[] %x.41, f16[] %y.41)
}

%region_157.4390 (Arg_0.4391: f32[], Arg_1.4392: f32[]) -> f32[] {
  %Arg_0.4391 = f32[] parameter(0)
  %Arg_1.4392 = f32[] parameter(1)
  ROOT %add.4393 = f32[] add(f32[] %Arg_0.4391, f32[] %Arg_1.4392), metadata={op_name="parallelize(train_step_shard_parallel)/jit(main)/transpose(jvp(FlaxGPTForLMModule))/transformers/encoder/layer/0/remat(core_fn)/0/attention/output/LayerNorm/reduce_sum[axes=(0, 1)]" source_file="/python3.9-env/lib/python3.9/site-packages/flax/linen/normalization.py" source_line=150}
}

%region_158.4400 (Arg_0.4401: f32[], Arg_1.4402: f32[]) -> f32[] {
  %Arg_0.4401 = f32[] parameter(0)
  %Arg_1.4402 = f32[] parameter(1)
  ROOT %add.4403 = f32[] add(f32[] %Arg_0.4401, f32[] %Arg_1.4402), metadata={op_name="parallelize(train_step_shard_parallel)/jit(main)/transpose(jvp(FlaxGPTForLMModule))/transformers/encoder/layer/0/remat(core_fn)/0/attention/output/LayerNorm/reduce_sum[axes=(0, 1)]" source_file="/python3.9-env/lib/python3.9/site-packages/flax/linen/normalization.py" source_line=144}
}

%region_161.4439 (Arg_0.4440: f16[], Arg_1.4441: f16[]) -> f16[] {
  %Arg_0.4440 = f16[] parameter(0)
  %Arg_1.4441 = f16[] parameter(1)
  ROOT %add.4442 = f16[] add(f16[] %Arg_0.4440, f16[] %Arg_1.4441), metadata={op_name="parallelize(train_step_shard_parallel)/jit(main)/transpose(jvp(FlaxGPTForLMModule))/transformers/encoder/layer/0/remat(core_fn)/0/attention/output/dense/reduce_sum[axes=(0, 1)]" source_file="/python3.9-env/lib/python3.9/site-packages/flax/linen/linear.py" source_line=200}
}

%add.42 (x.42: f16[], y.42: f16[]) -> f16[] {
  %x.42 = f16[] parameter(0)
  %y.42 = f16[] parameter(1)
  ROOT %add.68 = f16[] add(f16[] %x.42, f16[] %y.42)
}

%region_164.4495 (Arg_0.4496: f16[], Arg_1.4497: f16[]) -> f16[] {
  %Arg_0.4496 = f16[] parameter(0)
  %Arg_1.4497 = f16[] parameter(1)
  ROOT %add.4498 = f16[] add(f16[] %Arg_0.4496, f16[] %Arg_1.4497), metadata={op_name="parallelize(train_step_shard_parallel)/jit(main)/transpose(jvp(FlaxGPTForLMModule))/transformers/encoder/layer/0/remat(core_fn)/0/attention/self/qvk_combined/reduce_sum[axes=(0, 1)]" source_file="/python3.9-env/lib/python3.9/site-packages/flax/linen/linear.py" source_line=200}
}

%add.43 (x.43: f16[], y.43: f16[]) -> f16[] {
  %x.43 = f16[] parameter(0)
  %y.43 = f16[] parameter(1)
  ROOT %add.69 = f16[] add(f16[] %x.43, f16[] %y.43)
}

%region_156.4378 (Arg_0.4379: f16[], Arg_1.4380: f16[]) -> f16[] {
  %Arg_0.4379 = f16[] parameter(0)
  %Arg_1.4380 = f16[] parameter(1)
  ROOT %add.4381 = f16[] add(f16[] %Arg_0.4379, f16[] %Arg_1.4380), metadata={op_name="parallelize(train_step_shard_parallel)/jit(main)/transpose(jvp(FlaxGPTForLMModule))/transformers/encoder/layer/0/remat(core_fn)/0/intermediate/dense/reduce_sum[axes=(0, 1)]" source_file="/python3.9-env/lib/python3.9/site-packages/flax/linen/linear.py" source_line=200}
}

%add.44 (x.44: f16[], y.44: f16[]) -> f16[] {
  %x.44 = f16[] parameter(0)
  %y.44 = f16[] parameter(1)
  ROOT %add.70 = f16[] add(f16[] %x.44, f16[] %y.44)
}

%region_151.4310 (Arg_0.4311: f32[], Arg_1.4312: f32[]) -> f32[] {
  %Arg_0.4311 = f32[] parameter(0)
  %Arg_1.4312 = f32[] parameter(1)
  ROOT %add.4313 = f32[] add(f32[] %Arg_0.4311, f32[] %Arg_1.4312), metadata={op_name="parallelize(train_step_shard_parallel)/jit(main)/transpose(jvp(FlaxGPTForLMModule))/transformers/encoder/layer/0/remat(core_fn)/0/output/LayerNorm/reduce_sum[axes=(0, 1)]" source_file="/python3.9-env/lib/python3.9/site-packages/flax/linen/normalization.py" source_line=150}
}

%region_152.4320 (Arg_0.4321: f32[], Arg_1.4322: f32[]) -> f32[] {
  %Arg_0.4321 = f32[] parameter(0)
  %Arg_1.4322 = f32[] parameter(1)
  ROOT %add.4323 = f32[] add(f32[] %Arg_0.4321, f32[] %Arg_1.4322), metadata={op_name="parallelize(train_step_shard_parallel)/jit(main)/transpose(jvp(FlaxGPTForLMModule))/transformers/encoder/layer/0/remat(core_fn)/0/output/LayerNorm/reduce_sum[axes=(0, 1)]" source_file="/python3.9-env/lib/python3.9/site-packages/flax/linen/normalization.py" source_line=144}
}

%region_155.4359 (Arg_0.4360: f16[], Arg_1.4361: f16[]) -> f16[] {
  %Arg_0.4360 = f16[] parameter(0)
  %Arg_1.4361 = f16[] parameter(1)
  ROOT %add.4362 = f16[] add(f16[] %Arg_0.4360, f16[] %Arg_1.4361), metadata={op_name="parallelize(train_step_shard_parallel)/jit(main)/transpose(jvp(FlaxGPTForLMModule))/transformers/encoder/layer/0/remat(core_fn)/0/output/dense/reduce_sum[axes=(0, 1)]" source_file="/python3.9-env/lib/python3.9/site-packages/flax/linen/linear.py" source_line=200}
}

%add.45 (x.45: f16[], y.45: f16[]) -> f16[] {
  %x.45 = f16[] parameter(0)
  %y.45 = f16[] parameter(1)
  ROOT %add.71 = f16[] add(f16[] %x.45, f16[] %y.45)
}

%region_137.3931 (Arg_0.3932: f32[], Arg_1.3933: f32[]) -> f32[] {
  %Arg_0.3932 = f32[] parameter(0)
  %Arg_1.3933 = f32[] parameter(1)
  ROOT %add.3934 = f32[] add(f32[] %Arg_0.3932, f32[] %Arg_1.3933), metadata={op_name="parallelize(train_step_shard_parallel)/jit(main)/transpose(jvp(FlaxGPTForLMModule))/transformers/encoder/layer/1/remat(core_fn)/1/attention/output/LayerNorm/reduce_sum[axes=(0, 1)]" source_file="/python3.9-env/lib/python3.9/site-packages/flax/linen/normalization.py" source_line=150}
}

%region_138.3941 (Arg_0.3942: f32[], Arg_1.3943: f32[]) -> f32[] {
  %Arg_0.3942 = f32[] parameter(0)
  %Arg_1.3943 = f32[] parameter(1)
  ROOT %add.3944 = f32[] add(f32[] %Arg_0.3942, f32[] %Arg_1.3943), metadata={op_name="parallelize(train_step_shard_parallel)/jit(main)/transpose(jvp(FlaxGPTForLMModule))/transformers/encoder/layer/1/remat(core_fn)/1/attention/output/LayerNorm/reduce_sum[axes=(0, 1)]" source_file="/python3.9-env/lib/python3.9/site-packages/flax/linen/normalization.py" source_line=144}
}

%region_141.3980 (Arg_0.3981: f16[], Arg_1.3982: f16[]) -> f16[] {
  %Arg_0.3981 = f16[] parameter(0)
  %Arg_1.3982 = f16[] parameter(1)
  ROOT %add.3983 = f16[] add(f16[] %Arg_0.3981, f16[] %Arg_1.3982), metadata={op_name="parallelize(train_step_shard_parallel)/jit(main)/transpose(jvp(FlaxGPTForLMModule))/transformers/encoder/layer/1/remat(core_fn)/1/attention/output/dense/reduce_sum[axes=(0, 1)]" source_file="/python3.9-env/lib/python3.9/site-packages/flax/linen/linear.py" source_line=200}
}

%add.46 (x.46: f16[], y.46: f16[]) -> f16[] {
  %x.46 = f16[] parameter(0)
  %y.46 = f16[] parameter(1)
  ROOT %add.72 = f16[] add(f16[] %x.46, f16[] %y.46)
}

%region_144.4036 (Arg_0.4037: f16[], Arg_1.4038: f16[]) -> f16[] {
  %Arg_0.4037 = f16[] parameter(0)
  %Arg_1.4038 = f16[] parameter(1)
  ROOT %add.4039 = f16[] add(f16[] %Arg_0.4037, f16[] %Arg_1.4038), metadata={op_name="parallelize(train_step_shard_parallel)/jit(main)/transpose(jvp(FlaxGPTForLMModule))/transformers/encoder/layer/1/remat(core_fn)/1/attention/self/qvk_combined/reduce_sum[axes=(0, 1)]" source_file="/python3.9-env/lib/python3.9/site-packages/flax/linen/linear.py" source_line=200}
}

%add.47 (x.47: f16[], y.47: f16[]) -> f16[] {
  %x.47 = f16[] parameter(0)
  %y.47 = f16[] parameter(1)
  ROOT %add.73 = f16[] add(f16[] %x.47, f16[] %y.47)
}

%region_136.3919 (Arg_0.3920: f16[], Arg_1.3921: f16[]) -> f16[] {
  %Arg_0.3920 = f16[] parameter(0)
  %Arg_1.3921 = f16[] parameter(1)
  ROOT %add.3922 = f16[] add(f16[] %Arg_0.3920, f16[] %Arg_1.3921), metadata={op_name="parallelize(train_step_shard_parallel)/jit(main)/transpose(jvp(FlaxGPTForLMModule))/transformers/encoder/layer/1/remat(core_fn)/1/intermediate/dense/reduce_sum[axes=(0, 1)]" source_file="/python3.9-env/lib/python3.9/site-packages/flax/linen/linear.py" source_line=200}
}

%add.48 (x.48: f16[], y.48: f16[]) -> f16[] {
  %x.48 = f16[] parameter(0)
  %y.48 = f16[] parameter(1)
  ROOT %add.74 = f16[] add(f16[] %x.48, f16[] %y.48)
}

%region_131.3851 (Arg_0.3852: f32[], Arg_1.3853: f32[]) -> f32[] {
  %Arg_0.3852 = f32[] parameter(0)
  %Arg_1.3853 = f32[] parameter(1)
  ROOT %add.3854 = f32[] add(f32[] %Arg_0.3852, f32[] %Arg_1.3853), metadata={op_name="parallelize(train_step_shard_parallel)/jit(main)/transpose(jvp(FlaxGPTForLMModule))/transformers/encoder/layer/1/remat(core_fn)/1/output/LayerNorm/reduce_sum[axes=(0, 1)]" source_file="/python3.9-env/lib/python3.9/site-packages/flax/linen/normalization.py" source_line=150}
}

%region_132.3861 (Arg_0.3862: f32[], Arg_1.3863: f32[]) -> f32[] {
  %Arg_0.3862 = f32[] parameter(0)
  %Arg_1.3863 = f32[] parameter(1)
  ROOT %add.3864 = f32[] add(f32[] %Arg_0.3862, f32[] %Arg_1.3863), metadata={op_name="parallelize(train_step_shard_parallel)/jit(main)/transpose(jvp(FlaxGPTForLMModule))/transformers/encoder/layer/1/remat(core_fn)/1/output/LayerNorm/reduce_sum[axes=(0, 1)]" source_file="/python3.9-env/lib/python3.9/site-packages/flax/linen/normalization.py" source_line=144}
}

%region_135.3900 (Arg_0.3901: f16[], Arg_1.3902: f16[]) -> f16[] {
  %Arg_0.3901 = f16[] parameter(0)
  %Arg_1.3902 = f16[] parameter(1)
  ROOT %add.3903 = f16[] add(f16[] %Arg_0.3901, f16[] %Arg_1.3902), metadata={op_name="parallelize(train_step_shard_parallel)/jit(main)/transpose(jvp(FlaxGPTForLMModule))/transformers/encoder/layer/1/remat(core_fn)/1/output/dense/reduce_sum[axes=(0, 1)]" source_file="/python3.9-env/lib/python3.9/site-packages/flax/linen/linear.py" source_line=200}
}

%add.49 (x.49: f16[], y.49: f16[]) -> f16[] {
  %x.49 = f16[] parameter(0)
  %y.49 = f16[] parameter(1)
  ROOT %add.75 = f16[] add(f16[] %x.49, f16[] %y.49)
}

%region_117.3472 (Arg_0.3473: f32[], Arg_1.3474: f32[]) -> f32[] {
  %Arg_0.3473 = f32[] parameter(0)
  %Arg_1.3474 = f32[] parameter(1)
  ROOT %add.3475 = f32[] add(f32[] %Arg_0.3473, f32[] %Arg_1.3474), metadata={op_name="parallelize(train_step_shard_parallel)/jit(main)/transpose(jvp(FlaxGPTForLMModule))/transformers/encoder/layer/2/remat(core_fn)/2/attention/output/LayerNorm/reduce_sum[axes=(0, 1)]" source_file="/python3.9-env/lib/python3.9/site-packages/flax/linen/normalization.py" source_line=150}
}

%region_118.3482 (Arg_0.3483: f32[], Arg_1.3484: f32[]) -> f32[] {
  %Arg_0.3483 = f32[] parameter(0)
  %Arg_1.3484 = f32[] parameter(1)
  ROOT %add.3485 = f32[] add(f32[] %Arg_0.3483, f32[] %Arg_1.3484), metadata={op_name="parallelize(train_step_shard_parallel)/jit(main)/transpose(jvp(FlaxGPTForLMModule))/transformers/encoder/layer/2/remat(core_fn)/2/attention/output/LayerNorm/reduce_sum[axes=(0, 1)]" source_file="/python3.9-env/lib/python3.9/site-packages/flax/linen/normalization.py" source_line=144}
}

%region_121.3521 (Arg_0.3522: f16[], Arg_1.3523: f16[]) -> f16[] {
  %Arg_0.3522 = f16[] parameter(0)
  %Arg_1.3523 = f16[] parameter(1)
  ROOT %add.3524 = f16[] add(f16[] %Arg_0.3522, f16[] %Arg_1.3523), metadata={op_name="parallelize(train_step_shard_parallel)/jit(main)/transpose(jvp(FlaxGPTForLMModule))/transformers/encoder/layer/2/remat(core_fn)/2/attention/output/dense/reduce_sum[axes=(0, 1)]" source_file="/python3.9-env/lib/python3.9/site-packages/flax/linen/linear.py" source_line=200}
}

%add.50 (x.50: f16[], y.50: f16[]) -> f16[] {
  %x.50 = f16[] parameter(0)
  %y.50 = f16[] parameter(1)
  ROOT %add.76 = f16[] add(f16[] %x.50, f16[] %y.50)
}

%region_124.3577 (Arg_0.3578: f16[], Arg_1.3579: f16[]) -> f16[] {
  %Arg_0.3578 = f16[] parameter(0)
  %Arg_1.3579 = f16[] parameter(1)
  ROOT %add.3580 = f16[] add(f16[] %Arg_0.3578, f16[] %Arg_1.3579), metadata={op_name="parallelize(train_step_shard_parallel)/jit(main)/transpose(jvp(FlaxGPTForLMModule))/transformers/encoder/layer/2/remat(core_fn)/2/attention/self/qvk_combined/reduce_sum[axes=(0, 1)]" source_file="/python3.9-env/lib/python3.9/site-packages/flax/linen/linear.py" source_line=200}
}

%add.51 (x.51: f16[], y.51: f16[]) -> f16[] {
  %x.51 = f16[] parameter(0)
  %y.51 = f16[] parameter(1)
  ROOT %add.77 = f16[] add(f16[] %x.51, f16[] %y.51)
}

%region_116.3460 (Arg_0.3461: f16[], Arg_1.3462: f16[]) -> f16[] {
  %Arg_0.3461 = f16[] parameter(0)
  %Arg_1.3462 = f16[] parameter(1)
  ROOT %add.3463 = f16[] add(f16[] %Arg_0.3461, f16[] %Arg_1.3462), metadata={op_name="parallelize(train_step_shard_parallel)/jit(main)/transpose(jvp(FlaxGPTForLMModule))/transformers/encoder/layer/2/remat(core_fn)/2/intermediate/dense/reduce_sum[axes=(0, 1)]" source_file="/python3.9-env/lib/python3.9/site-packages/flax/linen/linear.py" source_line=200}
}

%add.52 (x.52: f16[], y.52: f16[]) -> f16[] {
  %x.52 = f16[] parameter(0)
  %y.52 = f16[] parameter(1)
  ROOT %add.78 = f16[] add(f16[] %x.52, f16[] %y.52)
}

%region_111.3392 (Arg_0.3393: f32[], Arg_1.3394: f32[]) -> f32[] {
  %Arg_0.3393 = f32[] parameter(0)
  %Arg_1.3394 = f32[] parameter(1)
  ROOT %add.3395 = f32[] add(f32[] %Arg_0.3393, f32[] %Arg_1.3394), metadata={op_name="parallelize(train_step_shard_parallel)/jit(main)/transpose(jvp(FlaxGPTForLMModule))/transformers/encoder/layer/2/remat(core_fn)/2/output/LayerNorm/reduce_sum[axes=(0, 1)]" source_file="/python3.9-env/lib/python3.9/site-packages/flax/linen/normalization.py" source_line=150}
}

%region_112.3402 (Arg_0.3403: f32[], Arg_1.3404: f32[]) -> f32[] {
  %Arg_0.3403 = f32[] parameter(0)
  %Arg_1.3404 = f32[] parameter(1)
  ROOT %add.3405 = f32[] add(f32[] %Arg_0.3403, f32[] %Arg_1.3404), metadata={op_name="parallelize(train_step_shard_parallel)/jit(main)/transpose(jvp(FlaxGPTForLMModule))/transformers/encoder/layer/2/remat(core_fn)/2/output/LayerNorm/reduce_sum[axes=(0, 1)]" source_file="/python3.9-env/lib/python3.9/site-packages/flax/linen/normalization.py" source_line=144}
}

%region_115.3441 (Arg_0.3442: f16[], Arg_1.3443: f16[]) -> f16[] {
  %Arg_0.3442 = f16[] parameter(0)
  %Arg_1.3443 = f16[] parameter(1)
  ROOT %add.3444 = f16[] add(f16[] %Arg_0.3442, f16[] %Arg_1.3443), metadata={op_name="parallelize(train_step_shard_parallel)/jit(main)/transpose(jvp(FlaxGPTForLMModule))/transformers/encoder/layer/2/remat(core_fn)/2/output/dense/reduce_sum[axes=(0, 1)]" source_file="/python3.9-env/lib/python3.9/site-packages/flax/linen/linear.py" source_line=200}
}

%add.53 (x.53: f16[], y.53: f16[]) -> f16[] {
  %x.53 = f16[] parameter(0)
  %y.53 = f16[] parameter(1)
  ROOT %add.79 = f16[] add(f16[] %x.53, f16[] %y.53)
}

%region_97.3013 (Arg_0.3014: f32[], Arg_1.3015: f32[]) -> f32[] {
  %Arg_0.3014 = f32[] parameter(0)
  %Arg_1.3015 = f32[] parameter(1)
  ROOT %add.3016 = f32[] add(f32[] %Arg_0.3014, f32[] %Arg_1.3015), metadata={op_name="parallelize(train_step_shard_parallel)/jit(main)/transpose(jvp(FlaxGPTForLMModule))/transformers/encoder/layer/3/remat(core_fn)/3/attention/output/LayerNorm/reduce_sum[axes=(0, 1)]" source_file="/python3.9-env/lib/python3.9/site-packages/flax/linen/normalization.py" source_line=150}
}

%region_98.3023 (Arg_0.3024: f32[], Arg_1.3025: f32[]) -> f32[] {
  %Arg_0.3024 = f32[] parameter(0)
  %Arg_1.3025 = f32[] parameter(1)
  ROOT %add.3026 = f32[] add(f32[] %Arg_0.3024, f32[] %Arg_1.3025), metadata={op_name="parallelize(train_step_shard_parallel)/jit(main)/transpose(jvp(FlaxGPTForLMModule))/transformers/encoder/layer/3/remat(core_fn)/3/attention/output/LayerNorm/reduce_sum[axes=(0, 1)]" source_file="/python3.9-env/lib/python3.9/site-packages/flax/linen/normalization.py" source_line=144}
}

%region_101.3062 (Arg_0.3063: f16[], Arg_1.3064: f16[]) -> f16[] {
  %Arg_0.3063 = f16[] parameter(0)
  %Arg_1.3064 = f16[] parameter(1)
  ROOT %add.3065 = f16[] add(f16[] %Arg_0.3063, f16[] %Arg_1.3064), metadata={op_name="parallelize(train_step_shard_parallel)/jit(main)/transpose(jvp(FlaxGPTForLMModule))/transformers/encoder/layer/3/remat(core_fn)/3/attention/output/dense/reduce_sum[axes=(0, 1)]" source_file="/python3.9-env/lib/python3.9/site-packages/flax/linen/linear.py" source_line=200}
}

%add.54 (x.54: f16[], y.54: f16[]) -> f16[] {
  %x.54 = f16[] parameter(0)
  %y.54 = f16[] parameter(1)
  ROOT %add.80 = f16[] add(f16[] %x.54, f16[] %y.54)
}

%region_104.3118 (Arg_0.3119: f16[], Arg_1.3120: f16[]) -> f16[] {
  %Arg_0.3119 = f16[] parameter(0)
  %Arg_1.3120 = f16[] parameter(1)
  ROOT %add.3121 = f16[] add(f16[] %Arg_0.3119, f16[] %Arg_1.3120), metadata={op_name="parallelize(train_step_shard_parallel)/jit(main)/transpose(jvp(FlaxGPTForLMModule))/transformers/encoder/layer/3/remat(core_fn)/3/attention/self/qvk_combined/reduce_sum[axes=(0, 1)]" source_file="/python3.9-env/lib/python3.9/site-packages/flax/linen/linear.py" source_line=200}
}

%add.55 (x.55: f16[], y.55: f16[]) -> f16[] {
  %x.55 = f16[] parameter(0)
  %y.55 = f16[] parameter(1)
  ROOT %add.81 = f16[] add(f16[] %x.55, f16[] %y.55)
}

%region_96.3001 (Arg_0.3002: f16[], Arg_1.3003: f16[]) -> f16[] {
  %Arg_0.3002 = f16[] parameter(0)
  %Arg_1.3003 = f16[] parameter(1)
  ROOT %add.3004 = f16[] add(f16[] %Arg_0.3002, f16[] %Arg_1.3003), metadata={op_name="parallelize(train_step_shard_parallel)/jit(main)/transpose(jvp(FlaxGPTForLMModule))/transformers/encoder/layer/3/remat(core_fn)/3/intermediate/dense/reduce_sum[axes=(0, 1)]" source_file="/python3.9-env/lib/python3.9/site-packages/flax/linen/linear.py" source_line=200}
}

%add.56 (x.56: f16[], y.56: f16[]) -> f16[] {
  %x.56 = f16[] parameter(0)
  %y.56 = f16[] parameter(1)
  ROOT %add.82 = f16[] add(f16[] %x.56, f16[] %y.56)
}

%region_91.2933 (Arg_0.2934: f32[], Arg_1.2935: f32[]) -> f32[] {
  %Arg_0.2934 = f32[] parameter(0)
  %Arg_1.2935 = f32[] parameter(1)
  ROOT %add.2936 = f32[] add(f32[] %Arg_0.2934, f32[] %Arg_1.2935), metadata={op_name="parallelize(train_step_shard_parallel)/jit(main)/transpose(jvp(FlaxGPTForLMModule))/transformers/encoder/layer/3/remat(core_fn)/3/output/LayerNorm/reduce_sum[axes=(0, 1)]" source_file="/python3.9-env/lib/python3.9/site-packages/flax/linen/normalization.py" source_line=150}
}

%region_92.2943 (Arg_0.2944: f32[], Arg_1.2945: f32[]) -> f32[] {
  %Arg_0.2944 = f32[] parameter(0)
  %Arg_1.2945 = f32[] parameter(1)
  ROOT %add.2946 = f32[] add(f32[] %Arg_0.2944, f32[] %Arg_1.2945), metadata={op_name="parallelize(train_step_shard_parallel)/jit(main)/transpose(jvp(FlaxGPTForLMModule))/transformers/encoder/layer/3/remat(core_fn)/3/output/LayerNorm/reduce_sum[axes=(0, 1)]" source_file="/python3.9-env/lib/python3.9/site-packages/flax/linen/normalization.py" source_line=144}
}

%region_95.2982 (Arg_0.2983: f16[], Arg_1.2984: f16[]) -> f16[] {
  %Arg_0.2983 = f16[] parameter(0)
  %Arg_1.2984 = f16[] parameter(1)
  ROOT %add.2985 = f16[] add(f16[] %Arg_0.2983, f16[] %Arg_1.2984), metadata={op_name="parallelize(train_step_shard_parallel)/jit(main)/transpose(jvp(FlaxGPTForLMModule))/transformers/encoder/layer/3/remat(core_fn)/3/output/dense/reduce_sum[axes=(0, 1)]" source_file="/python3.9-env/lib/python3.9/site-packages/flax/linen/linear.py" source_line=200}
}

%add.57 (x.57: f16[], y.57: f16[]) -> f16[] {
  %x.57 = f16[] parameter(0)
  %y.57 = f16[] parameter(1)
  ROOT %add.83 = f16[] add(f16[] %x.57, f16[] %y.57)
}

%region_77.2554 (Arg_0.2555: f32[], Arg_1.2556: f32[]) -> f32[] {
  %Arg_0.2555 = f32[] parameter(0)
  %Arg_1.2556 = f32[] parameter(1)
  ROOT %add.2557 = f32[] add(f32[] %Arg_0.2555, f32[] %Arg_1.2556), metadata={op_name="parallelize(train_step_shard_parallel)/jit(main)/transpose(jvp(FlaxGPTForLMModule))/transformers/encoder/layer/4/remat(core_fn)/4/attention/output/LayerNorm/reduce_sum[axes=(0, 1)]" source_file="/python3.9-env/lib/python3.9/site-packages/flax/linen/normalization.py" source_line=150}
}

%region_78.2564 (Arg_0.2565: f32[], Arg_1.2566: f32[]) -> f32[] {
  %Arg_0.2565 = f32[] parameter(0)
  %Arg_1.2566 = f32[] parameter(1)
  ROOT %add.2567 = f32[] add(f32[] %Arg_0.2565, f32[] %Arg_1.2566), metadata={op_name="parallelize(train_step_shard_parallel)/jit(main)/transpose(jvp(FlaxGPTForLMModule))/transformers/encoder/layer/4/remat(core_fn)/4/attention/output/LayerNorm/reduce_sum[axes=(0, 1)]" source_file="/python3.9-env/lib/python3.9/site-packages/flax/linen/normalization.py" source_line=144}
}

%region_81.2603 (Arg_0.2604: f16[], Arg_1.2605: f16[]) -> f16[] {
  %Arg_0.2604 = f16[] parameter(0)
  %Arg_1.2605 = f16[] parameter(1)
  ROOT %add.2606 = f16[] add(f16[] %Arg_0.2604, f16[] %Arg_1.2605), metadata={op_name="parallelize(train_step_shard_parallel)/jit(main)/transpose(jvp(FlaxGPTForLMModule))/transformers/encoder/layer/4/remat(core_fn)/4/attention/output/dense/reduce_sum[axes=(0, 1)]" source_file="/python3.9-env/lib/python3.9/site-packages/flax/linen/linear.py" source_line=200}
}

%add.58 (x.58: f16[], y.58: f16[]) -> f16[] {
  %x.58 = f16[] parameter(0)
  %y.58 = f16[] parameter(1)
  ROOT %add.84 = f16[] add(f16[] %x.58, f16[] %y.58)
}

%region_84.2659 (Arg_0.2660: f16[], Arg_1.2661: f16[]) -> f16[] {
  %Arg_0.2660 = f16[] parameter(0)
  %Arg_1.2661 = f16[] parameter(1)
  ROOT %add.2662 = f16[] add(f16[] %Arg_0.2660, f16[] %Arg_1.2661), metadata={op_name="parallelize(train_step_shard_parallel)/jit(main)/transpose(jvp(FlaxGPTForLMModule))/transformers/encoder/layer/4/remat(core_fn)/4/attention/self/qvk_combined/reduce_sum[axes=(0, 1)]" source_file="/python3.9-env/lib/python3.9/site-packages/flax/linen/linear.py" source_line=200}
}

%add.59 (x.59: f16[], y.59: f16[]) -> f16[] {
  %x.59 = f16[] parameter(0)
  %y.59 = f16[] parameter(1)
  ROOT %add.85 = f16[] add(f16[] %x.59, f16[] %y.59)
}

%region_76.2542 (Arg_0.2543: f16[], Arg_1.2544: f16[]) -> f16[] {
  %Arg_0.2543 = f16[] parameter(0)
  %Arg_1.2544 = f16[] parameter(1)
  ROOT %add.2545 = f16[] add(f16[] %Arg_0.2543, f16[] %Arg_1.2544), metadata={op_name="parallelize(train_step_shard_parallel)/jit(main)/transpose(jvp(FlaxGPTForLMModule))/transformers/encoder/layer/4/remat(core_fn)/4/intermediate/dense/reduce_sum[axes=(0, 1)]" source_file="/python3.9-env/lib/python3.9/site-packages/flax/linen/linear.py" source_line=200}
}

%add.60 (x.60: f16[], y.60: f16[]) -> f16[] {
  %x.60 = f16[] parameter(0)
  %y.60 = f16[] parameter(1)
  ROOT %add.86 = f16[] add(f16[] %x.60, f16[] %y.60)
}

%region_71.2474 (Arg_0.2475: f32[], Arg_1.2476: f32[]) -> f32[] {
  %Arg_0.2475 = f32[] parameter(0)
  %Arg_1.2476 = f32[] parameter(1)
  ROOT %add.2477 = f32[] add(f32[] %Arg_0.2475, f32[] %Arg_1.2476), metadata={op_name="parallelize(train_step_shard_parallel)/jit(main)/transpose(jvp(FlaxGPTForLMModule))/transformers/encoder/layer/4/remat(core_fn)/4/output/LayerNorm/reduce_sum[axes=(0, 1)]" source_file="/python3.9-env/lib/python3.9/site-packages/flax/linen/normalization.py" source_line=150}
}

%region_72.2484 (Arg_0.2485: f32[], Arg_1.2486: f32[]) -> f32[] {
  %Arg_0.2485 = f32[] parameter(0)
  %Arg_1.2486 = f32[] parameter(1)
  ROOT %add.2487 = f32[] add(f32[] %Arg_0.2485, f32[] %Arg_1.2486), metadata={op_name="parallelize(train_step_shard_parallel)/jit(main)/transpose(jvp(FlaxGPTForLMModule))/transformers/encoder/layer/4/remat(core_fn)/4/output/LayerNorm/reduce_sum[axes=(0, 1)]" source_file="/python3.9-env/lib/python3.9/site-packages/flax/linen/normalization.py" source_line=144}
}

%region_75.2523 (Arg_0.2524: f16[], Arg_1.2525: f16[]) -> f16[] {
  %Arg_0.2524 = f16[] parameter(0)
  %Arg_1.2525 = f16[] parameter(1)
  ROOT %add.2526 = f16[] add(f16[] %Arg_0.2524, f16[] %Arg_1.2525), metadata={op_name="parallelize(train_step_shard_parallel)/jit(main)/transpose(jvp(FlaxGPTForLMModule))/transformers/encoder/layer/4/remat(core_fn)/4/output/dense/reduce_sum[axes=(0, 1)]" source_file="/python3.9-env/lib/python3.9/site-packages/flax/linen/linear.py" source_line=200}
}

%add.61 (x.61: f16[], y.61: f16[]) -> f16[] {
  %x.61 = f16[] parameter(0)
  %y.61 = f16[] parameter(1)
  ROOT %add.87 = f16[] add(f16[] %x.61, f16[] %y.61)
}

%region_57.2095 (Arg_0.2096: f32[], Arg_1.2097: f32[]) -> f32[] {
  %Arg_0.2096 = f32[] parameter(0)
  %Arg_1.2097 = f32[] parameter(1)
  ROOT %add.2098 = f32[] add(f32[] %Arg_0.2096, f32[] %Arg_1.2097), metadata={op_name="parallelize(train_step_shard_parallel)/jit(main)/transpose(jvp(FlaxGPTForLMModule))/transformers/encoder/layer/5/remat(core_fn)/5/attention/output/LayerNorm/reduce_sum[axes=(0, 1)]" source_file="/python3.9-env/lib/python3.9/site-packages/flax/linen/normalization.py" source_line=150}
}

%region_58.2105 (Arg_0.2106: f32[], Arg_1.2107: f32[]) -> f32[] {
  %Arg_0.2106 = f32[] parameter(0)
  %Arg_1.2107 = f32[] parameter(1)
  ROOT %add.2108 = f32[] add(f32[] %Arg_0.2106, f32[] %Arg_1.2107), metadata={op_name="parallelize(train_step_shard_parallel)/jit(main)/transpose(jvp(FlaxGPTForLMModule))/transformers/encoder/layer/5/remat(core_fn)/5/attention/output/LayerNorm/reduce_sum[axes=(0, 1)]" source_file="/python3.9-env/lib/python3.9/site-packages/flax/linen/normalization.py" source_line=144}
}

%region_61.2144 (Arg_0.2145: f16[], Arg_1.2146: f16[]) -> f16[] {
  %Arg_0.2145 = f16[] parameter(0)
  %Arg_1.2146 = f16[] parameter(1)
  ROOT %add.2147 = f16[] add(f16[] %Arg_0.2145, f16[] %Arg_1.2146), metadata={op_name="parallelize(train_step_shard_parallel)/jit(main)/transpose(jvp(FlaxGPTForLMModule))/transformers/encoder/layer/5/remat(core_fn)/5/attention/output/dense/reduce_sum[axes=(0, 1)]" source_file="/python3.9-env/lib/python3.9/site-packages/flax/linen/linear.py" source_line=200}
}

%add.62 (x.62: f16[], y.62: f16[]) -> f16[] {
  %x.62 = f16[] parameter(0)
  %y.62 = f16[] parameter(1)
  ROOT %add.88 = f16[] add(f16[] %x.62, f16[] %y.62)
}

%region_64.2200 (Arg_0.2201: f16[], Arg_1.2202: f16[]) -> f16[] {
  %Arg_0.2201 = f16[] parameter(0)
  %Arg_1.2202 = f16[] parameter(1)
  ROOT %add.2203 = f16[] add(f16[] %Arg_0.2201, f16[] %Arg_1.2202), metadata={op_name="parallelize(train_step_shard_parallel)/jit(main)/transpose(jvp(FlaxGPTForLMModule))/transformers/encoder/layer/5/remat(core_fn)/5/attention/self/qvk_combined/reduce_sum[axes=(0, 1)]" source_file="/python3.9-env/lib/python3.9/site-packages/flax/linen/linear.py" source_line=200}
}

%add.63 (x.63: f16[], y.63: f16[]) -> f16[] {
  %x.63 = f16[] parameter(0)
  %y.63 = f16[] parameter(1)
  ROOT %add.89 = f16[] add(f16[] %x.63, f16[] %y.63)
}

%region_56.2083 (Arg_0.2084: f16[], Arg_1.2085: f16[]) -> f16[] {
  %Arg_0.2084 = f16[] parameter(0)
  %Arg_1.2085 = f16[] parameter(1)
  ROOT %add.2086 = f16[] add(f16[] %Arg_0.2084, f16[] %Arg_1.2085), metadata={op_name="parallelize(train_step_shard_parallel)/jit(main)/transpose(jvp(FlaxGPTForLMModule))/transformers/encoder/layer/5/remat(core_fn)/5/intermediate/dense/reduce_sum[axes=(0, 1)]" source_file="/python3.9-env/lib/python3.9/site-packages/flax/linen/linear.py" source_line=200}
}

%add.64 (x.64: f16[], y.64: f16[]) -> f16[] {
  %x.64 = f16[] parameter(0)
  %y.64 = f16[] parameter(1)
  ROOT %add.90 = f16[] add(f16[] %x.64, f16[] %y.64)
}

%region_51.2015 (Arg_0.2016: f32[], Arg_1.2017: f32[]) -> f32[] {
  %Arg_0.2016 = f32[] parameter(0)
  %Arg_1.2017 = f32[] parameter(1)
  ROOT %add.2018 = f32[] add(f32[] %Arg_0.2016, f32[] %Arg_1.2017), metadata={op_name="parallelize(train_step_shard_parallel)/jit(main)/transpose(jvp(FlaxGPTForLMModule))/transformers/encoder/layer/5/remat(core_fn)/5/output/LayerNorm/reduce_sum[axes=(0, 1)]" source_file="/python3.9-env/lib/python3.9/site-packages/flax/linen/normalization.py" source_line=150}
}

%region_52.2025 (Arg_0.2026: f32[], Arg_1.2027: f32[]) -> f32[] {
  %Arg_0.2026 = f32[] parameter(0)
  %Arg_1.2027 = f32[] parameter(1)
  ROOT %add.2028 = f32[] add(f32[] %Arg_0.2026, f32[] %Arg_1.2027), metadata={op_name="parallelize(train_step_shard_parallel)/jit(main)/transpose(jvp(FlaxGPTForLMModule))/transformers/encoder/layer/5/remat(core_fn)/5/output/LayerNorm/reduce_sum[axes=(0, 1)]" source_file="/python3.9-env/lib/python3.9/site-packages/flax/linen/normalization.py" source_line=144}
}

%region_55.2064 (Arg_0.2065: f16[], Arg_1.2066: f16[]) -> f16[] {
  %Arg_0.2065 = f16[] parameter(0)
  %Arg_1.2066 = f16[] parameter(1)
  ROOT %add.2067 = f16[] add(f16[] %Arg_0.2065, f16[] %Arg_1.2066), metadata={op_name="parallelize(train_step_shard_parallel)/jit(main)/transpose(jvp(FlaxGPTForLMModule))/transformers/encoder/layer/5/remat(core_fn)/5/output/dense/reduce_sum[axes=(0, 1)]" source_file="/python3.9-env/lib/python3.9/site-packages/flax/linen/linear.py" source_line=200}
}

%add.65 (x.65: f16[], y.65: f16[]) -> f16[] {
  %x.65 = f16[] parameter(0)
  %y.65 = f16[] parameter(1)
  ROOT %add.91 = f16[] add(f16[] %x.65, f16[] %y.65)
}

%add (x: f16[], y: f16[]) -> f16[] {
  %x = f16[] parameter(0)
  %y = f16[] parameter(1)
  ROOT %add.26 = f16[] add(f16[] %x, f16[] %y)
}

ENTRY %main.5888_spmd (param.2: s32[], param.3: f32[6400], param.10: f32[1024], param.9: f32[1024], param.8: f32[128,1024], param.6: f32[6400,1024], param.17: f32[1024], param.16: f32[1024], param.15: f32[1024], param.14: f32[128,1024], param.12: f32[384], param.11: f32[1024,384], param.19: f32[512], param.18: f32[1024,512], param.23: f32[1024], param.22: f32[1024], param.21: f32[1024], param.20: f32[512,1024], param.29: f32[1024], param.28: f32[1024], param.27: f32[1024], param.26: f32[128,1024], param.25: f32[384], param.24: f32[1024,384], param.31: f32[512], param.30: f32[1024,512], param.35: f32[1024], param.34: f32[1024], param.33: f32[1024], param.32: f32[512,1024], param.41: f32[1024], param.40: f32[1024], param.39: f32[1024], param.38: f32[128,1024], param.37: f32[384], param.36: f32[1024,384], param.43: f32[512], param.42: f32[1024,512], param.47: f32[1024], param.46: f32[1024], param.45: f32[1024], param.44: f32[512,1024], param.53: f32[1024], param.52: f32[1024], param.51: f32[1024], param.50: f32[128,1024], param.49: f32[384], param.48: f32[1024,384], param.55: f32[512], param.54: f32[1024,512], param.59: f32[1024], param.58: f32[1024], param.57: f32[1024], param.56: f32[512,1024], param.65: f32[1024], param.64: f32[1024], param.63: f32[1024], param.62: f32[128,1024], param.61: f32[384], param.60: f32[1024,384], param.67: f32[512], param.66: f32[1024,512], param.71: f32[1024], param.70: f32[1024], param.69: f32[1024], param.68: f32[512,1024], param.77: f32[1024], param.76: f32[1024], param.75: f32[1024], param.74: f32[128,1024], param.73: f32[384], param.72: f32[1024,384], param.79: f32[512], param.78: f32[1024,512], param.83: f32[1024], param.82: f32[1024], param.81: f32[1024], param.80: f32[512,1024], param.85: s32[], param.84: f32[6400], param.87: f32[1024], param.89: f32[1024], param.91: f32[128,1024], param.93: f32[6400,1024], param.95: f32[1024], param.97: f32[1024], param.99: f32[1024], param.101: f32[128,1024], param.103: f32[384], param.105: f32[1024,384], param.107: f32[512], param.109: f32[1024,512], param.111: f32[1024], param.113: f32[1024], param.115: f32[1024], param.117: f32[512,1024], param.119: f32[1024], param.121: f32[1024], param.123: f32[1024], param.125: f32[128,1024], param.127: f32[384], param.129: f32[1024,384], param.131: f32[512], param.133: f32[1024,512], param.135: f32[1024], param.137: f32[1024], param.139: f32[1024], param.141: f32[512,1024], param.143: f32[1024], param.145: f32[1024], param.147: f32[1024], param.149: f32[128,1024], param.151: f32[384], param.153: f32[1024,384], param.155: f32[512], param.157: f32[1024,512], param.159: f32[1024], param.161: f32[1024], param.163: f32[1024], param.165: f32[512,1024], param.167: f32[1024], param.169: f32[1024], param.171: f32[1024], param.173: f32[128,1024], param.175: f32[384], param.177: f32[1024,384], param.179: f32[512], param.181: f32[1024,512], param.183: f32[1024], param.185: f32[1024], param.187: f32[1024], param.189: f32[512,1024], param.191: f32[1024], param.193: f32[1024], param.195: f32[1024], param.197: f32[128,1024], param.199: f32[384], param.201: f32[1024,384], param.203: f32[512], param.205: f32[1024,512], param.207: f32[1024], param.209: f32[1024], param.211: f32[1024], param.213: f32[512,1024], param.215: f32[1024], param.217: f32[1024], param.219: f32[1024], param.221: f32[128,1024], param.223: f32[384], param.225: f32[1024,384], param.227: f32[512], param.229: f32[1024,512], param.231: f32[1024], param.233: f32[1024], param.235: f32[1024], param.237: f32[512,1024], param.86: f32[6400], param.88: f32[1024], param.90: f32[1024], param.92: f32[128,1024], param.94: f32[6400,1024], param.96: f32[1024], param.98: f32[1024], param.100: f32[1024], param.102: f32[128,1024], param.104: f32[384], param.106: f32[1024,384], param.108: f32[512], param.110: f32[1024,512], param.112: f32[1024], param.114: f32[1024], param.116: f32[1024], param.118: f32[512,1024], param.120: f32[1024], param.122: f32[1024], param.124: f32[1024], param.126: f32[128,1024], param.128: f32[384], param.130: f32[1024,384], param.132: f32[512], param.134: f32[1024,512], param.136: f32[1024], param.138: f32[1024], param.140: f32[1024], param.142: f32[512,1024], param.144: f32[1024], param.146: f32[1024], param.148: f32[1024], param.150: f32[128,1024], param.152: f32[384], param.154: f32[1024,384], param.156: f32[512], param.158: f32[1024,512], param.160: f32[1024], param.162: f32[1024], param.164: f32[1024], param.166: f32[512,1024], param.168: f32[1024], param.170: f32[1024], param.172: f32[1024], param.174: f32[128,1024], param.176: f32[384], param.178: f32[1024,384], param.180: f32[512], param.182: f32[1024,512], param.184: f32[1024], param.186: f32[1024], param.188: f32[1024], param.190: f32[512,1024], param.192: f32[1024], param.194: f32[1024], param.196: f32[1024], param.198: f32[128,1024], param.200: f32[384], param.202: f32[1024,384], param.204: f32[512], param.206: f32[1024,512], param.208: f32[1024], param.210: f32[1024], param.212: f32[1024], param.214: f32[512,1024], param.216: f32[1024], param.218: f32[1024], param.220: f32[1024], param.222: f32[128,1024], param.224: f32[384], param.226: f32[1024,384], param.228: f32[512], param.230: f32[1024,512], param.232: f32[1024], param.234: f32[1024], param.236: f32[1024], param.238: f32[512,1024], param.13: s32[4,1024], param.5: s32[4,1024], param.4: s32[4,1024], param.7: s32[4,1024], param: s32[4,1024], param.1: u32[1]) -> (s32[], f32[6400], f32[1024], f32[1024], f32[128,1024], /*index=5*/f32[6400,1024], f32[1024], f32[1024], f32[1024], f32[128,1024], /*index=10*/f32[384], f32[1024,384], f32[512], f32[1024,512], f32[1024], /*index=15*/f32[1024], f32[1024], f32[512,1024], f32[1024], f32[1024], /*index=20*/f32[1024], f32[128,1024], f32[384], f32[1024,384], f32[512], /*index=25*/f32[1024,512], f32[1024], f32[1024], f32[1024], f32[512,1024], /*index=30*/f32[1024], f32[1024], f32[1024], f32[128,1024], f32[384], /*index=35*/f32[1024,384], f32[512], f32[1024,512], f32[1024], f32[1024], /*index=40*/f32[1024], f32[512,1024], f32[1024], f32[1024], f32[1024], /*index=45*/f32[128,1024], f32[384], f32[1024,384], f32[512], f32[1024,512], /*index=50*/f32[1024], f32[1024], f32[1024], f32[512,1024], f32[1024], /*index=55*/f32[1024], f32[1024], f32[128,1024], f32[384], f32[1024,384], /*index=60*/f32[512], f32[1024,512], f32[1024], f32[1024], f32[1024], /*index=65*/f32[512,1024], f32[1024], f32[1024], f32[1024], f32[128,1024], /*index=70*/f32[384], f32[1024,384], f32[512], f32[1024,512], f32[1024], /*index=75*/f32[1024], f32[1024], f32[512,1024], s32[], f32[6400], /*index=80*/f32[1024], f32[1024], f32[128,1024], f32[6400,1024], f32[1024], /*index=85*/f32[1024], f32[1024], f32[128,1024], f32[384], f32[1024,384], /*index=90*/f32[512], f32[1024,512], f32[1024], f32[1024], f32[1024], /*index=95*/f32[512,1024], f32[1024], f32[1024], f32[1024], f32[128,1024], /*index=100*/f32[384], f32[1024,384], f32[512], f32[1024,512], f32[1024], /*index=105*/f32[1024], f32[1024], f32[512,1024], f32[1024], f32[1024], /*index=110*/f32[1024], f32[128,1024], f32[384], f32[1024,384], f32[512], /*index=115*/f32[1024,512], f32[1024], f32[1024], f32[1024], f32[512,1024], /*index=120*/f32[1024], f32[1024], f32[1024], f32[128,1024], f32[384], /*index=125*/f32[1024,384], f32[512], f32[1024,512], f32[1024], f32[1024], /*index=130*/f32[1024], f32[512,1024], f32[1024], f32[1024], f32[1024], /*index=135*/f32[128,1024], f32[384], f32[1024,384], f32[512], f32[1024,512], /*index=140*/f32[1024], f32[1024], f32[1024], f32[512,1024], f32[1024], /*index=145*/f32[1024], f32[1024], f32[128,1024], f32[384], f32[1024,384], /*index=150*/f32[512], f32[1024,512], f32[1024], f32[1024], f32[1024], /*index=155*/f32[512,1024], f32[6400], f32[1024], f32[1024], f32[128,1024], /*index=160*/f32[6400,1024], f32[1024], f32[1024], f32[1024], f32[128,1024], /*index=165*/f32[384], f32[1024,384], f32[512], f32[1024,512], f32[1024], /*index=170*/f32[1024], f32[1024], f32[512,1024], f32[1024], f32[1024], /*index=175*/f32[1024], f32[128,1024], f32[384], f32[1024,384], f32[512], /*index=180*/f32[1024,512], f32[1024], f32[1024], f32[1024], f32[512,1024], /*index=185*/f32[1024], f32[1024], f32[1024], f32[128,1024], f32[384], /*index=190*/f32[1024,384], f32[512], f32[1024,512], f32[1024], f32[1024], /*index=195*/f32[1024], f32[512,1024], f32[1024], f32[1024], f32[1024], /*index=200*/f32[128,1024], f32[384], f32[1024,384], f32[512], f32[1024,512], /*index=205*/f32[1024], f32[1024], f32[1024], f32[512,1024], f32[1024], /*index=210*/f32[1024], f32[1024], f32[128,1024], f32[384], f32[1024,384], /*index=215*/f32[512], f32[1024,512], f32[1024], f32[1024], f32[1024], /*index=220*/f32[512,1024], f32[1024], f32[1024], f32[1024], f32[128,1024], /*index=225*/f32[384], f32[1024,384], f32[512], f32[1024,512], f32[1024], /*index=230*/f32[1024], f32[1024], f32[512,1024]) {
  %param = s32[4,1024]{1,0} parameter(237), sharding={devices=[2,1,8]0,1,2,3,4,5,6,7,8,9,10,11,12,13,14,15 last_tile_dim_replicate}
  %param.1 = u32[1]{0} parameter(238), sharding={devices=[2,8]0,1,2,3,4,5,6,7,8,9,10,11,12,13,14,15 last_tile_dim_replicate}
  %param.2 = s32[] parameter(0), sharding={replicated}
  %constant.49 = s32[] constant(1)
  %add.92 = s32[] add(s32[] %param.2, s32[] %constant.49), metadata={op_name="parallelize(train_step_shard_parallel)/jit(main)/add" source_file="/code/alpa/alpa/model/model_util.py" source_line=301}
  %param.3 = f32[6400]{0} parameter(1), sharding={devices=[8,2]0,8,1,9,2,10,3,11,4,12,5,13,6,14,7,15 last_tile_dim_replicate}
  %param.4 = s32[4,1024]{1,0} parameter(235), sharding={devices=[2,1,8]0,1,2,3,4,5,6,7,8,9,10,11,12,13,14,15 last_tile_dim_replicate}
  %broadcast.926 = s32[4,1024,6400]{2,1,0} broadcast(s32[4,1024]{1,0} %param.4), dimensions={0,1}
  %iota.9 = s32[4,1024,6400]{2,1,0} iota(), iota_dimension=2, metadata={op_name="parallelize(train_step_shard_parallel)/jit(main)/eq" source_file="/code/alpa/playground/alpa_micro_benchmark/test_export_hlo.py" source_line=87}
  %constant.52 = s32[16]{0} constant({...}), metadata={op_name="parallelize(train_step_shard_parallel)/jit(main)/eq" source_file="/code/alpa/playground/alpa_micro_benchmark/test_export_hlo.py" source_line=87}
  %partition-id = u32[] partition-id()
  %dynamic-slice.1 = s32[1]{0} dynamic-slice(s32[16]{0} %constant.52, u32[] %partition-id), dynamic_slice_sizes={1}, metadata={op_name="parallelize(train_step_shard_parallel)/jit(main)/eq" source_file="/code/alpa/playground/alpa_micro_benchmark/test_export_hlo.py" source_line=87}
  %reshape.1418 = s32[] reshape(s32[1]{0} %dynamic-slice.1), metadata={op_name="parallelize(train_step_shard_parallel)/jit(main)/eq" source_file="/code/alpa/playground/alpa_micro_benchmark/test_export_hlo.py" source_line=87}
  %constant.53 = s32[] constant(6400), metadata={op_name="parallelize(train_step_shard_parallel)/jit(main)/eq" source_file="/code/alpa/playground/alpa_micro_benchmark/test_export_hlo.py" source_line=87}
  %multiply.171 = s32[] multiply(s32[] %reshape.1418, s32[] %constant.53), metadata={op_name="parallelize(train_step_shard_parallel)/jit(main)/eq" source_file="/code/alpa/playground/alpa_micro_benchmark/test_export_hlo.py" source_line=87}
  %broadcast.415 = s32[4,1024,6400]{2,1,0} broadcast(s32[] %multiply.171), dimensions={}, metadata={op_name="parallelize(train_step_shard_parallel)/jit(main)/eq" source_file="/code/alpa/playground/alpa_micro_benchmark/test_export_hlo.py" source_line=87}
  %add.93 = s32[4,1024,6400]{2,1,0} add(s32[4,1024,6400]{2,1,0} %iota.9, s32[4,1024,6400]{2,1,0} %broadcast.415), metadata={op_name="parallelize(train_step_shard_parallel)/jit(main)/eq" source_file="/code/alpa/playground/alpa_micro_benchmark/test_export_hlo.py" source_line=87}
  %compare.12 = pred[4,1024,6400]{2,1,0} compare(s32[4,1024,6400]{2,1,0} %broadcast.926, s32[4,1024,6400]{2,1,0} %add.93), direction=EQ, metadata={op_name="parallelize(train_step_shard_parallel)/jit(main)/eq" source_file="/code/alpa/playground/alpa_micro_benchmark/test_export_hlo.py" source_line=87}
  %constant.59 = s32[] constant(0), metadata={op_name="parallelize(train_step_shard_parallel)/jit(main)/eq" source_file="/code/alpa/playground/alpa_micro_benchmark/test_export_hlo.py" source_line=87}
  %broadcast.927 = s32[4,1024]{1,0} broadcast(s32[] %constant.59), dimensions={}
  %compare.13 = pred[4,1024]{1,0} compare(s32[4,1024]{1,0} %param.4, s32[4,1024]{1,0} %broadcast.927), direction=GT, metadata={op_name="parallelize(train_step_shard_parallel)/jit(main)/gt" source_file="/code/alpa/playground/alpa_micro_benchmark/test_export_hlo.py" source_line=86}
  %constant.68 = f32[] constant(1)
  %broadcast.928 = f32[4,1024]{1,0} broadcast(f32[] %constant.68), dimensions={}
  %constant.69 = f32[] constant(0)
  %broadcast.930 = f32[4,1024]{1,0} broadcast(f32[] %constant.69), dimensions={}
  %select.2 = f32[4,1024]{1,0} select(pred[4,1024]{1,0} %compare.13, f32[4,1024]{1,0} %broadcast.928, f32[4,1024]{1,0} %broadcast.930), metadata={op_name="parallelize(train_step_shard_parallel)/jit(main)/select_n" source_file="/code/alpa/playground/alpa_micro_benchmark/test_export_hlo.py" source_line=86}
  %reduce = f32[] reduce(f32[4,1024]{1,0} %select.2, f32[] %constant.69), dimensions={0,1}, to_apply=%region_40.1707, metadata={op_name="parallelize(train_step_shard_parallel)/jit(main)/reduce_sum[axes=(0, 1)]" source_file="/code/alpa/playground/alpa_micro_benchmark/test_export_hlo.py" source_line=90}
  %all-reduce = f32[] all-reduce(f32[] %reduce), channel_id=1, replica_groups={{0,8},{1,9},{2,10},{3,11},{4,12},{5,13},{6,14},{7,15}}, use_global_device_ids=true, to_apply=%region_40.1707, sharding={replicated}, metadata={op_name="parallelize(train_step_shard_parallel)/jit(main)/reduce_sum[axes=(0, 1)]" source_file="/code/alpa/playground/alpa_micro_benchmark/test_export_hlo.py" source_line=90}
  %divide.102 = f32[] divide(f32[] %constant.68, f32[] %all-reduce), metadata={op_name="parallelize(train_step_shard_parallel)/jit(main)/div" source_file="/code/alpa/playground/alpa_micro_benchmark/test_export_hlo.py" source_line=90}
  %broadcast.423 = f32[4,1024]{1,0} broadcast(f32[] %divide.102), dimensions={}, metadata={op_name="parallelize(train_step_shard_parallel)/jit(main)/broadcast_in_dim[shape=(8, 1024) broadcast_dimensions=()]" source_file="/code/alpa/playground/alpa_micro_benchmark/test_export_hlo.py" source_line=90}
  %multiply.172 = f32[4,1024]{1,0} multiply(f32[4,1024]{1,0} %select.2, f32[4,1024]{1,0} %broadcast.423), metadata={op_name="parallelize(train_step_shard_parallel)/jit(main)/mul" source_file="/code/alpa/playground/alpa_micro_benchmark/test_export_hlo.py" source_line=90}
  %negate.6 = f32[4,1024]{1,0} negate(f32[4,1024]{1,0} %multiply.172), metadata={op_name="parallelize(train_step_shard_parallel)/jit(main)/neg" source_file="/code/alpa/playground/alpa_micro_benchmark/test_export_hlo.py" source_line=88}
  %broadcast.932 = f32[4,1024,6400]{2,1,0} broadcast(f32[4,1024]{1,0} %negate.6), dimensions={0,1}
  %broadcast.933 = f32[4,1024,6400]{2,1,0} broadcast(f32[] %constant.69), dimensions={}
  %select.3 = f32[4,1024,6400]{2,1,0} select(pred[4,1024,6400]{2,1,0} %compare.12, f32[4,1024,6400]{2,1,0} %broadcast.932, f32[4,1024,6400]{2,1,0} %broadcast.933), metadata={op_name="parallelize(train_step_shard_parallel)/jit(main)/mul" source_file="/code/alpa/playground/alpa_micro_benchmark/test_export_hlo.py" source_line=88}
  %convert.42 = f16[4,1024,6400]{2,1,0} convert(f32[4,1024,6400]{2,1,0} %select.3), metadata={op_name="parallelize(train_step_shard_parallel)/jit(main)/convert_element_type[new_dtype=float16 weak_type=False]" source_file="/code/alpa/playground/alpa_micro_benchmark/test_export_hlo.py" source_line=88}
  %negate.7 = f16[4,1024,6400]{2,1,0} negate(f16[4,1024,6400]{2,1,0} %convert.42), metadata={op_name="parallelize(train_step_shard_parallel)/jit(main)/neg" source_file="/code/alpa/playground/alpa_micro_benchmark/test_export_hlo.py" source_line=88}
  %constant.89 = f16[] constant(0)
  %reduce.1 = f16[4,1024]{1,0} reduce(f16[4,1024,6400]{2,1,0} %negate.7, f16[] %constant.89), dimensions={2}, to_apply=%region_41.1720, metadata={op_name="parallelize(train_step_shard_parallel)/jit(main)/reduce_sum[axes=(2,)]" source_file="/code/alpa/playground/alpa_micro_benchmark/test_export_hlo.py" source_line=88}
  %all-reduce.1 = f16[4,1024]{1,0} all-reduce(f16[4,1024]{1,0} %reduce.1), channel_id=2, replica_groups={{0,1,2,3,4,5,6,7},{8,9,10,11,12,13,14,15}}, use_global_device_ids=true, to_apply=%region_41.1720, sharding={devices=[2,1,8]0,1,2,3,4,5,6,7,8,9,10,11,12,13,14,15 last_tile_dim_replicate}, metadata={op_name="parallelize(train_step_shard_parallel)/jit(main)/reduce_sum[axes=(2,)]" source_file="/code/alpa/playground/alpa_micro_benchmark/test_export_hlo.py" source_line=88}
  %param.5 = s32[4,1024]{1,0} parameter(234), sharding={devices=[2,1,8]0,1,2,3,4,5,6,7,8,9,10,11,12,13,14,15 last_tile_dim_replicate}
  %broadcast.934 = s32[4,1024,6400]{2,1,0} broadcast(s32[4,1024]{1,0} %param.5), dimensions={0,1}
  %compare.14 = pred[4,1024,6400]{2,1,0} compare(s32[4,1024,6400]{2,1,0} %broadcast.934, s32[4,1024,6400]{2,1,0} %add.93), direction=EQ, metadata={op_name="parallelize(train_step_shard_parallel)/jit(main)/jvp(FlaxGPTForLMModule)/transformers/embeddings/word_embeddings.embed_call_one_hot/eq" source_file="/code/alpa/alpa/monkey_patch.py" source_line=236}
  %convert.43 = f16[4,1024,6400]{2,1,0} convert(pred[4,1024,6400]{2,1,0} %compare.14), metadata={op_name="parallelize(train_step_shard_parallel)/jit(main)/jvp(FlaxGPTForLMModule)/transformers/embeddings/word_embeddings.embed_call_one_hot/convert_element_type[new_dtype=float16 weak_type=False]" source_file="/code/alpa/alpa/monkey_patch.py" source_line=236}
  %reshape.1441 = f16[4096,6400]{1,0} reshape(f16[4,1024,6400]{2,1,0} %convert.43)
  %param.6 = f32[6400,1024]{1,0} parameter(5), sharding={devices=[8,1,2]0,8,1,9,2,10,3,11,4,12,5,13,6,14,7,15 last_tile_dim_replicate}
  %convert.44 = f16[6400,1024]{1,0} convert(f32[6400,1024]{1,0} %param.6), metadata={op_name="parallelize(train_step_shard_parallel)/jit(main)/jvp(FlaxGPTForLMModule)/transformers/embeddings/word_embeddings.embed_call_one_hot/convert_element_type[new_dtype=float16 weak_type=False]" source_file="/code/alpa/alpa/monkey_patch.py" source_line=237}
  %dot.214 = f16[4096,1024]{1,0} dot(f16[4096,6400]{1,0} %reshape.1441, f16[6400,1024]{1,0} %convert.44), lhs_contracting_dims={1}, rhs_contracting_dims={0}, metadata={op_name="parallelize(train_step_shard_parallel)/jit(main)/jvp(FlaxGPTForLMModule)/transformers/embeddings/word_embeddings.embed_call_one_hot/dot_general[dimension_numbers=(((2,), (0,)), ((), ())) precision=None preferred_element_type=None]" source_file="/code/alpa/alpa/monkey_patch.py" source_line=237}
  %param.7 = s32[4,1024]{1,0} parameter(236), sharding={devices=[2,1,8]0,1,2,3,4,5,6,7,8,9,10,11,12,13,14,15 last_tile_dim_replicate}
  %broadcast.935 = s32[4,1024,128]{2,1,0} broadcast(s32[4,1024]{1,0} %param.7), dimensions={0,1}
  %iota.10 = s32[4,1024,128]{2,1,0} iota(), iota_dimension=2, metadata={op_name="parallelize(train_step_shard_parallel)/jit(main)/jvp(FlaxGPTForLMModule)/transformers/embeddings/position_embeddings.embed_call_one_hot/eq" source_file="/code/alpa/alpa/monkey_patch.py" source_line=236}
  %constant.106 = s32[] constant(128), metadata={op_name="parallelize(train_step_shard_parallel)/jit(main)/jvp(FlaxGPTForLMModule)/transformers/embeddings/position_embeddings.embed_call_one_hot/eq" source_file="/code/alpa/alpa/monkey_patch.py" source_line=236}
  %multiply.173 = s32[] multiply(s32[] %reshape.1418, s32[] %constant.106), metadata={op_name="parallelize(train_step_shard_parallel)/jit(main)/jvp(FlaxGPTForLMModule)/transformers/embeddings/position_embeddings.embed_call_one_hot/eq" source_file="/code/alpa/alpa/monkey_patch.py" source_line=236}
  %broadcast.430 = s32[4,1024,128]{2,1,0} broadcast(s32[] %multiply.173), dimensions={}, metadata={op_name="parallelize(train_step_shard_parallel)/jit(main)/jvp(FlaxGPTForLMModule)/transformers/embeddings/position_embeddings.embed_call_one_hot/eq" source_file="/code/alpa/alpa/monkey_patch.py" source_line=236}
  %add.94 = s32[4,1024,128]{2,1,0} add(s32[4,1024,128]{2,1,0} %iota.10, s32[4,1024,128]{2,1,0} %broadcast.430), metadata={op_name="parallelize(train_step_shard_parallel)/jit(main)/jvp(FlaxGPTForLMModule)/transformers/embeddings/position_embeddings.embed_call_one_hot/eq" source_file="/code/alpa/alpa/monkey_patch.py" source_line=236}
  %compare.15 = pred[4,1024,128]{2,1,0} compare(s32[4,1024,128]{2,1,0} %broadcast.935, s32[4,1024,128]{2,1,0} %add.94), direction=EQ, metadata={op_name="parallelize(train_step_shard_parallel)/jit(main)/jvp(FlaxGPTForLMModule)/transformers/embeddings/position_embeddings.embed_call_one_hot/eq" source_file="/code/alpa/alpa/monkey_patch.py" source_line=236}
  %convert.45 = f16[4,1024,128]{2,1,0} convert(pred[4,1024,128]{2,1,0} %compare.15), metadata={op_name="parallelize(train_step_shard_parallel)/jit(main)/jvp(FlaxGPTForLMModule)/transformers/embeddings/position_embeddings.embed_call_one_hot/convert_element_type[new_dtype=float16 weak_type=False]" source_file="/code/alpa/alpa/monkey_patch.py" source_line=236}
  %reshape.1451 = f16[4096,128]{1,0} reshape(f16[4,1024,128]{2,1,0} %convert.45)
  %param.8 = f32[128,1024]{1,0} parameter(4), sharding={devices=[8,1,2]0,8,1,9,2,10,3,11,4,12,5,13,6,14,7,15 last_tile_dim_replicate}
  %convert.46 = f16[128,1024]{1,0} convert(f32[128,1024]{1,0} %param.8), metadata={op_name="parallelize(train_step_shard_parallel)/jit(main)/jvp(FlaxGPTForLMModule)/transformers/embeddings/position_embeddings.embed_call_one_hot/convert_element_type[new_dtype=float16 weak_type=False]" source_file="/code/alpa/alpa/monkey_patch.py" source_line=237}
  %dot.215 = f16[4096,1024]{1,0} dot(f16[4096,128]{1,0} %reshape.1451, f16[128,1024]{1,0} %convert.46), lhs_contracting_dims={1}, rhs_contracting_dims={0}, metadata={op_name="parallelize(train_step_shard_parallel)/jit(main)/jvp(FlaxGPTForLMModule)/transformers/embeddings/position_embeddings.embed_call_one_hot/dot_general[dimension_numbers=(((2,), (0,)), ((), ())) precision=None preferred_element_type=None]" source_file="/code/alpa/alpa/monkey_patch.py" source_line=237}
  %add.850 = f16[4096,1024]{1,0} add(f16[4096,1024]{1,0} %dot.214, f16[4096,1024]{1,0} %dot.215), metadata={op_name="parallelize(train_step_shard_parallel)/jit(main)/jvp(FlaxGPTForLMModule)/transformers/embeddings/add" source_file="/code/alpa/alpa/model/bert_model.py" source_line=130}
  %all-reduce.121 = f16[4096,1024]{1,0} all-reduce(f16[4096,1024]{1,0} %add.850), channel_id=122, replica_groups={{0,1,2,3,4,5,6,7},{8,9,10,11,12,13,14,15}}, use_global_device_ids=true, to_apply=%add, sharding={devices=[2,1,8]0,1,2,3,4,5,6,7,8,9,10,11,12,13,14,15 last_tile_dim_replicate}, metadata={op_name="parallelize(train_step_shard_parallel)/jit(main)/jvp(FlaxGPTForLMModule)/transformers/embeddings/word_embeddings.embed_call_one_hot/dot_general[dimension_numbers=(((2,), (0,)), ((), ())) precision=None preferred_element_type=None]" source_file="/code/alpa/alpa/monkey_patch.py" source_line=237}
  %convert.47 = f32[4096,1024]{1,0} convert(f16[4096,1024]{1,0} %all-reduce.121), metadata={op_name="parallelize(train_step_shard_parallel)/jit(main)/jvp(FlaxGPTForLMModule)/transformers/embeddings/LayerNorm/convert_element_type[new_dtype=float32 weak_type=False]" source_file="/python3.9-env/lib/python3.9/site-packages/flax/linen/normalization.py" source_line=138}
  %reshape.1453 = f32[4,1024,1024]{2,1,0} reshape(f32[4096,1024]{1,0} %convert.47), metadata={op_name="parallelize(train_step_shard_parallel)/jit(main)/jvp(FlaxGPTForLMModule)/transformers/embeddings/LayerNorm/convert_element_type[new_dtype=float32 weak_type=False]" source_file="/python3.9-env/lib/python3.9/site-packages/flax/linen/normalization.py" source_line=138}
  %reduce.2 = f32[4,1024]{1,0} reduce(f32[4,1024,1024]{2,1,0} %reshape.1453, f32[] %constant.69), dimensions={2}, to_apply=%region_0.466, metadata={op_name="parallelize(train_step_shard_parallel)/jit(main)/jvp(FlaxGPTForLMModule)/transformers/embeddings/LayerNorm/reduce_sum[axes=(2,)]" source_file="/python3.9-env/lib/python3.9/site-packages/flax/linen/normalization.py" source_line=82}
  %constant.120 = f32[] constant(0.0009765625)
  %broadcast.936 = f32[4,1024]{1,0} broadcast(f32[] %constant.120), dimensions={}
  %multiply.174 = f32[4,1024]{1,0} multiply(f32[4,1024]{1,0} %reduce.2, f32[4,1024]{1,0} %broadcast.936), metadata={op_name="parallelize(train_step_shard_parallel)/jit(main)/jvp(FlaxGPTForLMModule)/transformers/embeddings/LayerNorm/div" source_file="/python3.9-env/lib/python3.9/site-packages/flax/linen/normalization.py" source_line=82}
  %broadcast.432 = f32[4,1024,1024]{2,1,0} broadcast(f32[4,1024]{1,0} %multiply.174), dimensions={0,1}, metadata={op_name="parallelize(train_step_shard_parallel)/jit(main)/jvp(FlaxGPTForLMModule)/transformers/embeddings/LayerNorm/sub" source_file="/python3.9-env/lib/python3.9/site-packages/flax/linen/normalization.py" source_line=138}
  %subtract.12 = f32[4,1024,1024]{2,1,0} subtract(f32[4,1024,1024]{2,1,0} %reshape.1453, f32[4,1024,1024]{2,1,0} %broadcast.432), metadata={op_name="parallelize(train_step_shard_parallel)/jit(main)/jvp(FlaxGPTForLMModule)/transformers/embeddings/LayerNorm/sub" source_file="/python3.9-env/lib/python3.9/site-packages/flax/linen/normalization.py" source_line=138}
  %multiply.175 = f32[4,1024,1024]{2,1,0} multiply(f32[4,1024,1024]{2,1,0} %reshape.1453, f32[4,1024,1024]{2,1,0} %reshape.1453), metadata={op_name="parallelize(train_step_shard_parallel)/jit(main)/jvp(FlaxGPTForLMModule)/transformers/embeddings/LayerNorm/mul" source_file="/python3.9-env/lib/python3.9/site-packages/flax/linen/normalization.py" source_line=46}
  %reduce.3 = f32[4,1024]{1,0} reduce(f32[4,1024,1024]{2,1,0} %multiply.175, f32[] %constant.69), dimensions={2}, to_apply=%region_1.474, metadata={op_name="parallelize(train_step_shard_parallel)/jit(main)/jvp(FlaxGPTForLMModule)/transformers/embeddings/LayerNorm/reduce_sum[axes=(2,)]" source_file="/python3.9-env/lib/python3.9/site-packages/flax/linen/normalization.py" source_line=83}
  %multiply.176 = f32[4,1024]{1,0} multiply(f32[4,1024]{1,0} %reduce.3, f32[4,1024]{1,0} %broadcast.936), metadata={op_name="parallelize(train_step_shard_parallel)/jit(main)/jvp(FlaxGPTForLMModule)/transformers/embeddings/LayerNorm/div" source_file="/python3.9-env/lib/python3.9/site-packages/flax/linen/normalization.py" source_line=83}
  %multiply.177 = f32[4,1024]{1,0} multiply(f32[4,1024]{1,0} %multiply.174, f32[4,1024]{1,0} %multiply.174), metadata={op_name="parallelize(train_step_shard_parallel)/jit(main)/jvp(FlaxGPTForLMModule)/transformers/embeddings/LayerNorm/mul" source_file="/python3.9-env/lib/python3.9/site-packages/flax/linen/normalization.py" source_line=46}
  %subtract.13 = f32[4,1024]{1,0} subtract(f32[4,1024]{1,0} %multiply.176, f32[4,1024]{1,0} %multiply.177), metadata={op_name="parallelize(train_step_shard_parallel)/jit(main)/jvp(FlaxGPTForLMModule)/transformers/embeddings/LayerNorm/sub" source_file="/python3.9-env/lib/python3.9/site-packages/flax/linen/normalization.py" source_line=93}
  %maximum.0 = f32[4,1024]{1,0} maximum(f32[4,1024]{1,0} %subtract.13, f32[4,1024]{1,0} %broadcast.930), metadata={op_name="parallelize(train_step_shard_parallel)/jit(main)/jvp(FlaxGPTForLMModule)/transformers/embeddings/LayerNorm/max" source_file="/python3.9-env/lib/python3.9/site-packages/flax/linen/normalization.py" source_line=93}
  %constant.124 = f32[] constant(1e-12)
  %broadcast.937 = f32[4,1024]{1,0} broadcast(f32[] %constant.124), dimensions={}
  %add.96 = f32[4,1024]{1,0} add(f32[4,1024]{1,0} %maximum.0, f32[4,1024]{1,0} %broadcast.937), metadata={op_name="parallelize(train_step_shard_parallel)/jit(main)/jvp(FlaxGPTForLMModule)/transformers/embeddings/LayerNorm/add" source_file="/python3.9-env/lib/python3.9/site-packages/flax/linen/normalization.py" source_line=139}
  %reshape.1459 = f32[4,1024,1]{2,1,0} reshape(f32[4,1024]{1,0} %add.96), metadata={op_name="parallelize(train_step_shard_parallel)/jit(main)/jvp(FlaxGPTForLMModule)/transformers/embeddings/LayerNorm/add" source_file="/python3.9-env/lib/python3.9/site-packages/flax/linen/normalization.py" source_line=139}
  %rsqrt.12 = f32[4,1024,1]{2,1,0} rsqrt(f32[4,1024,1]{2,1,0} %reshape.1459), metadata={op_name="parallelize(train_step_shard_parallel)/jit(main)/jvp(FlaxGPTForLMModule)/transformers/embeddings/LayerNorm/rsqrt" source_file="/python3.9-env/lib/python3.9/site-packages/flax/linen/normalization.py" source_line=139}
  %reshape.1461 = f32[4,1024]{1,0} reshape(f32[4,1024,1]{2,1,0} %rsqrt.12), metadata={op_name="parallelize(train_step_shard_parallel)/jit(main)/jvp(FlaxGPTForLMModule)/transformers/embeddings/LayerNorm/mul" source_file="/python3.9-env/lib/python3.9/site-packages/flax/linen/normalization.py" source_line=144}
  %broadcast.434 = f32[4,1024,1024]{2,1,0} broadcast(f32[4,1024]{1,0} %reshape.1461), dimensions={0,1}, metadata={op_name="parallelize(train_step_shard_parallel)/jit(main)/jvp(FlaxGPTForLMModule)/transformers/embeddings/LayerNorm/mul" source_file="/python3.9-env/lib/python3.9/site-packages/flax/linen/normalization.py" source_line=144}
  %param.9 = f32[1024]{0} parameter(3), sharding={replicated}
  %broadcast.938 = f32[4,1024,1024]{2,1,0} broadcast(f32[1024]{0} %param.9), dimensions={2}
  %multiply.178 = f32[4,1024,1024]{2,1,0} multiply(f32[4,1024,1024]{2,1,0} %broadcast.434, f32[4,1024,1024]{2,1,0} %broadcast.938), metadata={op_name="parallelize(train_step_shard_parallel)/jit(main)/jvp(FlaxGPTForLMModule)/transformers/embeddings/LayerNorm/mul" source_file="/python3.9-env/lib/python3.9/site-packages/flax/linen/normalization.py" source_line=144}
  %multiply.179 = f32[4,1024,1024]{2,1,0} multiply(f32[4,1024,1024]{2,1,0} %subtract.12, f32[4,1024,1024]{2,1,0} %multiply.178), metadata={op_name="parallelize(train_step_shard_parallel)/jit(main)/jvp(FlaxGPTForLMModule)/transformers/embeddings/LayerNorm/mul" source_file="/python3.9-env/lib/python3.9/site-packages/flax/linen/normalization.py" source_line=146}
  %param.10 = f32[1024]{0} parameter(2), sharding={replicated}
  %broadcast.939 = f32[4,1024,1024]{2,1,0} broadcast(f32[1024]{0} %param.10), dimensions={2}
  %add.97 = f32[4,1024,1024]{2,1,0} add(f32[4,1024,1024]{2,1,0} %multiply.179, f32[4,1024,1024]{2,1,0} %broadcast.939), metadata={op_name="parallelize(train_step_shard_parallel)/jit(main)/jvp(FlaxGPTForLMModule)/transformers/embeddings/LayerNorm/add" source_file="/python3.9-env/lib/python3.9/site-packages/flax/linen/normalization.py" source_line=150}
  %convert.48 = f16[4,1024,1024]{2,1,0} convert(f32[4,1024,1024]{2,1,0} %add.97), metadata={op_name="parallelize(train_step_shard_parallel)/jit(main)/jvp(FlaxGPTForLMModule)/transformers/embeddings/LayerNorm/convert_element_type[new_dtype=float16 weak_type=False]" source_file="/python3.9-env/lib/python3.9/site-packages/flax/linen/normalization.py" source_line=153}
  %reshape.1468 = f16[4096,1024]{1,0} reshape(f16[4,1024,1024]{2,1,0} %convert.48)
  %param.11 = f32[1024,384]{1,0} parameter(11), sharding={devices=[1,8,2]0,8,1,9,2,10,3,11,4,12,5,13,6,14,7,15 last_tile_dim_replicate}
  %convert.49 = f16[1024,384]{1,0} convert(f32[1024,384]{1,0} %param.11), metadata={op_name="parallelize(train_step_shard_parallel)/jit(main)/jvp(FlaxGPTForLMModule)/transformers/encoder/layer/0/0/attention/self/qvk_combined/convert_element_type[new_dtype=float16 weak_type=False]" source_file="/python3.9-env/lib/python3.9/site-packages/flax/linen/dtypes.py" source_line=97}
  %dot.216 = f16[4096,384]{1,0} dot(f16[4096,1024]{1,0} %reshape.1468, f16[1024,384]{1,0} %convert.49), lhs_contracting_dims={1}, rhs_contracting_dims={0}, metadata={op_name="parallelize(train_step_shard_parallel)/jit(main)/jvp(FlaxGPTForLMModule)/transformers/encoder/layer/0/0/attention/self/qvk_combined/dot_general[dimension_numbers=(((2,), (0,)), ((), ())) precision=None preferred_element_type=None]" source_file="/python3.9-env/lib/python3.9/site-packages/flax/linen/linear.py" source_line=196}
  %reshape.1472 = f16[4,1024,384]{2,1,0} reshape(f16[4096,384]{1,0} %dot.216), metadata={op_name="parallelize(train_step_shard_parallel)/jit(main)/jvp(FlaxGPTForLMModule)/transformers/encoder/layer/0/0/attention/self/qvk_combined/dot_general[dimension_numbers=(((2,), (0,)), ((), ())) precision=None preferred_element_type=None]" source_file="/python3.9-env/lib/python3.9/site-packages/flax/linen/linear.py" source_line=196}
  %param.12 = f32[384]{0} parameter(10), sharding={devices=[8,2]0,8,1,9,2,10,3,11,4,12,5,13,6,14,7,15 last_tile_dim_replicate}
  %convert.50 = f16[384]{0} convert(f32[384]{0} %param.12), metadata={op_name="parallelize(train_step_shard_parallel)/jit(main)/jvp(FlaxGPTForLMModule)/transformers/encoder/layer/0/0/attention/self/qvk_combined/convert_element_type[new_dtype=float16 weak_type=False]" source_file="/python3.9-env/lib/python3.9/site-packages/flax/linen/dtypes.py" source_line=97}
  %broadcast.940 = f16[4,1024,384]{2,1,0} broadcast(f16[384]{0} %convert.50), dimensions={2}
  %add.98 = f16[4,1024,384]{2,1,0} add(f16[4,1024,384]{2,1,0} %reshape.1472, f16[4,1024,384]{2,1,0} %broadcast.940), metadata={op_name="parallelize(train_step_shard_parallel)/jit(main)/jvp(FlaxGPTForLMModule)/transformers/encoder/layer/0/0/attention/self/qvk_combined/add" source_file="/python3.9-env/lib/python3.9/site-packages/flax/linen/linear.py" source_line=200}
  %reshape.1477 = f16[4,1024,128,3]{3,2,1,0} reshape(f16[4,1024,384]{2,1,0} %add.98), metadata={op_name="parallelize(train_step_shard_parallel)/jit(main)/jvp(FlaxGPTForLMModule)/transformers/encoder/layer/0/0/attention/self/reshape[new_sizes=(8, 1024, 1024, 3) dimensions=None]" source_file="/code/alpa/alpa/model/bert_model.py" source_line=161}
  %slice = f16[4,1024,128,1]{3,2,1,0} slice(f16[4,1024,128,3]{3,2,1,0} %reshape.1477), slice={[0:4], [0:1024], [0:128], [1:2]}, metadata={op_name="parallelize(train_step_shard_parallel)/jit(main)/jvp(FlaxGPTForLMModule)/transformers/encoder/layer/0/0/attention/self/slice[start_indices=(0, 0, 0, 1) limit_indices=(8, 1024, 1024, 2) strides=None]" source_file="/code/alpa/alpa/model/bert_model.py" source_line=163}
  %reshape.1482 = f16[4,1024,4,32]{3,2,1,0} reshape(f16[4,1024,128,1]{3,2,1,0} %slice), metadata={op_name="parallelize(train_step_shard_parallel)/jit(main)/jvp(FlaxGPTForLMModule)/transformers/encoder/layer/0/0/attention/self/reshape[new_sizes=(8, 1024, 32, 32) dimensions=None]" source_file="/code/alpa/alpa/model/bert_model.py" source_line=170}
  %transpose.303 = f16[4,4,32,1024]{2,1,3,0} transpose(f16[4,1024,4,32]{3,2,1,0} %reshape.1482), dimensions={0,2,3,1}
  %slice.1 = f16[4,1024,128,1]{3,2,1,0} slice(f16[4,1024,128,3]{3,2,1,0} %reshape.1477), slice={[0:4], [0:1024], [0:128], [0:1]}, metadata={op_name="parallelize(train_step_shard_parallel)/jit(main)/jvp(FlaxGPTForLMModule)/transformers/encoder/layer/0/0/attention/self/slice[start_indices=(0, 0, 0, 0) limit_indices=(8, 1024, 1024, 1) strides=None]" source_file="/code/alpa/alpa/model/bert_model.py" source_line=163}
  %constant.165 = f16[] constant(0.17676)
  %broadcast.941 = f16[4,1024,128,1]{3,2,1,0} broadcast(f16[] %constant.165), dimensions={}
  %multiply.180 = f16[4,1024,128,1]{3,2,1,0} multiply(f16[4,1024,128,1]{3,2,1,0} %slice.1, f16[4,1024,128,1]{3,2,1,0} %broadcast.941), metadata={op_name="parallelize(train_step_shard_parallel)/jit(main)/jvp(FlaxGPTForLMModule)/transformers/encoder/layer/0/0/attention/self/div" source_file="/python3.9-env/lib/python3.9/site-packages/flax/linen/attention.py" source_line=93}
  %reshape.1491 = f16[4,1024,4,32]{3,2,1,0} reshape(f16[4,1024,128,1]{3,2,1,0} %multiply.180), metadata={op_name="parallelize(train_step_shard_parallel)/jit(main)/jvp(FlaxGPTForLMModule)/transformers/encoder/layer/0/0/attention/self/div" source_file="/python3.9-env/lib/python3.9/site-packages/flax/linen/attention.py" source_line=93}
  %transpose.304 = f16[4,4,1024,32]{3,1,2,0} transpose(f16[4,1024,4,32]{3,2,1,0} %reshape.1491), dimensions={0,2,1,3}
  %slice.2 = f16[4,1024,128,1]{3,2,1,0} slice(f16[4,1024,128,3]{3,2,1,0} %reshape.1477), slice={[0:4], [0:1024], [0:128], [2:3]}, metadata={op_name="parallelize(train_step_shard_parallel)/jit(main)/jvp(FlaxGPTForLMModule)/transformers/encoder/layer/0/0/attention/self/slice[start_indices=(0, 0, 0, 2) limit_indices=(8, 1024, 1024, 3) strides=None]" source_file="/code/alpa/alpa/model/bert_model.py" source_line=163}
  %reshape.1495 = f16[4,1024,4,32]{3,2,1,0} reshape(f16[4,1024,128,1]{3,2,1,0} %slice.2), metadata={op_name="parallelize(train_step_shard_parallel)/jit(main)/jvp(FlaxGPTForLMModule)/transformers/encoder/layer/0/0/attention/self/reshape[new_sizes=(8, 1024, 32, 32) dimensions=None]" source_file="/code/alpa/alpa/model/bert_model.py" source_line=173}
  %transpose.305 = f16[4,4,32,1024]{2,1,3,0} transpose(f16[4,1024,4,32]{3,2,1,0} %reshape.1495), dimensions={0,2,3,1}
  %dot.217 = f16[4,4,1024,1024]{3,2,1,0} dot(f16[4,4,1024,32]{3,1,2,0} %transpose.304, f16[4,4,32,1024]{2,1,3,0} %transpose.305), lhs_batch_dims={0,1}, lhs_contracting_dims={3}, rhs_batch_dims={0,1}, rhs_contracting_dims={2}, metadata={op_name="parallelize(train_step_shard_parallel)/jit(main)/jvp(FlaxGPTForLMModule)/transformers/encoder/layer/0/0/attention/self/dot_general[dimension_numbers=(((3,), (3,)), ((0, 2), (0, 2))) precision=None preferred_element_type=None]" source_file="/python3.9-env/lib/python3.9/site-packages/flax/linen/attention.py" source_line=95}
  %param.13 = s32[4,1024]{1,0} parameter(233), sharding={devices=[2,1,8]0,1,2,3,4,5,6,7,8,9,10,11,12,13,14,15 last_tile_dim_replicate}
  %compare.16 = pred[4,1024]{1,0} compare(s32[4,1024]{1,0} %param.13, s32[4,1024]{1,0} %broadcast.927), direction=GT, metadata={op_name="parallelize(train_step_shard_parallel)/jit(main)/jvp(FlaxGPTForLMModule)/transformers/encoder/layer/0/0/attention/self/gt" source_file="/code/alpa/alpa/model/bert_model.py" source_line=182}
  %broadcast.943 = f16[4,1024]{1,0} broadcast(f16[] %constant.89), dimensions={}
  %constant.179 = f16[] constant(-inf)
  %broadcast.945 = f16[4,1024]{1,0} broadcast(f16[] %constant.179), dimensions={}
  %select.4 = f16[4,1024]{1,0} select(pred[4,1024]{1,0} %compare.16, f16[4,1024]{1,0} %broadcast.943, f16[4,1024]{1,0} %broadcast.945), metadata={op_name="parallelize(train_step_shard_parallel)/jit(main)/jvp(FlaxGPTForLMModule)/transformers/encoder/layer/0/0/attention/self/select_n" source_file="/code/alpa/alpa/model/bert_model.py" source_line=181}
  %broadcast.946 = f16[4,4,1024,1024]{3,2,1,0} broadcast(f16[4,1024]{1,0} %select.4), dimensions={0,3}
  %add.99 = f16[4,4,1024,1024]{3,2,1,0} add(f16[4,4,1024,1024]{3,2,1,0} %dot.217, f16[4,4,1024,1024]{3,2,1,0} %broadcast.946), metadata={op_name="parallelize(train_step_shard_parallel)/jit(main)/jvp(FlaxGPTForLMModule)/transformers/encoder/layer/0/0/attention/self/add" source_file="/python3.9-env/lib/python3.9/site-packages/flax/linen/attention.py" source_line=100}
  %reduce.4 = f16[4,4,1024]{2,1,0} reduce(f16[4,4,1024,1024]{3,2,1,0} %add.99, f16[] %constant.179), dimensions={3}, to_apply=%region_2.539, metadata={op_name="parallelize(train_step_shard_parallel)/jit(main)/jvp(FlaxGPTForLMModule)/transformers/encoder/layer/0/0/attention/self/reduce_max[axes=(3,)]" source_file="/python3.9-env/lib/python3.9/site-packages/flax/linen/attention.py" source_line=107}
  %broadcast.445 = f16[4,4,1024,1024]{3,2,1,0} broadcast(f16[4,4,1024]{2,1,0} %reduce.4), dimensions={0,1,2}, metadata={op_name="parallelize(train_step_shard_parallel)/jit(main)/jvp(FlaxGPTForLMModule)/transformers/encoder/layer/0/0/attention/self/sub" source_file="/python3.9-env/lib/python3.9/site-packages/flax/linen/attention.py" source_line=107}
  %subtract.21 = f16[4,4,1024,1024]{3,2,1,0} subtract(f16[4,4,1024,1024]{3,2,1,0} %add.99, f16[4,4,1024,1024]{3,2,1,0} %broadcast.445), metadata={op_name="parallelize(train_step_shard_parallel)/jit(main)/jvp(FlaxGPTForLMModule)/transformers/encoder/layer/0/0/attention/self/sub" source_file="/python3.9-env/lib/python3.9/site-packages/flax/linen/attention.py" source_line=107}
  %exponential.0 = f16[4,4,1024,1024]{3,2,1,0} exponential(f16[4,4,1024,1024]{3,2,1,0} %subtract.21), metadata={op_name="parallelize(train_step_shard_parallel)/jit(main)/jvp(FlaxGPTForLMModule)/transformers/encoder/layer/0/0/attention/self/exp" source_file="/python3.9-env/lib/python3.9/site-packages/flax/linen/attention.py" source_line=107}
  %convert.51 = f32[4,4,1024,1024]{3,2,1,0} convert(f16[4,4,1024,1024]{3,2,1,0} %exponential.0), metadata={op_name="parallelize(train_step_shard_parallel)/jit(main)/jvp(FlaxGPTForLMModule)/transformers/encoder/layer/0/0/attention/self/convert_element_type[new_dtype=float32 weak_type=False]" source_file="/python3.9-env/lib/python3.9/site-packages/flax/linen/attention.py" source_line=107}
  %reduce.5 = f32[4,4,1024]{2,1,0} reduce(f32[4,4,1024,1024]{3,2,1,0} %convert.51, f32[] %constant.69), dimensions={3}, to_apply=%region_3.551, metadata={op_name="parallelize(train_step_shard_parallel)/jit(main)/jvp(FlaxGPTForLMModule)/transformers/encoder/layer/0/0/attention/self/reduce_sum[axes=(3,)]" source_file="/python3.9-env/lib/python3.9/site-packages/flax/linen/attention.py" source_line=107}
  %convert.52 = f16[4,4,1024]{2,1,0} convert(f32[4,4,1024]{2,1,0} %reduce.5), metadata={op_name="parallelize(train_step_shard_parallel)/jit(main)/jvp(FlaxGPTForLMModule)/transformers/encoder/layer/0/0/attention/self/convert_element_type[new_dtype=float16 weak_type=False]" source_file="/python3.9-env/lib/python3.9/site-packages/flax/linen/attention.py" source_line=107}
  %broadcast.447 = f16[4,4,1024,1024]{3,2,1,0} broadcast(f16[4,4,1024]{2,1,0} %convert.52), dimensions={0,1,2}, metadata={op_name="parallelize(train_step_shard_parallel)/jit(main)/jvp(FlaxGPTForLMModule)/transformers/encoder/layer/0/0/attention/self/div" source_file="/python3.9-env/lib/python3.9/site-packages/flax/linen/attention.py" source_line=107}
  %divide.103 = f16[4,4,1024,1024]{3,2,1,0} divide(f16[4,4,1024,1024]{3,2,1,0} %exponential.0, f16[4,4,1024,1024]{3,2,1,0} %broadcast.447), metadata={op_name="parallelize(train_step_shard_parallel)/jit(main)/jvp(FlaxGPTForLMModule)/transformers/encoder/layer/0/0/attention/self/div" source_file="/python3.9-env/lib/python3.9/site-packages/flax/linen/attention.py" source_line=107}
  %dot.218 = f16[4,4,32,1024]{3,2,1,0} dot(f16[4,4,32,1024]{2,1,3,0} %transpose.303, f16[4,4,1024,1024]{3,2,1,0} %divide.103), lhs_batch_dims={0,1}, lhs_contracting_dims={3}, rhs_batch_dims={0,1}, rhs_contracting_dims={3}, metadata={op_name="parallelize(train_step_shard_parallel)/jit(main)/jvp(FlaxGPTForLMModule)/transformers/encoder/layer/0/0/attention/self/dot_general[dimension_numbers=(((1,), (3,)), ((0, 2), (0, 1))) precision=None preferred_element_type=None]" source_file="/code/alpa/alpa/model/bert_model.py" source_line=206}
  %transpose.306 = f16[4,1024,4,32]{1,3,2,0} transpose(f16[4,4,32,1024]{3,2,1,0} %dot.218), dimensions={0,3,1,2}, metadata={op_name="parallelize(train_step_shard_parallel)/jit(main)/jvp(FlaxGPTForLMModule)/transformers/encoder/layer/0/0/attention/self/transpose[permutation=(0, 3, 1, 2)]" source_file="/code/alpa/alpa/model/bert_model.py" source_line=206}
  %reshape.1507 = f16[4096,128]{1,0} reshape(f16[4,1024,4,32]{1,3,2,0} %transpose.306)
  %param.14 = f32[128,1024]{1,0} parameter(9), sharding={devices=[8,1,2]0,8,1,9,2,10,3,11,4,12,5,13,6,14,7,15 last_tile_dim_replicate}
  %convert.53 = f16[128,1024]{1,0} convert(f32[128,1024]{1,0} %param.14), metadata={op_name="parallelize(train_step_shard_parallel)/jit(main)/jvp(FlaxGPTForLMModule)/transformers/encoder/layer/0/0/attention/output/dense/convert_element_type[new_dtype=float16 weak_type=False]" source_file="/python3.9-env/lib/python3.9/site-packages/flax/linen/dtypes.py" source_line=97}
  %dot.219 = f16[4096,1024]{1,0} dot(f16[4096,128]{1,0} %reshape.1507, f16[128,1024]{1,0} %convert.53), lhs_contracting_dims={1}, rhs_contracting_dims={0}, metadata={op_name="parallelize(train_step_shard_parallel)/jit(main)/jvp(FlaxGPTForLMModule)/transformers/encoder/layer/0/0/attention/output/dense/dot_general[dimension_numbers=(((2,), (0,)), ((), ())) precision=None preferred_element_type=None]" source_file="/python3.9-env/lib/python3.9/site-packages/flax/linen/linear.py" source_line=196}
  %all-reduce.4 = f16[4096,1024]{1,0} all-reduce(f16[4096,1024]{1,0} %dot.219), channel_id=5, replica_groups={{0,1,2,3,4,5,6,7},{8,9,10,11,12,13,14,15}}, use_global_device_ids=true, to_apply=%add.2, sharding={devices=[2,1,8]0,1,2,3,4,5,6,7,8,9,10,11,12,13,14,15 last_tile_dim_replicate}, metadata={op_name="parallelize(train_step_shard_parallel)/jit(main)/jvp(FlaxGPTForLMModule)/transformers/encoder/layer/0/0/attention/output/dense/dot_general[dimension_numbers=(((2,), (0,)), ((), ())) precision=None preferred_element_type=None]" source_file="/python3.9-env/lib/python3.9/site-packages/flax/linen/linear.py" source_line=196}
  %reshape.1509 = f16[4,1024,1024]{2,1,0} reshape(f16[4096,1024]{1,0} %all-reduce.4), metadata={op_name="parallelize(train_step_shard_parallel)/jit(main)/jvp(FlaxGPTForLMModule)/transformers/encoder/layer/0/0/attention/output/dense/dot_general[dimension_numbers=(((2,), (0,)), ((), ())) precision=None preferred_element_type=None]" source_file="/python3.9-env/lib/python3.9/site-packages/flax/linen/linear.py" source_line=196}
  %param.15 = f32[1024]{0} parameter(8), sharding={replicated}
  %convert.54 = f16[1024]{0} convert(f32[1024]{0} %param.15), metadata={op_name="parallelize(train_step_shard_parallel)/jit(main)/jvp(FlaxGPTForLMModule)/transformers/encoder/layer/0/0/attention/output/dense/convert_element_type[new_dtype=float16 weak_type=False]" source_file="/python3.9-env/lib/python3.9/site-packages/flax/linen/dtypes.py" source_line=97}
  %broadcast.947 = f16[4,1024,1024]{2,1,0} broadcast(f16[1024]{0} %convert.54), dimensions={2}
  %add.100 = f16[4,1024,1024]{2,1,0} add(f16[4,1024,1024]{2,1,0} %reshape.1509, f16[4,1024,1024]{2,1,0} %broadcast.947), metadata={op_name="parallelize(train_step_shard_parallel)/jit(main)/jvp(FlaxGPTForLMModule)/transformers/encoder/layer/0/0/attention/output/dense/add" source_file="/python3.9-env/lib/python3.9/site-packages/flax/linen/linear.py" source_line=200}
…
  %sqrt.69 = f32[384]{0} sqrt(f32[384]{0} %divide.388), metadata={op_name="parallelize(train_step_shard_parallel)/jit(main)/sqrt" source_file="/python3.9-env/lib/python3.9/site-packages/optax/_src/transform.py" source_line=340}
  %add.802 = f32[384]{0} add(f32[384]{0} %sqrt.69, f32[384]{0} %broadcast.1164), metadata={op_name="parallelize(train_step_shard_parallel)/jit(main)/add" source_file="/python3.9-env/lib/python3.9/site-packages/optax/_src/transform.py" source_line=340}
  %multiply.1288 = f32[384]{0} multiply(f32[384]{0} %broadcast.875, f32[384]{0} %add.802)
  %divide.389 = f32[384]{0} divide(f32[384]{0} %add.800, f32[384]{0} %multiply.1288), metadata={op_name="parallelize(train_step_shard_parallel)/jit(main)/div" source_file="/python3.9-env/lib/python3.9/site-packages/optax/_src/transform.py" source_line=340}
  %multiply.1289 = f32[384]{0} multiply(f32[384]{0} %divide.389, f32[384]{0} %broadcast.1165), metadata={op_name="parallelize(train_step_shard_parallel)/jit(main)/mul" source_file="/python3.9-env/lib/python3.9/site-packages/optax/_src/transform.py" source_line=405}
  %add.803 = f32[384]{0} add(f32[384]{0} %param.73, f32[384]{0} %multiply.1289), metadata={op_name="parallelize(train_step_shard_parallel)/jit(main)/add" source_file="/python3.9-env/lib/python3.9/site-packages/optax/_src/update.py" source_line=43}
  %transpose.411 = f16[384,4,1024]{0,2,1} transpose(f16[4,1024,384]{2,1,0} %reshape.2858), dimensions={2,0,1}
  %reshape.2859 = f16[384,4096]{1,0} reshape(f16[384,4,1024]{0,2,1} %transpose.411)
  %dot.362 = f16[1024,384]{1,0} dot(f16[4096,1024]{1,0} %reshape.1859, f16[384,4096]{1,0} %reshape.2859), lhs_contracting_dims={0}, rhs_contracting_dims={1}, metadata={op_name="parallelize(train_step_shard_parallel)/jit(main)/transpose(jvp(FlaxGPTForLMModule))/transformers/encoder/layer/5/remat(core_fn)/5/attention/self/qvk_combined/transpose[permutation=(1, 0)]" source_file="/python3.9-env/lib/python3.9/site-packages/flax/linen/linear.py" source_line=196}
  %all-reduce.114 = f16[1024,384]{1,0} all-reduce(f16[1024,384]{1,0} %dot.362), channel_id=115, replica_groups={{0,8},{1,9},{2,10},{3,11},{4,12},{5,13},{6,14},{7,15}}, use_global_device_ids=true, to_apply=%add.63, sharding={devices=[1,8,2]0,8,1,9,2,10,3,11,4,12,5,13,6,14,7,15 last_tile_dim_replicate}, metadata={op_name="parallelize(train_step_shard_parallel)/jit(main)/transpose(jvp(FlaxGPTForLMModule))/transformers/encoder/layer/5/remat(core_fn)/5/attention/self/qvk_combined/transpose[permutation=(1, 0)]" source_file="/python3.9-env/lib/python3.9/site-packages/flax/linen/linear.py" source_line=196}
  %convert.327 = f32[1024,384]{0,1} convert(f16[1024,384]{1,0} %all-reduce.114), metadata={op_name="parallelize(train_step_shard_parallel)/jit(main)/transpose(jvp(FlaxGPTForLMModule))/transformers/encoder/layer/5/remat(core_fn)/5/attention/self/qvk_combined/convert_element_type[new_dtype=float32 weak_type=False]" source_file="/python3.9-env/lib/python3.9/site-packages/flax/linen/dtypes.py" source_line=97}
  %multiply.1290 = f32[1024,384]{0,1} multiply(f32[1024,384]{0,1} %convert.327, f32[1024,384]{1,0} %broadcast.1166), metadata={op_name="parallelize(train_step_shard_parallel)/jit(main)/mul" source_file="/python3.9-env/lib/python3.9/site-packages/optax/_src/transform.py" source_line=84}
  %param.225 = f32[1024,384]{1,0} parameter(149), sharding={devices=[1,8,2]0,8,1,9,2,10,3,11,4,12,5,13,6,14,7,15 last_tile_dim_replicate}
  %multiply.1291 = f32[1024,384]{1,0} multiply(f32[1024,384]{1,0} %param.225, f32[1024,384]{1,0} %broadcast.1167), metadata={op_name="parallelize(train_step_shard_parallel)/jit(main)/mul" source_file="/python3.9-env/lib/python3.9/site-packages/optax/_src/transform.py" source_line=84}
  %add.804 = f32[1024,384]{0,1} add(f32[1024,384]{0,1} %multiply.1290, f32[1024,384]{1,0} %multiply.1291), metadata={op_name="parallelize(train_step_shard_parallel)/jit(main)/add" source_file="/python3.9-env/lib/python3.9/site-packages/optax/_src/transform.py" source_line=84}
  %multiply.1292 = f32[1024,384]{0,1} multiply(f32[1024,384]{0,1} %convert.327, f32[1024,384]{0,1} %convert.327), metadata={op_name="parallelize(train_step_shard_parallel)/jit(main)/mul" source_file="/python3.9-env/lib/python3.9/site-packages/optax/_src/transform.py" source_line=98}
  %multiply.1293 = f32[1024,384]{0,1} multiply(f32[1024,384]{0,1} %multiply.1292, f32[1024,384]{1,0} %broadcast.1168), metadata={op_name="parallelize(train_step_shard_parallel)/jit(main)/mul" source_file="/python3.9-env/lib/python3.9/site-packages/optax/_src/transform.py" source_line=107}
  %param.226 = f32[1024,384]{1,0} parameter(226), sharding={devices=[1,8,2]0,8,1,9,2,10,3,11,4,12,5,13,6,14,7,15 last_tile_dim_replicate}
  %multiply.1294 = f32[1024,384]{1,0} multiply(f32[1024,384]{1,0} %param.226, f32[1024,384]{1,0} %broadcast.1169), metadata={op_name="parallelize(train_step_shard_parallel)/jit(main)/mul" source_file="/python3.9-env/lib/python3.9/site-packages/optax/_src/transform.py" source_line=107}
  %add.806 = f32[1024,384]{0,1} add(f32[1024,384]{0,1} %multiply.1293, f32[1024,384]{1,0} %multiply.1294), metadata={op_name="parallelize(train_step_shard_parallel)/jit(main)/add" source_file="/python3.9-env/lib/python3.9/site-packages/optax/_src/transform.py" source_line=107}
  %divide.390 = f32[1024,384]{0,1} divide(f32[1024,384]{0,1} %add.806, f32[1024,384]{1,0} %broadcast.889), metadata={op_name="parallelize(train_step_shard_parallel)/jit(main)/div" source_file="/python3.9-env/lib/python3.9/site-packages/optax/_src/transform.py" source_line=114}
  %sqrt.70 = f32[1024,384]{0,1} sqrt(f32[1024,384]{0,1} %divide.390), metadata={op_name="parallelize(train_step_shard_parallel)/jit(main)/sqrt" source_file="/python3.9-env/lib/python3.9/site-packages/optax/_src/transform.py" source_line=340}
  %add.807 = f32[1024,384]{0,1} add(f32[1024,384]{0,1} %sqrt.70, f32[1024,384]{1,0} %broadcast.1170), metadata={op_name="parallelize(train_step_shard_parallel)/jit(main)/add" source_file="/python3.9-env/lib/python3.9/site-packages/optax/_src/transform.py" source_line=340}
  %multiply.1295 = f32[1024,384]{1,0} multiply(f32[1024,384]{1,0} %broadcast.883, f32[1024,384]{0,1} %add.807)
  %divide.391 = f32[1024,384]{0,1} divide(f32[1024,384]{0,1} %add.804, f32[1024,384]{1,0} %multiply.1295), metadata={op_name="parallelize(train_step_shard_parallel)/jit(main)/div" source_file="/python3.9-env/lib/python3.9/site-packages/optax/_src/transform.py" source_line=340}
  %multiply.1296 = f32[1024,384]{1,0} multiply(f32[1024,384]{1,0} %param.72, f32[1024,384]{1,0} %broadcast.1171), metadata={op_name="parallelize(train_step_shard_parallel)/jit(main)/mul" source_file="/python3.9-env/lib/python3.9/site-packages/optax/_src/transform.py" source_line=657}
  %add.808 = f32[1024,384]{0,1} add(f32[1024,384]{0,1} %divide.391, f32[1024,384]{1,0} %multiply.1296), metadata={op_name="parallelize(train_step_shard_parallel)/jit(main)/add" source_file="/python3.9-env/lib/python3.9/site-packages/optax/_src/transform.py" source_line=657}
  %multiply.1297 = f32[1024,384]{0,1} multiply(f32[1024,384]{0,1} %add.808, f32[1024,384]{1,0} %broadcast.1172), metadata={op_name="parallelize(train_step_shard_parallel)/jit(main)/mul" source_file="/python3.9-env/lib/python3.9/site-packages/optax/_src/transform.py" source_line=405}
  %add.809 = f32[1024,384]{1,0} add(f32[1024,384]{1,0} %param.72, f32[1024,384]{0,1} %multiply.1297), metadata={op_name="parallelize(train_step_shard_parallel)/jit(main)/add" source_file="/python3.9-env/lib/python3.9/site-packages/optax/_src/update.py" source_line=43}
  %reduce.157 = f16[512]{0} reduce(f16[4,1024,512]{2,1,0} %add.275, f16[] %constant.89), dimensions={0,1}, to_apply=%region_56.2083, metadata={op_name="parallelize(train_step_shard_parallel)/jit(main)/transpose(jvp(FlaxGPTForLMModule))/transformers/encoder/layer/5/remat(core_fn)/5/intermediate/dense/reduce_sum[axes=(0, 1)]" source_file="/python3.9-env/lib/python3.9/site-packages/flax/linen/linear.py" source_line=200}
  %all-reduce.115 = f16[512]{0} all-reduce(f16[512]{0} %reduce.157), channel_id=116, replica_groups={{0,8},{1,9},{2,10},{3,11},{4,12},{5,13},{6,14},{7,15}}, use_global_device_ids=true, to_apply=%region_56.2083, sharding={devices=[8,2]0,8,1,9,2,10,3,11,4,12,5,13,6,14,7,15 last_tile_dim_replicate}, metadata={op_name="parallelize(train_step_shard_parallel)/jit(main)/transpose(jvp(FlaxGPTForLMModule))/transformers/encoder/layer/5/remat(core_fn)/5/intermediate/dense/reduce_sum[axes=(0, 1)]" source_file="/python3.9-env/lib/python3.9/site-packages/flax/linen/linear.py" source_line=200}
  %convert.328 = f32[512]{0} convert(f16[512]{0} %all-reduce.115), metadata={op_name="parallelize(train_step_shard_parallel)/jit(main)/transpose(jvp(FlaxGPTForLMModule))/transformers/encoder/layer/5/remat(core_fn)/5/intermediate/dense/convert_element_type[new_dtype=float32 weak_type=False]" source_file="/python3.9-env/lib/python3.9/site-packages/flax/linen/dtypes.py" source_line=97}
  %multiply.1298 = f32[512]{0} multiply(f32[512]{0} %convert.328, f32[512]{0} %broadcast.1173), metadata={op_name="parallelize(train_step_shard_parallel)/jit(main)/mul" source_file="/python3.9-env/lib/python3.9/site-packages/optax/_src/transform.py" source_line=84}
  %param.227 = f32[512]{0} parameter(150), sharding={devices=[8,2]0,8,1,9,2,10,3,11,4,12,5,13,6,14,7,15 last_tile_dim_replicate}
  %multiply.1299 = f32[512]{0} multiply(f32[512]{0} %param.227, f32[512]{0} %broadcast.1174), metadata={op_name="parallelize(train_step_shard_parallel)/jit(main)/mul" source_file="/python3.9-env/lib/python3.9/site-packages/optax/_src/transform.py" source_line=84}
  %add.810 = f32[512]{0} add(f32[512]{0} %multiply.1298, f32[512]{0} %multiply.1299), metadata={op_name="parallelize(train_step_shard_parallel)/jit(main)/add" source_file="/python3.9-env/lib/python3.9/site-packages/optax/_src/transform.py" source_line=84}
  %multiply.1300 = f32[512]{0} multiply(f32[512]{0} %convert.328, f32[512]{0} %convert.328), metadata={op_name="parallelize(train_step_shard_parallel)/jit(main)/mul" source_file="/python3.9-env/lib/python3.9/site-packages/optax/_src/transform.py" source_line=98}
  %multiply.1301 = f32[512]{0} multiply(f32[512]{0} %multiply.1300, f32[512]{0} %broadcast.1175), metadata={op_name="parallelize(train_step_shard_parallel)/jit(main)/mul" source_file="/python3.9-env/lib/python3.9/site-packages/optax/_src/transform.py" source_line=107}
  %param.228 = f32[512]{0} parameter(227), sharding={devices=[8,2]0,8,1,9,2,10,3,11,4,12,5,13,6,14,7,15 last_tile_dim_replicate}
  %multiply.1302 = f32[512]{0} multiply(f32[512]{0} %param.228, f32[512]{0} %broadcast.1176), metadata={op_name="parallelize(train_step_shard_parallel)/jit(main)/mul" source_file="/python3.9-env/lib/python3.9/site-packages/optax/_src/transform.py" source_line=107}
  %add.811 = f32[512]{0} add(f32[512]{0} %multiply.1301, f32[512]{0} %multiply.1302), metadata={op_name="parallelize(train_step_shard_parallel)/jit(main)/add" source_file="/python3.9-env/lib/python3.9/site-packages/optax/_src/transform.py" source_line=107}
  %divide.392 = f32[512]{0} divide(f32[512]{0} %add.811, f32[512]{0} %broadcast.901), metadata={op_name="parallelize(train_step_shard_parallel)/jit(main)/div" source_file="/python3.9-env/lib/python3.9/site-packages/optax/_src/transform.py" source_line=114}
  %sqrt.71 = f32[512]{0} sqrt(f32[512]{0} %divide.392), metadata={op_name="parallelize(train_step_shard_parallel)/jit(main)/sqrt" source_file="/python3.9-env/lib/python3.9/site-packages/optax/_src/transform.py" source_line=340}
  %add.812 = f32[512]{0} add(f32[512]{0} %sqrt.71, f32[512]{0} %broadcast.1178), metadata={op_name="parallelize(train_step_shard_parallel)/jit(main)/add" source_file="/python3.9-env/lib/python3.9/site-packages/optax/_src/transform.py" source_line=340}
  %multiply.1303 = f32[512]{0} multiply(f32[512]{0} %broadcast.898, f32[512]{0} %add.812)
  %divide.393 = f32[512]{0} divide(f32[512]{0} %add.810, f32[512]{0} %multiply.1303), metadata={op_name="parallelize(train_step_shard_parallel)/jit(main)/div" source_file="/python3.9-env/lib/python3.9/site-packages/optax/_src/transform.py" source_line=340}
  %multiply.1304 = f32[512]{0} multiply(f32[512]{0} %divide.393, f32[512]{0} %broadcast.1181), metadata={op_name="parallelize(train_step_shard_parallel)/jit(main)/mul" source_file="/python3.9-env/lib/python3.9/site-packages/optax/_src/transform.py" source_line=405}
  %add.813 = f32[512]{0} add(f32[512]{0} %param.79, f32[512]{0} %multiply.1304), metadata={op_name="parallelize(train_step_shard_parallel)/jit(main)/add" source_file="/python3.9-env/lib/python3.9/site-packages/optax/_src/update.py" source_line=43}
  %transpose.412 = f16[512,4,1024]{0,2,1} transpose(f16[4,1024,512]{2,1,0} %add.275), dimensions={2,0,1}
  %reshape.2861 = f16[512,4096]{1,0} reshape(f16[512,4,1024]{0,2,1} %transpose.412)
  %dot.363 = f16[1024,512]{1,0} dot(f16[4096,1024]{1,0} %reshape.1911, f16[512,4096]{1,0} %reshape.2861), lhs_contracting_dims={0}, rhs_contracting_dims={1}, metadata={op_name="parallelize(train_step_shard_parallel)/jit(main)/transpose(jvp(FlaxGPTForLMModule))/transformers/encoder/layer/5/remat(core_fn)/5/intermediate/dense/transpose[permutation=(1, 0)]" source_file="/python3.9-env/lib/python3.9/site-packages/flax/linen/linear.py" source_line=196}
  %all-reduce.116 = f16[1024,512]{1,0} all-reduce(f16[1024,512]{1,0} %dot.363), channel_id=117, replica_groups={{0,8},{1,9},{2,10},{3,11},{4,12},{5,13},{6,14},{7,15}}, use_global_device_ids=true, to_apply=%add.64, sharding={devices=[1,8,2]0,8,1,9,2,10,3,11,4,12,5,13,6,14,7,15 last_tile_dim_replicate}, metadata={op_name="parallelize(train_step_shard_parallel)/jit(main)/transpose(jvp(FlaxGPTForLMModule))/transformers/encoder/layer/5/remat(core_fn)/5/intermediate/dense/transpose[permutation=(1, 0)]" source_file="/python3.9-env/lib/python3.9/site-packages/flax/linen/linear.py" source_line=196}
  %convert.329 = f32[1024,512]{0,1} convert(f16[1024,512]{1,0} %all-reduce.116), metadata={op_name="parallelize(train_step_shard_parallel)/jit(main)/transpose(jvp(FlaxGPTForLMModule))/transformers/encoder/layer/5/remat(core_fn)/5/intermediate/dense/convert_element_type[new_dtype=float32 weak_type=False]" source_file="/python3.9-env/lib/python3.9/site-packages/flax/linen/dtypes.py" source_line=97}
  %multiply.1305 = f32[1024,512]{0,1} multiply(f32[1024,512]{0,1} %convert.329, f32[1024,512]{1,0} %broadcast.1183), metadata={op_name="parallelize(train_step_shard_parallel)/jit(main)/mul" source_file="/python3.9-env/lib/python3.9/site-packages/optax/_src/transform.py" source_line=84}
  %param.229 = f32[1024,512]{1,0} parameter(151), sharding={devices=[1,8,2]0,8,1,9,2,10,3,11,4,12,5,13,6,14,7,15 last_tile_dim_replicate}
  %multiply.1306 = f32[1024,512]{1,0} multiply(f32[1024,512]{1,0} %param.229, f32[1024,512]{1,0} %broadcast.1184), metadata={op_name="parallelize(train_step_shard_parallel)/jit(main)/mul" source_file="/python3.9-env/lib/python3.9/site-packages/optax/_src/transform.py" source_line=84}
  %add.815 = f32[1024,512]{0,1} add(f32[1024,512]{0,1} %multiply.1305, f32[1024,512]{1,0} %multiply.1306), metadata={op_name="parallelize(train_step_shard_parallel)/jit(main)/add" source_file="/python3.9-env/lib/python3.9/site-packages/optax/_src/transform.py" source_line=84}
  %multiply.1307 = f32[1024,512]{0,1} multiply(f32[1024,512]{0,1} %convert.329, f32[1024,512]{0,1} %convert.329), metadata={op_name="parallelize(train_step_shard_parallel)/jit(main)/mul" source_file="/python3.9-env/lib/python3.9/site-packages/optax/_src/transform.py" source_line=98}
  %multiply.1308 = f32[1024,512]{0,1} multiply(f32[1024,512]{0,1} %multiply.1307, f32[1024,512]{1,0} %broadcast.1185), metadata={op_name="parallelize(train_step_shard_parallel)/jit(main)/mul" source_file="/python3.9-env/lib/python3.9/site-packages/optax/_src/transform.py" source_line=107}
  %param.230 = f32[1024,512]{1,0} parameter(228), sharding={devices=[1,8,2]0,8,1,9,2,10,3,11,4,12,5,13,6,14,7,15 last_tile_dim_replicate}
  %multiply.1309 = f32[1024,512]{1,0} multiply(f32[1024,512]{1,0} %param.230, f32[1024,512]{1,0} %broadcast.1187), metadata={op_name="parallelize(train_step_shard_parallel)/jit(main)/mul" source_file="/python3.9-env/lib/python3.9/site-packages/optax/_src/transform.py" source_line=107}
  %add.816 = f32[1024,512]{0,1} add(f32[1024,512]{0,1} %multiply.1308, f32[1024,512]{1,0} %multiply.1309), metadata={op_name="parallelize(train_step_shard_parallel)/jit(main)/add" source_file="/python3.9-env/lib/python3.9/site-packages/optax/_src/transform.py" source_line=107}
  %divide.394 = f32[1024,512]{0,1} divide(f32[1024,512]{0,1} %add.816, f32[1024,512]{1,0} %broadcast.911), metadata={op_name="parallelize(train_step_shard_parallel)/jit(main)/div" source_file="/python3.9-env/lib/python3.9/site-packages/optax/_src/transform.py" source_line=114}
  %sqrt.72 = f32[1024,512]{0,1} sqrt(f32[1024,512]{0,1} %divide.394), metadata={op_name="parallelize(train_step_shard_parallel)/jit(main)/sqrt" source_file="/python3.9-env/lib/python3.9/site-packages/optax/_src/transform.py" source_line=340}
  %add.817 = f32[1024,512]{0,1} add(f32[1024,512]{0,1} %sqrt.72, f32[1024,512]{1,0} %broadcast.1189), metadata={op_name="parallelize(train_step_shard_parallel)/jit(main)/add" source_file="/python3.9-env/lib/python3.9/site-packages/optax/_src/transform.py" source_line=340}
  %multiply.1310 = f32[1024,512]{1,0} multiply(f32[1024,512]{1,0} %broadcast.908, f32[1024,512]{0,1} %add.817)
  %divide.395 = f32[1024,512]{0,1} divide(f32[1024,512]{0,1} %add.815, f32[1024,512]{1,0} %multiply.1310), metadata={op_name="parallelize(train_step_shard_parallel)/jit(main)/div" source_file="/python3.9-env/lib/python3.9/site-packages/optax/_src/transform.py" source_line=340}
  %multiply.1311 = f32[1024,512]{1,0} multiply(f32[1024,512]{1,0} %param.78, f32[1024,512]{1,0} %broadcast.1190), metadata={op_name="parallelize(train_step_shard_parallel)/jit(main)/mul" source_file="/python3.9-env/lib/python3.9/site-packages/optax/_src/transform.py" source_line=657}
  %add.818 = f32[1024,512]{0,1} add(f32[1024,512]{0,1} %divide.395, f32[1024,512]{1,0} %multiply.1311), metadata={op_name="parallelize(train_step_shard_parallel)/jit(main)/add" source_file="/python3.9-env/lib/python3.9/site-packages/optax/_src/transform.py" source_line=657}
  %multiply.1312 = f32[1024,512]{0,1} multiply(f32[1024,512]{0,1} %add.818, f32[1024,512]{1,0} %broadcast.1191), metadata={op_name="parallelize(train_step_shard_parallel)/jit(main)/mul" source_file="/python3.9-env/lib/python3.9/site-packages/optax/_src/transform.py" source_line=405}
  %add.819 = f32[1024,512]{1,0} add(f32[1024,512]{1,0} %param.78, f32[1024,512]{0,1} %multiply.1312), metadata={op_name="parallelize(train_step_shard_parallel)/jit(main)/add" source_file="/python3.9-env/lib/python3.9/site-packages/optax/_src/update.py" source_line=43}
  %reduce.158 = f32[1024]{0} reduce(f32[4,1024,1024]{2,1,0} %convert.165, f32[] %constant.69), dimensions={0,1}, to_apply=%region_51.2015, metadata={op_name="parallelize(train_step_shard_parallel)/jit(main)/transpose(jvp(FlaxGPTForLMModule))/transformers/encoder/layer/5/remat(core_fn)/5/output/LayerNorm/reduce_sum[axes=(0, 1)]" source_file="/python3.9-env/lib/python3.9/site-packages/flax/linen/normalization.py" source_line=150}
  %all-reduce.117 = f32[1024]{0} all-reduce(f32[1024]{0} %reduce.158), channel_id=118, replica_groups={{0,8},{1,9},{2,10},{3,11},{4,12},{5,13},{6,14},{7,15}}, use_global_device_ids=true, to_apply=%region_51.2015, sharding={replicated}, metadata={op_name="parallelize(train_step_shard_parallel)/jit(main)/transpose(jvp(FlaxGPTForLMModule))/transformers/encoder/layer/5/remat(core_fn)/5/output/LayerNorm/reduce_sum[axes=(0, 1)]" source_file="/python3.9-env/lib/python3.9/site-packages/flax/linen/normalization.py" source_line=150}
  %multiply.1313 = f32[1024]{0} multiply(f32[1024]{0} %all-reduce.117, f32[1024]{0} %broadcast.836), metadata={op_name="parallelize(train_step_shard_parallel)/jit(main)/mul" source_file="/python3.9-env/lib/python3.9/site-packages/optax/_src/transform.py" source_line=84}
  %param.231 = f32[1024]{0} parameter(152), sharding={replicated}
  %multiply.1314 = f32[1024]{0} multiply(f32[1024]{0} %param.231, f32[1024]{0} %broadcast.837), metadata={op_name="parallelize(train_step_shard_parallel)/jit(main)/mul" source_file="/python3.9-env/lib/python3.9/site-packages/optax/_src/transform.py" source_line=84}
  %add.821 = f32[1024]{0} add(f32[1024]{0} %multiply.1313, f32[1024]{0} %multiply.1314), metadata={op_name="parallelize(train_step_shard_parallel)/jit(main)/add" source_file="/python3.9-env/lib/python3.9/site-packages/optax/_src/transform.py" source_line=84}
  %multiply.1315 = f32[1024]{0} multiply(f32[1024]{0} %all-reduce.117, f32[1024]{0} %all-reduce.117), metadata={op_name="parallelize(train_step_shard_parallel)/jit(main)/mul" source_file="/python3.9-env/lib/python3.9/site-packages/optax/_src/transform.py" source_line=98}
  %multiply.1316 = f32[1024]{0} multiply(f32[1024]{0} %multiply.1315, f32[1024]{0} %broadcast.839), metadata={op_name="parallelize(train_step_shard_parallel)/jit(main)/mul" source_file="/python3.9-env/lib/python3.9/site-packages/optax/_src/transform.py" source_line=107}
  %param.232 = f32[1024]{0} parameter(229), sharding={replicated}
  %multiply.1317 = f32[1024]{0} multiply(f32[1024]{0} %param.232, f32[1024]{0} %broadcast.840), metadata={op_name="parallelize(train_step_shard_parallel)/jit(main)/mul" source_file="/python3.9-env/lib/python3.9/site-packages/optax/_src/transform.py" source_line=107}
  %add.823 = f32[1024]{0} add(f32[1024]{0} %multiply.1316, f32[1024]{0} %multiply.1317), metadata={op_name="parallelize(train_step_shard_parallel)/jit(main)/add" source_file="/python3.9-env/lib/python3.9/site-packages/optax/_src/transform.py" source_line=107}
  %divide.396 = f32[1024]{0} divide(f32[1024]{0} %add.823, f32[1024]{0} %broadcast.841), metadata={op_name="parallelize(train_step_shard_parallel)/jit(main)/div" source_file="/python3.9-env/lib/python3.9/site-packages/optax/_src/transform.py" source_line=114}
  %sqrt.73 = f32[1024]{0} sqrt(f32[1024]{0} %divide.396), metadata={op_name="parallelize(train_step_shard_parallel)/jit(main)/sqrt" source_file="/python3.9-env/lib/python3.9/site-packages/optax/_src/transform.py" source_line=340}
  %add.825 = f32[1024]{0} add(f32[1024]{0} %sqrt.73, f32[1024]{0} %broadcast.842), metadata={op_name="parallelize(train_step_shard_parallel)/jit(main)/add" source_file="/python3.9-env/lib/python3.9/site-packages/optax/_src/transform.py" source_line=340}
  %multiply.1318 = f32[1024]{0} multiply(f32[1024]{0} %broadcast.838, f32[1024]{0} %add.825)
  %divide.397 = f32[1024]{0} divide(f32[1024]{0} %add.821, f32[1024]{0} %multiply.1318), metadata={op_name="parallelize(train_step_shard_parallel)/jit(main)/div" source_file="/python3.9-env/lib/python3.9/site-packages/optax/_src/transform.py" source_line=340}
  %multiply.1319 = f32[1024]{0} multiply(f32[1024]{0} %divide.397, f32[1024]{0} %broadcast.843), metadata={op_name="parallelize(train_step_shard_parallel)/jit(main)/mul" source_file="/python3.9-env/lib/python3.9/site-packages/optax/_src/transform.py" source_line=405}
  %add.827 = f32[1024]{0} add(f32[1024]{0} %param.83, f32[1024]{0} %multiply.1319), metadata={op_name="parallelize(train_step_shard_parallel)/jit(main)/add" source_file="/python3.9-env/lib/python3.9/site-packages/optax/_src/update.py" source_line=43}
  %multiply.1320 = f32[4,1024,1024]{2,1,0} multiply(f32[4,1024,1024]{2,1,0} %broadcast.620, f32[4,1024,1024]{2,1,0} %multiply.380), metadata={op_name="parallelize(train_step_shard_parallel)/jit(main)/transpose(jvp(FlaxGPTForLMModule))/transformers/encoder/layer/5/remat(core_fn)/5/output/LayerNorm/mul" source_file="/python3.9-env/lib/python3.9/site-packages/flax/linen/normalization.py" source_line=144}
  %reduce.159 = f32[1024]{0} reduce(f32[4,1024,1024]{2,1,0} %multiply.1320, f32[] %constant.69), dimensions={0,1}, to_apply=%region_52.2025, metadata={op_name="parallelize(train_step_shard_parallel)/jit(main)/transpose(jvp(FlaxGPTForLMModule))/transformers/encoder/layer/5/remat(core_fn)/5/output/LayerNorm/reduce_sum[axes=(0, 1)]" source_file="/python3.9-env/lib/python3.9/site-packages/flax/linen/normalization.py" source_line=144}
  %all-reduce.118 = f32[1024]{0} all-reduce(f32[1024]{0} %reduce.159), channel_id=119, replica_groups={{0,8},{1,9},{2,10},{3,11},{4,12},{5,13},{6,14},{7,15}}, use_global_device_ids=true, to_apply=%region_52.2025, sharding={replicated}, metadata={op_name="parallelize(train_step_shard_parallel)/jit(main)/transpose(jvp(FlaxGPTForLMModule))/transformers/encoder/layer/5/remat(core_fn)/5/output/LayerNorm/reduce_sum[axes=(0, 1)]" source_file="/python3.9-env/lib/python3.9/site-packages/flax/linen/normalization.py" source_line=144}
  %multiply.1321 = f32[1024]{0} multiply(f32[1024]{0} %all-reduce.118, f32[1024]{0} %broadcast.836), metadata={op_name="parallelize(train_step_shard_parallel)/jit(main)/mul" source_file="/python3.9-env/lib/python3.9/site-packages/optax/_src/transform.py" source_line=84}
  %param.233 = f32[1024]{0} parameter(153), sharding={replicated}
  %multiply.1322 = f32[1024]{0} multiply(f32[1024]{0} %param.233, f32[1024]{0} %broadcast.837), metadata={op_name="parallelize(train_step_shard_parallel)/jit(main)/mul" source_file="/python3.9-env/lib/python3.9/site-packages/optax/_src/transform.py" source_line=84}
  %add.829 = f32[1024]{0} add(f32[1024]{0} %multiply.1321, f32[1024]{0} %multiply.1322), metadata={op_name="parallelize(train_step_shard_parallel)/jit(main)/add" source_file="/python3.9-env/lib/python3.9/site-packages/optax/_src/transform.py" source_line=84}
  %multiply.1323 = f32[1024]{0} multiply(f32[1024]{0} %all-reduce.118, f32[1024]{0} %all-reduce.118), metadata={op_name="parallelize(train_step_shard_parallel)/jit(main)/mul" source_file="/python3.9-env/lib/python3.9/site-packages/optax/_src/transform.py" source_line=98}
  %multiply.1324 = f32[1024]{0} multiply(f32[1024]{0} %multiply.1323, f32[1024]{0} %broadcast.839), metadata={op_name="parallelize(train_step_shard_parallel)/jit(main)/mul" source_file="/python3.9-env/lib/python3.9/site-packages/optax/_src/transform.py" source_line=107}
  %param.234 = f32[1024]{0} parameter(230), sharding={replicated}
  %multiply.1325 = f32[1024]{0} multiply(f32[1024]{0} %param.234, f32[1024]{0} %broadcast.840), metadata={op_name="parallelize(train_step_shard_parallel)/jit(main)/mul" source_file="/python3.9-env/lib/python3.9/site-packages/optax/_src/transform.py" source_line=107}
  %add.831 = f32[1024]{0} add(f32[1024]{0} %multiply.1324, f32[1024]{0} %multiply.1325), metadata={op_name="parallelize(train_step_shard_parallel)/jit(main)/add" source_file="/python3.9-env/lib/python3.9/site-packages/optax/_src/transform.py" source_line=107}
  %divide.398 = f32[1024]{0} divide(f32[1024]{0} %add.831, f32[1024]{0} %broadcast.841), metadata={op_name="parallelize(train_step_shard_parallel)/jit(main)/div" source_file="/python3.9-env/lib/python3.9/site-packages/optax/_src/transform.py" source_line=114}
  %sqrt.74 = f32[1024]{0} sqrt(f32[1024]{0} %divide.398), metadata={op_name="parallelize(train_step_shard_parallel)/jit(main)/sqrt" source_file="/python3.9-env/lib/python3.9/site-packages/optax/_src/transform.py" source_line=340}
  %add.833 = f32[1024]{0} add(f32[1024]{0} %sqrt.74, f32[1024]{0} %broadcast.842), metadata={op_name="parallelize(train_step_shard_parallel)/jit(main)/add" source_file="/python3.9-env/lib/python3.9/site-packages/optax/_src/transform.py" source_line=340}
  %multiply.1326 = f32[1024]{0} multiply(f32[1024]{0} %broadcast.838, f32[1024]{0} %add.833)
  %divide.399 = f32[1024]{0} divide(f32[1024]{0} %add.829, f32[1024]{0} %multiply.1326), metadata={op_name="parallelize(train_step_shard_parallel)/jit(main)/div" source_file="/python3.9-env/lib/python3.9/site-packages/optax/_src/transform.py" source_line=340}
  %multiply.1327 = f32[1024]{0} multiply(f32[1024]{0} %divide.399, f32[1024]{0} %broadcast.843), metadata={op_name="parallelize(train_step_shard_parallel)/jit(main)/mul" source_file="/python3.9-env/lib/python3.9/site-packages/optax/_src/transform.py" source_line=405}
  %add.835 = f32[1024]{0} add(f32[1024]{0} %param.82, f32[1024]{0} %multiply.1327), metadata={op_name="parallelize(train_step_shard_parallel)/jit(main)/add" source_file="/python3.9-env/lib/python3.9/site-packages/optax/_src/update.py" source_line=43}
  %reduce.160 = f16[1024]{0} reduce(f16[4,1024,1024]{2,1,0} %add.274, f16[] %constant.89), dimensions={0,1}, to_apply=%region_55.2064, metadata={op_name="parallelize(train_step_shard_parallel)/jit(main)/transpose(jvp(FlaxGPTForLMModule))/transformers/encoder/layer/5/remat(core_fn)/5/output/dense/reduce_sum[axes=(0, 1)]" source_file="/python3.9-env/lib/python3.9/site-packages/flax/linen/linear.py" source_line=200}
  %all-reduce.119 = f16[1024]{0} all-reduce(f16[1024]{0} %reduce.160), channel_id=120, replica_groups={{0,8},{1,9},{2,10},{3,11},{4,12},{5,13},{6,14},{7,15}}, use_global_device_ids=true, to_apply=%region_55.2064, sharding={replicated}, metadata={op_name="parallelize(train_step_shard_parallel)/jit(main)/transpose(jvp(FlaxGPTForLMModule))/transformers/encoder/layer/5/remat(core_fn)/5/output/dense/reduce_sum[axes=(0, 1)]" source_file="/python3.9-env/lib/python3.9/site-packages/flax/linen/linear.py" source_line=200}
  %convert.330 = f32[1024]{0} convert(f16[1024]{0} %all-reduce.119), metadata={op_name="parallelize(train_step_shard_parallel)/jit(main)/transpose(jvp(FlaxGPTForLMModule))/transformers/encoder/layer/5/remat(core_fn)/5/output/dense/convert_element_type[new_dtype=float32 weak_type=False]" source_file="/python3.9-env/lib/python3.9/site-packages/flax/linen/dtypes.py" source_line=97}
  %multiply.1328 = f32[1024]{0} multiply(f32[1024]{0} %convert.330, f32[1024]{0} %broadcast.836), metadata={op_name="parallelize(train_step_shard_parallel)/jit(main)/mul" source_file="/python3.9-env/lib/python3.9/site-packages/optax/_src/transform.py" source_line=84}
  %param.235 = f32[1024]{0} parameter(154), sharding={replicated}
  %multiply.1329 = f32[1024]{0} multiply(f32[1024]{0} %param.235, f32[1024]{0} %broadcast.837), metadata={op_name="parallelize(train_step_shard_parallel)/jit(main)/mul" source_file="/python3.9-env/lib/python3.9/site-packages/optax/_src/transform.py" source_line=84}
  %add.837 = f32[1024]{0} add(f32[1024]{0} %multiply.1328, f32[1024]{0} %multiply.1329), metadata={op_name="parallelize(train_step_shard_parallel)/jit(main)/add" source_file="/python3.9-env/lib/python3.9/site-packages/optax/_src/transform.py" source_line=84}
  %multiply.1330 = f32[1024]{0} multiply(f32[1024]{0} %convert.330, f32[1024]{0} %convert.330), metadata={op_name="parallelize(train_step_shard_parallel)/jit(main)/mul" source_file="/python3.9-env/lib/python3.9/site-packages/optax/_src/transform.py" source_line=98}
  %multiply.1331 = f32[1024]{0} multiply(f32[1024]{0} %multiply.1330, f32[1024]{0} %broadcast.839), metadata={op_name="parallelize(train_step_shard_parallel)/jit(main)/mul" source_file="/python3.9-env/lib/python3.9/site-packages/optax/_src/transform.py" source_line=107}
  %param.236 = f32[1024]{0} parameter(231), sharding={replicated}
  %multiply.1332 = f32[1024]{0} multiply(f32[1024]{0} %param.236, f32[1024]{0} %broadcast.840), metadata={op_name="parallelize(train_step_shard_parallel)/jit(main)/mul" source_file="/python3.9-env/lib/python3.9/site-packages/optax/_src/transform.py" source_line=107}
  %add.839 = f32[1024]{0} add(f32[1024]{0} %multiply.1331, f32[1024]{0} %multiply.1332), metadata={op_name="parallelize(train_step_shard_parallel)/jit(main)/add" source_file="/python3.9-env/lib/python3.9/site-packages/optax/_src/transform.py" source_line=107}
  %divide.400 = f32[1024]{0} divide(f32[1024]{0} %add.839, f32[1024]{0} %broadcast.841), metadata={op_name="parallelize(train_step_shard_parallel)/jit(main)/div" source_file="/python3.9-env/lib/python3.9/site-packages/optax/_src/transform.py" source_line=114}
  %sqrt.75 = f32[1024]{0} sqrt(f32[1024]{0} %divide.400), metadata={op_name="parallelize(train_step_shard_parallel)/jit(main)/sqrt" source_file="/python3.9-env/lib/python3.9/site-packages/optax/_src/transform.py" source_line=340}
  %add.841 = f32[1024]{0} add(f32[1024]{0} %sqrt.75, f32[1024]{0} %broadcast.842), metadata={op_name="parallelize(train_step_shard_parallel)/jit(main)/add" source_file="/python3.9-env/lib/python3.9/site-packages/optax/_src/transform.py" source_line=340}
  %multiply.1333 = f32[1024]{0} multiply(f32[1024]{0} %broadcast.838, f32[1024]{0} %add.841)
  %divide.401 = f32[1024]{0} divide(f32[1024]{0} %add.837, f32[1024]{0} %multiply.1333), metadata={op_name="parallelize(train_step_shard_parallel)/jit(main)/div" source_file="/python3.9-env/lib/python3.9/site-packages/optax/_src/transform.py" source_line=340}
  %multiply.1334 = f32[1024]{0} multiply(f32[1024]{0} %divide.401, f32[1024]{0} %broadcast.843), metadata={op_name="parallelize(train_step_shard_parallel)/jit(main)/mul" source_file="/python3.9-env/lib/python3.9/site-packages/optax/_src/transform.py" source_line=405}
  %add.843 = f32[1024]{0} add(f32[1024]{0} %param.81, f32[1024]{0} %multiply.1334), metadata={op_name="parallelize(train_step_shard_parallel)/jit(main)/add" source_file="/python3.9-env/lib/python3.9/site-packages/optax/_src/update.py" source_line=43}
  %transpose.413 = f16[1024,4,1024]{0,2,1} transpose(f16[4,1024,1024]{2,1,0} %add.274), dimensions={2,0,1}
  %reshape.2864 = f16[1024,4096]{1,0} reshape(f16[1024,4,1024]{0,2,1} %transpose.413)
  %dot.364 = f16[512,1024]{1,0} dot(f16[4096,512]{1,0} %reshape.1930, f16[1024,4096]{1,0} %reshape.2864), lhs_contracting_dims={0}, rhs_contracting_dims={1}, metadata={op_name="parallelize(train_step_shard_parallel)/jit(main)/transpose(jvp(FlaxGPTForLMModule))/transformers/encoder/layer/5/remat(core_fn)/5/output/dense/transpose[permutation=(1, 0)]" source_file="/python3.9-env/lib/python3.9/site-packages/flax/linen/linear.py" source_line=196}
  %all-reduce.120 = f16[512,1024]{1,0} all-reduce(f16[512,1024]{1,0} %dot.364), channel_id=121, replica_groups={{0,8},{1,9},{2,10},{3,11},{4,12},{5,13},{6,14},{7,15}}, use_global_device_ids=true, to_apply=%add.65, sharding={devices=[8,1,2]0,8,1,9,2,10,3,11,4,12,5,13,6,14,7,15 last_tile_dim_replicate}, metadata={op_name="parallelize(train_step_shard_parallel)/jit(main)/transpose(jvp(FlaxGPTForLMModule))/transformers/encoder/layer/5/remat(core_fn)/5/output/dense/transpose[permutation=(1, 0)]" source_file="/python3.9-env/lib/python3.9/site-packages/flax/linen/linear.py" source_line=196}
  %convert.331 = f32[512,1024]{0,1} convert(f16[512,1024]{1,0} %all-reduce.120), metadata={op_name="parallelize(train_step_shard_parallel)/jit(main)/transpose(jvp(FlaxGPTForLMModule))/transformers/encoder/layer/5/remat(core_fn)/5/output/dense/convert_element_type[new_dtype=float32 weak_type=False]" source_file="/python3.9-env/lib/python3.9/site-packages/flax/linen/dtypes.py" source_line=97}
  %multiply.1335 = f32[512,1024]{0,1} multiply(f32[512,1024]{0,1} %convert.331, f32[512,1024]{1,0} %broadcast.1192), metadata={op_name="parallelize(train_step_shard_parallel)/jit(main)/mul" source_file="/python3.9-env/lib/python3.9/site-packages/optax/_src/transform.py" source_line=84}
  %param.237 = f32[512,1024]{1,0} parameter(155), sharding={devices=[8,1,2]0,8,1,9,2,10,3,11,4,12,5,13,6,14,7,15 last_tile_dim_replicate}
  %multiply.1336 = f32[512,1024]{1,0} multiply(f32[512,1024]{1,0} %param.237, f32[512,1024]{1,0} %broadcast.1193), metadata={op_name="parallelize(train_step_shard_parallel)/jit(main)/mul" source_file="/python3.9-env/lib/python3.9/site-packages/optax/_src/transform.py" source_line=84}
  %add.844 = f32[512,1024]{0,1} add(f32[512,1024]{0,1} %multiply.1335, f32[512,1024]{1,0} %multiply.1336), metadata={op_name="parallelize(train_step_shard_parallel)/jit(main)/add" source_file="/python3.9-env/lib/python3.9/site-packages/optax/_src/transform.py" source_line=84}
  %multiply.1337 = f32[512,1024]{0,1} multiply(f32[512,1024]{0,1} %convert.331, f32[512,1024]{0,1} %convert.331), metadata={op_name="parallelize(train_step_shard_parallel)/jit(main)/mul" source_file="/python3.9-env/lib/python3.9/site-packages/optax/_src/transform.py" source_line=98}
  %multiply.1338 = f32[512,1024]{0,1} multiply(f32[512,1024]{0,1} %multiply.1337, f32[512,1024]{1,0} %broadcast.1194), metadata={op_name="parallelize(train_step_shard_parallel)/jit(main)/mul" source_file="/python3.9-env/lib/python3.9/site-packages/optax/_src/transform.py" source_line=107}
  %param.238 = f32[512,1024]{1,0} parameter(232), sharding={devices=[8,1,2]0,8,1,9,2,10,3,11,4,12,5,13,6,14,7,15 last_tile_dim_replicate}
  %multiply.1339 = f32[512,1024]{1,0} multiply(f32[512,1024]{1,0} %param.238, f32[512,1024]{1,0} %broadcast.1196), metadata={op_name="parallelize(train_step_shard_parallel)/jit(main)/mul" source_file="/python3.9-env/lib/python3.9/site-packages/optax/_src/transform.py" source_line=107}
  %add.845 = f32[512,1024]{0,1} add(f32[512,1024]{0,1} %multiply.1338, f32[512,1024]{1,0} %multiply.1339), metadata={op_name="parallelize(train_step_shard_parallel)/jit(main)/add" source_file="/python3.9-env/lib/python3.9/site-packages/optax/_src/transform.py" source_line=107}
  %divide.402 = f32[512,1024]{0,1} divide(f32[512,1024]{0,1} %add.845, f32[512,1024]{1,0} %broadcast.922), metadata={op_name="parallelize(train_step_shard_parallel)/jit(main)/div" source_file="/python3.9-env/lib/python3.9/site-packages/optax/_src/transform.py" source_line=114}
  %sqrt.76 = f32[512,1024]{0,1} sqrt(f32[512,1024]{0,1} %divide.402), metadata={op_name="parallelize(train_step_shard_parallel)/jit(main)/sqrt" source_file="/python3.9-env/lib/python3.9/site-packages/optax/_src/transform.py" source_line=340}
  %add.847 = f32[512,1024]{0,1} add(f32[512,1024]{0,1} %sqrt.76, f32[512,1024]{1,0} %broadcast.1198), metadata={op_name="parallelize(train_step_shard_parallel)/jit(main)/add" source_file="/python3.9-env/lib/python3.9/site-packages/optax/_src/transform.py" source_line=340}
  %multiply.1340 = f32[512,1024]{1,0} multiply(f32[512,1024]{1,0} %broadcast.917, f32[512,1024]{0,1} %add.847)
  %divide.403 = f32[512,1024]{0,1} divide(f32[512,1024]{0,1} %add.844, f32[512,1024]{1,0} %multiply.1340), metadata={op_name="parallelize(train_step_shard_parallel)/jit(main)/div" source_file="/python3.9-env/lib/python3.9/site-packages/optax/_src/transform.py" source_line=340}
  %multiply.1341 = f32[512,1024]{1,0} multiply(f32[512,1024]{1,0} %param.80, f32[512,1024]{1,0} %broadcast.1199), metadata={op_name="parallelize(train_step_shard_parallel)/jit(main)/mul" source_file="/python3.9-env/lib/python3.9/site-packages/optax/_src/transform.py" source_line=657}
  %add.848 = f32[512,1024]{0,1} add(f32[512,1024]{0,1} %divide.403, f32[512,1024]{1,0} %multiply.1341), metadata={op_name="parallelize(train_step_shard_parallel)/jit(main)/add" source_file="/python3.9-env/lib/python3.9/site-packages/optax/_src/transform.py" source_line=657}
  %multiply.1342 = f32[512,1024]{0,1} multiply(f32[512,1024]{0,1} %add.848, f32[512,1024]{1,0} %broadcast.1200), metadata={op_name="parallelize(train_step_shard_parallel)/jit(main)/mul" source_file="/python3.9-env/lib/python3.9/site-packages/optax/_src/transform.py" source_line=405}
  %add.849 = f32[512,1024]{1,0} add(f32[512,1024]{1,0} %param.80, f32[512,1024]{0,1} %multiply.1342), metadata={op_name="parallelize(train_step_shard_parallel)/jit(main)/add" source_file="/python3.9-env/lib/python3.9/site-packages/optax/_src/update.py" source_line=43}
  ROOT %tuple.8 = (s32[], f32[6400]{0}, f32[1024]{0}, f32[1024]{0}, f32[128,1024]{1,0}, /*index=5*/f32[6400,1024]{1,0}, f32[1024]{0}, f32[1024]{0}, f32[1024]{0}, f32[128,1024]{1,0}, /*index=10*/f32[384]{0}, f32[1024,384]{1,0}, f32[512]{0}, f32[1024,512]{1,0}, f32[1024]{0}, /*index=15*/f32[1024]{0}, f32[1024]{0}, f32[512,1024]{1,0}, f32[1024]{0}, f32[1024]{0}, /*index=20*/f32[1024]{0}, f32[128,1024]{1,0}, f32[384]{0}, f32[1024,384]{1,0}, f32[512]{0}, /*index=25*/f32[1024,512]{1,0}, f32[1024]{0}, f32[1024]{0}, f32[1024]{0}, f32[512,1024]{1,0}, /*index=30*/f32[1024]{0}, f32[1024]{0}, f32[1024]{0}, f32[128,1024]{1,0}, f32[384]{0}, /*index=35*/f32[1024,384]{1,0}, f32[512]{0}, f32[1024,512]{1,0}, f32[1024]{0}, f32[1024]{0}, /*index=40*/f32[1024]{0}, f32[512,1024]{1,0}, f32[1024]{0}, f32[1024]{0}, f32[1024]{0}, /*index=45*/f32[128,1024]{1,0}, f32[384]{0}, f32[1024,384]{1,0}, f32[512]{0}, f32[1024,512]{1,0}, /*index=50*/f32[1024]{0}, f32[1024]{0}, f32[1024]{0}, f32[512,1024]{1,0}, f32[1024]{0}, /*index=55*/f32[1024]{0}, f32[1024]{0}, f32[128,1024]{1,0}, f32[384]{0}, f32[1024,384]{1,0}, /*index=60*/f32[512]{0}, f32[1024,512]{1,0}, f32[1024]{0}, f32[1024]{0}, f32[1024]{0}, /*index=65*/f32[512,1024]{1,0}, f32[1024]{0}, f32[1024]{0}, f32[1024]{0}, f32[128,1024]{1,0}, /*index=70*/f32[384]{0}, f32[1024,384]{1,0}, f32[512]{0}, f32[1024,512]{1,0}, f32[1024]{0}, /*index=75*/f32[1024]{0}, f32[1024]{0}, f32[512,1024]{1,0}, s32[], f32[6400]{0}, /*index=80*/f32[1024]{0}, f32[1024]{0}, f32[128,1024]{0,1}, f32[6400,1024]{1,0}, f32[1024]{0}, /*index=85*/f32[1024]{0}, f32[1024]{0}, f32[128,1024]{0,1}, f32[384]{0}, f32[1024,384]{0,1}, /*index=90*/f32[512]{0}, f32[1024,512]{0,1}, f32[1024]{0}, f32[1024]{0}, f32[1024]{0}, /*index=95*/f32[512,1024]{0,1}, f32[1024]{0}, f32[1024]{0}, f32[1024]{0}, f32[128,1024]{0,1}, /*index=100*/f32[384]{0}, f32[1024,384]{0,1}, f32[512]{0}, f32[1024,512]{0,1}, f32[1024]{0}, /*index=105*/f32[1024]{0}, f32[1024]{0}, f32[512,1024]{0,1}, f32[1024]{0}, f32[1024]{0}, /*index=110*/f32[1024]{0}, f32[128,1024]{0,1}, f32[384]{0}, f32[1024,384]{0,1}, f32[512]{0}, /*index=115*/f32[1024,512]{0,1}, f32[1024]{0}, f32[1024]{0}, f32[1024]{0}, f32[512,1024]{0,1}, /*index=120*/f32[1024]{0}, f32[1024]{0}, f32[1024]{0}, f32[128,1024]{0,1}, f32[384]{0}, /*index=125*/f32[1024,384]{0,1}, f32[512]{0}, f32[1024,512]{0,1}, f32[1024]{0}, f32[1024]{0}, /*index=130*/f32[1024]{0}, f32[512,1024]{0,1}, f32[1024]{0}, f32[1024]{0}, f32[1024]{0}, /*index=135*/f32[128,1024]{0,1}, f32[384]{0}, f32[1024,384]{0,1}, f32[512]{0}, f32[1024,512]{0,1}, /*index=140*/f32[1024]{0}, f32[1024]{0}, f32[1024]{0}, f32[512,1024]{0,1}, f32[1024]{0}, /*index=145*/f32[1024]{0}, f32[1024]{0}, f32[128,1024]{0,1}, f32[384]{0}, f32[1024,384]{0,1}, /*index=150*/f32[512]{0}, f32[1024,512]{0,1}, f32[1024]{0}, f32[1024]{0}, f32[1024]{0}, /*index=155*/f32[512,1024]{0,1}, f32[6400]{0}, f32[1024]{0}, f32[1024]{0}, f32[128,1024]{0,1}, /*index=160*/f32[6400,1024]{1,0}, f32[1024]{0}, f32[1024]{0}, f32[1024]{0}, f32[128,1024]{0,1}, /*index=165*/f32[384]{0}, f32[1024,384]{0,1}, f32[512]{0}, f32[1024,512]{0,1}, f32[1024]{0}, /*index=170*/f32[1024]{0}, f32[1024]{0}, f32[512,1024]{0,1}, f32[1024]{0}, f32[1024]{0}, /*index=175*/f32[1024]{0}, f32[128,1024]{0,1}, f32[384]{0}, f32[1024,384]{0,1}, f32[512]{0}, /*index=180*/f32[1024,512]{0,1}, f32[1024]{0}, f32[1024]{0}, f32[1024]{0}, f32[512,1024]{0,1}, /*index=185*/f32[1024]{0}, f32[1024]{0}, f32[1024]{0}, f32[128,1024]{0,1}, f32[384]{0}, /*index=190*/f32[1024,384]{0,1}, f32[512]{0}, f32[1024,512]{0,1}, f32[1024]{0}, f32[1024]{0}, /*index=195*/f32[1024]{0}, f32[512,1024]{0,1}, f32[1024]{0}, f32[1024]{0}, f32[1024]{0}, /*index=200*/f32[128,1024]{0,1}, f32[384]{0}, f32[1024,384]{0,1}, f32[512]{0}, f32[1024,512]{0,1}, /*index=205*/f32[1024]{0}, f32[1024]{0}, f32[1024]{0}, f32[512,1024]{0,1}, f32[1024]{0}, /*index=210*/f32[1024]{0}, f32[1024]{0}, f32[128,1024]{0,1}, f32[384]{0}, f32[1024,384]{0,1}, /*index=215*/f32[512]{0}, f32[1024,512]{0,1}, f32[1024]{0}, f32[1024]{0}, f32[1024]{0}, /*index=220*/f32[512,1024]{0,1}, f32[1024]{0}, f32[1024]{0}, f32[1024]{0}, f32[128,1024]{0,1}, /*index=225*/f32[384]{0}, f32[1024,384]{0,1}, f32[512]{0}, f32[1024,512]{0,1}, f32[1024]{0}, /*index=230*/f32[1024]{0}, f32[1024]{0}, f32[512,1024]{0,1}) tuple(s32[] %add.92, f32[6400]{0} %add.248, f32[1024]{0} %add.462, f32[1024]{0} %add.467, f32[128,1024]{1,0} %add.476, /*index=5*/f32[6400,1024]{1,0} %add.483, f32[1024]{0} %add.487, f32[1024]{0} %add.491, f32[1024]{0} %add.495, f32[128,1024]{1,0} %add.501, /*index=10*/f32[384]{0} %add.505, f32[1024,384]{1,0} %add.510, f32[512]{0} %add.515, f32[1024,512]{1,0} %add.520, f32[1024]{0} %add.525, /*index=15*/f32[1024]{0} %add.529, f32[1024]{0} %add.533, f32[512,1024]{1,0} %add.539, f32[1024]{0} %add.543, f32[1024]{0} %add.547, /*index=20*/f32[1024]{0} %add.551, f32[128,1024]{1,0} %add.557, f32[384]{0} %add.561, f32[1024,384]{1,0} %add.566, f32[512]{0} %add.570, /*index=25*/f32[1024,512]{1,0} %add.577, f32[1024]{0} %add.582, f32[1024]{0} %add.586, f32[1024]{0} %add.590, f32[512,1024]{1,0} %add.596, /*index=30*/f32[1024]{0} %add.601, f32[1024]{0} %add.605, f32[1024]{0} %add.609, f32[128,1024]{1,0} %add.615, f32[384]{0} %add.619, /*index=35*/f32[1024,384]{1,0} %add.625, f32[512]{0} %add.631, f32[1024,512]{1,0} %add.641, f32[1024]{0} %add.649, f32[1024]{0} %add.655, /*index=40*/f32[1024]{0} %add.659, f32[512,1024]{1,0} %add.666, f32[1024]{0} %add.670, f32[1024]{0} %add.675, f32[1024]{0} %add.679, /*index=45*/f32[128,1024]{1,0} %add.685, f32[384]{0} %add.689, f32[1024,384]{1,0} %add.695, f32[512]{0} %add.699, f32[1024,512]{1,0} %add.704, /*index=50*/f32[1024]{0} %add.709, f32[1024]{0} %add.713, f32[1024]{0} %add.718, f32[512,1024]{1,0} %add.723, f32[1024]{0} %add.727, /*index=55*/f32[1024]{0} %add.732, f32[1024]{0} %add.736, f32[128,1024]{1,0} %add.741, f32[384]{0} %add.745, f32[1024,384]{1,0} %add.751, /*index=60*/f32[512]{0} %add.755, f32[1024,512]{1,0} %add.760, f32[1024]{0} %add.766, f32[1024]{0} %add.770, f32[1024]{0} %add.775, /*index=65*/f32[512,1024]{1,0} %add.780, f32[1024]{0} %add.785, f32[1024]{0} %add.789, f32[1024]{0} %add.794, f32[128,1024]{1,0} %add.799, /*index=70*/f32[384]{0} %add.803, f32[1024,384]{1,0} %add.809, f32[512]{0} %add.813, f32[1024,512]{1,0} %add.819, f32[1024]{0} %add.827, /*index=75*/f32[1024]{0} %add.835, f32[1024]{0} %add.843, f32[512,1024]{1,0} %add.849, s32[] %select.5, f32[6400]{0} %add.244, /*index=80*/f32[1024]{0} %add.459, f32[1024]{0} %add.463, f32[128,1024]{0,1} %add.472, f32[6400,1024]{1,0} %add.479, f32[1024]{0} %add.484, /*index=85*/f32[1024]{0} %add.488, f32[1024]{0} %add.492, f32[128,1024]{0,1} %add.497, f32[384]{0} %add.502, f32[1024,384]{0,1} %add.506, /*index=90*/f32[512]{0} %add.511, f32[1024,512]{0,1} %add.516, f32[1024]{0} %add.521, f32[1024]{0} %add.526, f32[1024]{0} %add.530, /*index=95*/f32[512,1024]{0,1} %add.534, f32[1024]{0} %add.540, f32[1024]{0} %add.544, f32[1024]{0} %add.548, f32[128,1024]{0,1} %add.552, /*index=100*/f32[384]{0} %add.558, f32[1024,384]{0,1} %add.562, f32[512]{0} %add.567, f32[1024,512]{0,1} %add.571, f32[1024]{0} %add.578, /*index=105*/f32[1024]{0} %add.583, f32[1024]{0} %add.587, f32[512,1024]{0,1} %add.592, f32[1024]{0} %add.597, f32[1024]{0} %add.602, /*index=110*/f32[1024]{0} %add.606, f32[128,1024]{0,1} %add.610, f32[384]{0} %add.616, f32[1024,384]{0,1} %add.620, f32[512]{0} %add.626, /*index=115*/f32[1024,512]{0,1} %add.633, f32[1024]{0} %add.643, f32[1024]{0} %add.651, f32[1024]{0} %add.656, f32[512,1024]{0,1} %add.660, /*index=120*/f32[1024]{0} %add.667, f32[1024]{0} %add.672, f32[1024]{0} %add.676, f32[128,1024]{0,1} %add.680, f32[384]{0} %add.686, /*index=125*/f32[1024,384]{0,1} %add.691, f32[512]{0} %add.696, f32[1024,512]{0,1} %add.700, f32[1024]{0} %add.706, f32[1024]{0} %add.710, /*index=130*/f32[1024]{0} %add.715, f32[512,1024]{0,1} %add.719, f32[1024]{0} %add.724, f32[1024]{0} %add.728, f32[1024]{0} %add.733, /*index=135*/f32[128,1024]{0,1} %add.737, f32[384]{0} %add.742, f32[1024,384]{0,1} %add.747, f32[512]{0} %add.752, f32[1024,512]{0,1} %add.756, /*index=140*/f32[1024]{0} %add.761, f32[1024]{0} %add.767, f32[1024]{0} %add.772, f32[512,1024]{0,1} %add.776, f32[1024]{0} %add.781, /*index=145*/f32[1024]{0} %add.786, f32[1024]{0} %add.791, f32[128,1024]{0,1} %add.795, f32[384]{0} %add.800, f32[1024,384]{0,1} %add.804, /*index=150*/f32[512]{0} %add.810, f32[1024,512]{0,1} %add.815, f32[1024]{0} %add.821, f32[1024]{0} %add.829, f32[1024]{0} %add.837, /*index=155*/f32[512,1024]{0,1} %add.844, f32[6400]{0} %add.246, f32[1024]{0} %add.460, f32[1024]{0} %add.465, f32[128,1024]{0,1} %add.473, /*index=160*/f32[6400,1024]{1,0} %add.480, f32[1024]{0} %add.485, f32[1024]{0} %add.489, f32[1024]{0} %add.493, f32[128,1024]{0,1} %add.498, /*index=165*/f32[384]{0} %add.503, f32[1024,384]{0,1} %add.507, f32[512]{0} %add.512, f32[1024,512]{0,1} %add.517, f32[1024]{0} %add.523, /*index=170*/f32[1024]{0} %add.527, f32[1024]{0} %add.531, f32[512,1024]{0,1} %add.535, f32[1024]{0} %add.541, f32[1024]{0} %add.545, /*index=175*/f32[1024]{0} %add.549, f32[128,1024]{0,1} %add.553, f32[384]{0} %add.559, f32[1024,384]{0,1} %add.563, f32[512]{0} %add.568, /*index=180*/f32[1024,512]{0,1} %add.574, f32[1024]{0} %add.580, f32[1024]{0} %add.584, f32[1024]{0} %add.588, f32[512,1024]{0,1} %add.593, /*index=185*/f32[1024]{0} %add.599, f32[1024]{0} %add.603, f32[1024]{0} %add.607, f32[128,1024]{0,1} %add.611, f32[384]{0} %add.617, /*index=190*/f32[1024,384]{0,1} %add.621, f32[512]{0} %add.627, f32[1024,512]{0,1} %add.635, f32[1024]{0} %add.645, f32[1024]{0} %add.652, /*index=195*/f32[1024]{0} %add.657, f32[512,1024]{0,1} %add.661, f32[1024]{0} %add.668, f32[1024]{0} %add.673, f32[1024]{0} %add.677, /*index=200*/f32[128,1024]{0,1} %add.681, f32[384]{0} %add.687, f32[1024,384]{0,1} %add.692, f32[512]{0} %add.697, f32[1024,512]{0,1} %add.701, /*index=205*/f32[1024]{0} %add.707, f32[1024]{0} %add.711, f32[1024]{0} %add.716, f32[512,1024]{0,1} %add.720, f32[1024]{0} %add.725, /*index=210*/f32[1024]{0} %add.729, f32[1024]{0} %add.734, f32[128,1024]{0,1} %add.738, f32[384]{0} %add.743, f32[1024,384]{0,1} %add.748, /*index=215*/f32[512]{0} %add.753, f32[1024,512]{0,1} %add.757, f32[1024]{0} %add.762, f32[1024]{0} %add.768, f32[1024]{0} %add.773, /*index=220*/f32[512,1024]{0,1} %add.777, f32[1024]{0} %add.782, f32[1024]{0} %add.787, f32[1024]{0} %add.792, f32[128,1024]{0,1} %add.796, /*index=225*/f32[384]{0} %add.801, f32[1024,384]{0,1} %add.806, f32[512]{0} %add.811, f32[1024,512]{0,1} %add.816, f32[1024]{0} %add.823, /*index=230*/f32[1024]{0} %add.831, f32[1024]{0} %add.839, f32[512,1024]{0,1} %add.845)
}

