HloModule train_step_shard_parallel.6, input_output_alias={ {0}: (0, {}, may-alias), {1}: (1, {}, may-alias), {2}: (2, {}, may-alias), {3}: (3, {}, may-alias), {4}: (4, {}, may-alias), {5}: (5, {}, may-alias), {6}: (6, {}, may-alias), {7}: (7, {}, may-alias), {8}: (8, {}, may-alias), {9}: (9, {}, may-alias), {10}: (10, {}, may-alias), {11}: (11, {}, may-alias), {12}: (12, {}, may-alias), {13}: (13, {}, may-alias), {14}: (14, {}, may-alias), {15}: (15, {}, may-alias), {16}: (16, {}, may-alias), {17}: (17, {}, may-alias), {18}: (18, {}, may-alias), {19}: (19, {}, may-alias), {20}: (20, {}, may-alias), {21}: (21, {}, may-alias), {22}: (22, {}, may-alias), {23}: (23, {}, may-alias), {24}: (24, {}, may-alias), {25}: (25, {}, may-alias), {26}: (26, {}, may-alias), {27}: (27, {}, may-alias), {28}: (28, {}, may-alias), {29}: (29, {}, may-alias), {30}: (30, {}, may-alias), {31}: (31, {}, may-alias), {32}: (32, {}, may-alias), {33}: (33, {}, may-alias), {34}: (34, {}, may-alias), {35}: (35, {}, may-alias), {36}: (36, {}, may-alias), {37}: (37, {}, may-alias), {38}: (38, {}, may-alias), {39}: (39, {}, may-alias), {40}: (40, {}, may-alias), {41}: (41, {}, may-alias), {42}: (42, {}, may-alias), {43}: (43, {}, may-alias), {44}: (44, {}, may-alias), {45}: (45, {}, may-alias), {46}: (46, {}, may-alias), {47}: (47, {}, may-alias), {48}: (48, {}, may-alias), {49}: (49, {}, may-alias), {50}: (50, {}, may-alias), {51}: (51, {}, may-alias), {52}: (52, {}, may-alias), {53}: (53, {}, may-alias), {54}: (54, {}, may-alias), {55}: (55, {}, may-alias), {56}: (56, {}, may-alias), {57}: (57, {}, may-alias), {58}: (58, {}, may-alias), {59}: (59, {}, may-alias), {60}: (60, {}, may-alias), {61}: (61, {}, may-alias), {62}: (62, {}, may-alias), {63}: (63, {}, may-alias), {64}: (64, {}, may-alias), {65}: (65, {}, may-alias), {66}: (66, {}, may-alias), {67}: (67, {}, may-alias), {68}: (68, {}, may-alias), {69}: (69, {}, may-alias), {70}: (70, {}, may-alias), {71}: (71, {}, may-alias), {72}: (72, {}, may-alias), {73}: (73, {}, may-alias), {74}: (74, {}, may-alias), {75}: (75, {}, may-alias), {76}: (76, {}, may-alias), {77}: (77, {}, may-alias), {78}: (78, {}, may-alias), {79}: (79, {}, may-alias), {80}: (80, {}, may-alias), {81}: (81, {}, may-alias), {82}: (82, {}, may-alias), {83}: (83, {}, may-alias), {84}: (84, {}, may-alias), {85}: (85, {}, may-alias), {86}: (86, {}, may-alias), {87}: (87, {}, may-alias), {88}: (88, {}, may-alias), {89}: (89, {}, may-alias), {90}: (90, {}, may-alias), {91}: (91, {}, may-alias), {92}: (92, {}, may-alias), {93}: (93, {}, may-alias), {94}: (94, {}, may-alias), {95}: (95, {}, may-alias), {96}: (96, {}, may-alias), {97}: (97, {}, may-alias), {98}: (98, {}, may-alias), {99}: (99, {}, may-alias), {100}: (100, {}, may-alias), {101}: (101, {}, may-alias), {102}: (102, {}, may-alias), {103}: (103, {}, may-alias), {104}: (104, {}, may-alias), {105}: (105, {}, may-alias), {106}: (106, {}, may-alias), {107}: (107, {}, may-alias), {108}: (108, {}, may-alias), {109}: (109, {}, may-alias), {110}: (110, {}, may-alias), {111}: (111, {}, may-alias), {112}: (112, {}, may-alias), {113}: (113, {}, may-alias), {114}: (114, {}, may-alias), {115}: (115, {}, may-alias), {116}: (116, {}, may-alias), {117}: (117, {}, may-alias), {118}: (118, {}, may-alias), {119}: (119, {}, may-alias), {120}: (120, {}, may-alias), {121}: (121, {}, may-alias), {122}: (122, {}, may-alias), {123}: (123, {}, may-alias), {124}: (124, {}, may-alias), {125}: (125, {}, may-alias), {126}: (126, {}, may-alias), {127}: (127, {}, may-alias), {128}: (128, {}, may-alias), {129}: (129, {}, may-alias), {130}: (130, {}, may-alias), {131}: (131, {}, may-alias), {132}: (132, {}, may-alias), {133}: (133, {}, may-alias), {134}: (134, {}, may-alias), {135}: (135, {}, may-alias), {136}: (136, {}, may-alias), {137}: (137, {}, may-alias), {138}: (138, {}, may-alias), {139}: (139, {}, may-alias), {140}: (140, {}, may-alias), {141}: (141, {}, may-alias), {142}: (142, {}, may-alias), {143}: (143, {}, may-alias), {144}: (144, {}, may-alias), {145}: (145, {}, may-alias), {146}: (146, {}, may-alias), {147}: (147, {}, may-alias), {148}: (148, {}, may-alias), {149}: (149, {}, may-alias), {150}: (150, {}, may-alias), {151}: (151, {}, may-alias), {152}: (152, {}, may-alias), {153}: (153, {}, may-alias), {154}: (154, {}, may-alias), {155}: (155, {}, may-alias), {156}: (156, {}, may-alias), {157}: (157, {}, may-alias), {158}: (158, {}, may-alias), {159}: (159, {}, may-alias), {160}: (160, {}, may-alias), {161}: (161, {}, may-alias), {162}: (162, {}, may-alias), {163}: (163, {}, may-alias), {164}: (164, {}, may-alias), {165}: (165, {}, may-alias), {166}: (166, {}, may-alias), {167}: (167, {}, may-alias), {168}: (168, {}, may-alias), {169}: (169, {}, may-alias), {170}: (170, {}, may-alias), {171}: (171, {}, may-alias), {172}: (172, {}, may-alias), {173}: (173, {}, may-alias), {174}: (174, {}, may-alias), {175}: (175, {}, may-alias), {176}: (176, {}, may-alias), {177}: (177, {}, may-alias), {178}: (178, {}, may-alias), {179}: (179, {}, may-alias), {180}: (180, {}, may-alias), {181}: (181, {}, may-alias), {182}: (182, {}, may-alias), {183}: (183, {}, may-alias), {184}: (184, {}, may-alias), {185}: (185, {}, may-alias), {186}: (186, {}, may-alias), {187}: (187, {}, may-alias), {188}: (188, {}, may-alias), {189}: (189, {}, may-alias), {190}: (190, {}, may-alias), {191}: (191, {}, may-alias), {192}: (192, {}, may-alias), {193}: (193, {}, may-alias), {194}: (194, {}, may-alias), {195}: (195, {}, may-alias), {196}: (196, {}, may-alias), {197}: (197, {}, may-alias), {198}: (198, {}, may-alias), {199}: (199, {}, may-alias), {200}: (200, {}, may-alias), {201}: (201, {}, may-alias), {202}: (202, {}, may-alias), {203}: (203, {}, may-alias), {204}: (204, {}, may-alias), {205}: (205, {}, may-alias), {206}: (206, {}, may-alias), {207}: (207, {}, may-alias), {208}: (208, {}, may-alias), {209}: (209, {}, may-alias), {210}: (210, {}, may-alias), {211}: (211, {}, may-alias), {212}: (212, {}, may-alias), {213}: (213, {}, may-alias), {214}: (214, {}, may-alias), {215}: (215, {}, may-alias), {216}: (216, {}, may-alias), {217}: (217, {}, may-alias), {218}: (218, {}, may-alias), {219}: (219, {}, may-alias), {220}: (220, {}, may-alias), {221}: (221, {}, may-alias), {222}: (222, {}, may-alias), {223}: (223, {}, may-alias), {224}: (224, {}, may-alias), {225}: (225, {}, may-alias), {226}: (226, {}, may-alias), {227}: (227, {}, may-alias), {228}: (228, {}, may-alias), {229}: (229, {}, may-alias), {230}: (230, {}, may-alias), {231}: (231, {}, may-alias), {232}: (232, {}, may-alias) }, entry_computation_layout={(s32[],f32[6400]{0},f32[1024]{0},f32[1024]{0},f32[128,1024]{1,0},f32[6400,1024]{1,0},f32[1024]{0},f32[1024]{0},f32[1024]{0},f32[128,1024]{1,0},f32[384]{0},f32[1024,384]{1,0},f32[512]{0},f32[1024,512]{1,0},f32[1024]{0},f32[1024]{0},f32[1024]{0},f32[512,1024]{1,0},f32[1024]{0},f32[1024]{0},f32[1024]{0},f32[128,1024]{1,0},f32[384]{0},f32[1024,384]{1,0},f32[512]{0},f32[1024,512]{1,0},f32[1024]{0},f32[1024]{0},f32[1024]{0},f32[512,1024]{1,0},f32[1024]{0},f32[1024]{0},f32[1024]{0},f32[128,1024]{1,0},f32[384]{0},f32[1024,384]{1,0},f32[512]{0},f32[1024,512]{1,0},f32[1024]{0},f32[1024]{0},f32[1024]{0},f32[512,1024]{1,0},f32[1024]{0},f32[1024]{0},f32[1024]{0},f32[128,1024]{1,0},f32[384]{0},f32[1024,384]{1,0},f32[512]{0},f32[1024,512]{1,0},f32[1024]{0},f32[1024]{0},f32[1024]{0},f32[512,1024]{1,0},f32[1024]{0},f32[1024]{0},f32[1024]{0},f32[128,1024]{1,0},f32[384]{0},f32[1024,384]{1,0},f32[512]{0},f32[1024,512]{1,0},f32[1024]{0},f32[1024]{0},f32[1024]{0},f32[512,1024]{1,0},f32[1024]{0},f32[1024]{0},f32[1024]{0},f32[128,1024]{1,0},f32[384]{0},f32[1024,384]{1,0},f32[512]{0},f32[1024,512]{1,0},f32[1024]{0},f32[1024]{0},f32[1024]{0},f32[512,1024]{1,0},s32[],f32[6400]{0},f32[1024]{0},f32[1024]{0},f32[128,1024]{1,0},f32[6400,1024]{1,0},f32[1024]{0},f32[1024]{0},f32[1024]{0},f32[128,1024]{1,0},f32[384]{0},f32[1024,384]{1,0},f32[512]{0},f32[1024,512]{1,0},f32[1024]{0},f32[1024]{0},f32[1024]{0},f32[512,1024]{1,0},f32[1024]{0},f32[1024]{0},f32[1024]{0},f32[128,1024]{1,0},f32[384]{0},f32[1024,384]{1,0},f32[512]{0},f32[1024,512]{1,0},f32[1024]{0},f32[1024]{0},f32[1024]{0},f32[512,1024]{1,0},f32[1024]{0},f32[1024]{0},f32[1024]{0},f32[128,1024]{1,0},f32[384]{0},f32[1024,384]{1,0},f32[512]{0},f32[1024,512]{1,0},f32[1024]{0},f32[1024]{0},f32[1024]{0},f32[512,1024]{1,0},f32[1024]{0},f32[1024]{0},f32[1024]{0},f32[128,1024]{1,0},f32[384]{0},f32[1024,384]{1,0},f32[512]{0},f32[1024,512]{1,0},f32[1024]{0},f32[1024]{0},f32[1024]{0},f32[512,1024]{1,0},f32[1024]{0},f32[1024]{0},f32[1024]{0},f32[128,1024]{1,0},f32[384]{0},f32[1024,384]{1,0},f32[512]{0},f32[1024,512]{1,0},f32[1024]{0},f32[1024]{0},f32[1024]{0},f32[512,1024]{1,0},f32[1024]{0},f32[1024]{0},f32[1024]{0},f32[128,1024]{1,0},f32[384]{0},f32[1024,384]{1,0},f32[512]{0},f32[1024,512]{1,0},f32[1024]{0},f32[1024]{0},f32[1024]{0},f32[512,1024]{1,0},f32[6400]{0},f32[1024]{0},f32[1024]{0},f32[128,1024]{1,0},f32[6400,1024]{1,0},f32[1024]{0},f32[1024]{0},f32[1024]{0},f32[128,1024]{1,0},f32[384]{0},f32[1024,384]{1,0},f32[512]{0},f32[1024,512]{1,0},f32[1024]{0},f32[1024]{0},f32[1024]{0},f32[512,1024]{1,0},f32[1024]{0},f32[1024]{0},f32[1024]{0},f32[128,1024]{1,0},f32[384]{0},f32[1024,384]{1,0},f32[512]{0},f32[1024,512]{1,0},f32[1024]{0},f32[1024]{0},f32[1024]{0},f32[512,1024]{1,0},f32[1024]{0},f32[1024]{0},f32[1024]{0},f32[128,1024]{1,0},f32[384]{0},f32[1024,384]{1,0},f32[512]{0},f32[1024,512]{1,0},f32[1024]{0},f32[1024]{0},f32[1024]{0},f32[512,1024]{1,0},f32[1024]{0},f32[1024]{0},f32[1024]{0},f32[128,1024]{1,0},f32[384]{0},f32[1024,384]{1,0},f32[512]{0},f32[1024,512]{1,0},f32[1024]{0},f32[1024]{0},f32[1024]{0},f32[512,1024]{1,0},f32[1024]{0},f32[1024]{0},f32[1024]{0},f32[128,1024]{1,0},f32[384]{0},f32[1024,384]{1,0},f32[512]{0},f32[1024,512]{1,0},f32[1024]{0},f32[1024]{0},f32[1024]{0},f32[512,1024]{1,0},f32[1024]{0},f32[1024]{0},f32[1024]{0},f32[128,1024]{1,0},f32[384]{0},f32[1024,384]{1,0},f32[512]{0},f32[1024,512]{1,0},f32[1024]{0},f32[1024]{0},f32[1024]{0},f32[512,1024]{1,0},s32[4,1024]{1,0},s32[4,1024]{1,0},s32[4,1024]{1,0},s32[4,1024]{1,0},s32[4,1024]{1,0},u32[1]{0})->(s32[], f32[6400]{0}, f32[1024]{0}, f32[1024]{0}, f32[128,1024]{1,0}, /*index=5*/f32[6400,1024]{1,0}, f32[1024]{0}, f32[1024]{0}, f32[1024]{0}, f32[128,1024]{1,0}, /*index=10*/f32[384]{0}, f32[1024,384]{1,0}, f32[512]{0}, f32[1024,512]{1,0}, f32[1024]{0}, /*index=15*/f32[1024]{0}, f32[1024]{0}, f32[512,1024]{1,0}, f32[1024]{0}, f32[1024]{0}, /*index=20*/f32[1024]{0}, f32[128,1024]{1,0}, f32[384]{0}, f32[1024,384]{1,0}, f32[512]{0}, /*index=25*/f32[1024,512]{1,0}, f32[1024]{0}, f32[1024]{0}, f32[1024]{0}, f32[512,1024]{1,0}, /*index=30*/f32[1024]{0}, f32[1024]{0}, f32[1024]{0}, f32[128,1024]{1,0}, f32[384]{0}, /*index=35*/f32[1024,384]{1,0}, f32[512]{0}, f32[1024,512]{1,0}, f32[1024]{0}, f32[1024]{0}, /*index=40*/f32[1024]{0}, f32[512,1024]{1,0}, f32[1024]{0}, f32[1024]{0}, f32[1024]{0}, /*index=45*/f32[128,1024]{1,0}, f32[384]{0}, f32[1024,384]{1,0}, f32[512]{0}, f32[1024,512]{1,0}, /*index=50*/f32[1024]{0}, f32[1024]{0}, f32[1024]{0}, f32[512,1024]{1,0}, f32[1024]{0}, /*index=55*/f32[1024]{0}, f32[1024]{0}, f32[128,1024]{1,0}, f32[384]{0}, f32[1024,384]{1,0}, /*index=60*/f32[512]{0}, f32[1024,512]{1,0}, f32[1024]{0}, f32[1024]{0}, f32[1024]{0}, /*index=65*/f32[512,1024]{1,0}, f32[1024]{0}, f32[1024]{0}, f32[1024]{0}, f32[128,1024]{1,0}, /*index=70*/f32[384]{0}, f32[1024,384]{1,0}, f32[512]{0}, f32[1024,512]{1,0}, f32[1024]{0}, /*index=75*/f32[1024]{0}, f32[1024]{0}, f32[512,1024]{1,0}, s32[], f32[6400]{0}, /*index=80*/f32[1024]{0}, f32[1024]{0}, f32[128,1024]{1,0}, f32[6400,1024]{1,0}, f32[1024]{0}, /*index=85*/f32[1024]{0}, f32[1024]{0}, f32[128,1024]{1,0}, f32[384]{0}, f32[1024,384]{1,0}, /*index=90*/f32[512]{0}, f32[1024,512]{1,0}, f32[1024]{0}, f32[1024]{0}, f32[1024]{0}, /*index=95*/f32[512,1024]{1,0}, f32[1024]{0}, f32[1024]{0}, f32[1024]{0}, f32[128,1024]{1,0}, /*index=100*/f32[384]{0}, f32[1024,384]{1,0}, f32[512]{0}, f32[1024,512]{1,0}, f32[1024]{0}, /*index=105*/f32[1024]{0}, f32[1024]{0}, f32[512,1024]{1,0}, f32[1024]{0}, f32[1024]{0}, /*index=110*/f32[1024]{0}, f32[128,1024]{1,0}, f32[384]{0}, f32[1024,384]{1,0}, f32[512]{0}, /*index=115*/f32[1024,512]{1,0}, f32[1024]{0}, f32[1024]{0}, f32[1024]{0}, f32[512,1024]{1,0}, /*index=120*/f32[1024]{0}, f32[1024]{0}, f32[1024]{0}, f32[128,1024]{1,0}, f32[384]{0}, /*index=125*/f32[1024,384]{1,0}, f32[512]{0}, f32[1024,512]{1,0}, f32[1024]{0}, f32[1024]{0}, /*index=130*/f32[1024]{0}, f32[512,1024]{1,0}, f32[1024]{0}, f32[1024]{0}, f32[1024]{0}, /*index=135*/f32[128,1024]{1,0}, f32[384]{0}, f32[1024,384]{1,0}, f32[512]{0}, f32[1024,512]{1,0}, /*index=140*/f32[1024]{0}, f32[1024]{0}, f32[1024]{0}, f32[512,1024]{1,0}, f32[1024]{0}, /*index=145*/f32[1024]{0}, f32[1024]{0}, f32[128,1024]{1,0}, f32[384]{0}, f32[1024,384]{1,0}, /*index=150*/f32[512]{0}, f32[1024,512]{1,0}, f32[1024]{0}, f32[1024]{0}, f32[1024]{0}, /*index=155*/f32[512,1024]{1,0}, f32[6400]{0}, f32[1024]{0}, f32[1024]{0}, f32[128,1024]{1,0}, /*index=160*/f32[6400,1024]{1,0}, f32[1024]{0}, f32[1024]{0}, f32[1024]{0}, f32[128,1024]{1,0}, /*index=165*/f32[384]{0}, f32[1024,384]{1,0}, f32[512]{0}, f32[1024,512]{1,0}, f32[1024]{0}, /*index=170*/f32[1024]{0}, f32[1024]{0}, f32[512,1024]{1,0}, f32[1024]{0}, f32[1024]{0}, /*index=175*/f32[1024]{0}, f32[128,1024]{1,0}, f32[384]{0}, f32[1024,384]{1,0}, f32[512]{0}, /*index=180*/f32[1024,512]{1,0}, f32[1024]{0}, f32[1024]{0}, f32[1024]{0}, f32[512,1024]{1,0}, /*index=185*/f32[1024]{0}, f32[1024]{0}, f32[1024]{0}, f32[128,1024]{1,0}, f32[384]{0}, /*index=190*/f32[1024,384]{1,0}, f32[512]{0}, f32[1024,512]{1,0}, f32[1024]{0}, f32[1024]{0}, /*index=195*/f32[1024]{0}, f32[512,1024]{1,0}, f32[1024]{0}, f32[1024]{0}, f32[1024]{0}, /*index=200*/f32[128,1024]{1,0}, f32[384]{0}, f32[1024,384]{1,0}, f32[512]{0}, f32[1024,512]{1,0}, /*index=205*/f32[1024]{0}, f32[1024]{0}, f32[1024]{0}, f32[512,1024]{1,0}, f32[1024]{0}, /*index=210*/f32[1024]{0}, f32[1024]{0}, f32[128,1024]{1,0}, f32[384]{0}, f32[1024,384]{1,0}, /*index=215*/f32[512]{0}, f32[1024,512]{1,0}, f32[1024]{0}, f32[1024]{0}, f32[1024]{0}, /*index=220*/f32[512,1024]{1,0}, f32[1024]{0}, f32[1024]{0}, f32[1024]{0}, f32[128,1024]{1,0}, /*index=225*/f32[384]{0}, f32[1024,384]{1,0}, f32[512]{0}, f32[1024,512]{1,0}, f32[1024]{0}, /*index=230*/f32[1024]{0}, f32[1024]{0}, f32[512,1024]{1,0})}

%region_40.1707 (Arg_0.1708: f32[], Arg_1.1709: f32[]) -> f32[] {
  %Arg_0.1708 = f32[] parameter(0)
  %Arg_1.1709 = f32[] parameter(1)
  ROOT %add.1710 = f32[] add(f32[] %Arg_0.1708, f32[] %Arg_1.1709), metadata={op_name="parallelize(train_step_shard_parallel)/jit(main)/reduce_sum[axes=(0, 1)]" source_file="/code/alpa/playground/alpa_micro_benchmark/test_export_hlo.py" source_line=90}
}

%add.2 (x.2: f16[], y.2: f16[]) -> f16[] {
  %x.2 = f16[] parameter(0)
  %y.2 = f16[] parameter(1)
  ROOT %add.28 = f16[] add(f16[] %x.2, f16[] %y.2)
}

%add.3 (x.3: f16[], y.3: f16[]) -> f16[] {
  %x.3 = f16[] parameter(0)
  %y.3 = f16[] parameter(1)
  ROOT %add.29 = f16[] add(f16[] %x.3, f16[] %y.3)
}

%add.4 (x.4: f16[], y.4: f16[]) -> f16[] {
  %x.4 = f16[] parameter(0)
  %y.4 = f16[] parameter(1)
  ROOT %add.30 = f16[] add(f16[] %x.4, f16[] %y.4)
}

%add.5 (x.5: f16[], y.5: f16[]) -> f16[] {
  %x.5 = f16[] parameter(0)
  %y.5 = f16[] parameter(1)
  ROOT %add.31 = f16[] add(f16[] %x.5, f16[] %y.5)
}

%add.6 (x.6: f16[], y.6: f16[]) -> f16[] {
  %x.6 = f16[] parameter(0)
  %y.6 = f16[] parameter(1)
  ROOT %add.32 = f16[] add(f16[] %x.6, f16[] %y.6)
}

%add.7 (x.7: f16[], y.7: f16[]) -> f16[] {
  %x.7 = f16[] parameter(0)
  %y.7 = f16[] parameter(1)
  ROOT %add.33 = f16[] add(f16[] %x.7, f16[] %y.7)
}

%add.8 (x.8: f16[], y.8: f16[]) -> f16[] {
  %x.8 = f16[] parameter(0)
  %y.8 = f16[] parameter(1)
  ROOT %add.34 = f16[] add(f16[] %x.8, f16[] %y.8)
}

%add.9 (x.9: f16[], y.9: f16[]) -> f16[] {
  %x.9 = f16[] parameter(0)
  %y.9 = f16[] parameter(1)
  ROOT %add.35 = f16[] add(f16[] %x.9, f16[] %y.9)
}

%add.10 (x.10: f16[], y.10: f16[]) -> f16[] {
  %x.10 = f16[] parameter(0)
  %y.10 = f16[] parameter(1)
  ROOT %add.36 = f16[] add(f16[] %x.10, f16[] %y.10)
}

%add.11 (x.11: f16[], y.11: f16[]) -> f16[] {
  %x.11 = f16[] parameter(0)
  %y.11 = f16[] parameter(1)
  ROOT %add.37 = f16[] add(f16[] %x.11, f16[] %y.11)
}

%add.12 (x.12: f16[], y.12: f16[]) -> f16[] {
  %x.12 = f16[] parameter(0)
  %y.12 = f16[] parameter(1)
  ROOT %add.38 = f16[] add(f16[] %x.12, f16[] %y.12)
}

%add.13 (x.13: f16[], y.13: f16[]) -> f16[] {
  %x.13 = f16[] parameter(0)
  %y.13 = f16[] parameter(1)
  ROOT %add.39 = f16[] add(f16[] %x.13, f16[] %y.13)
}

%region_38.1688 (Arg_0.1689: f16[], Arg_1.1690: f16[]) -> f16[] {
  %Arg_0.1689 = f16[] parameter(0)
  %Arg_1.1690 = f16[] parameter(1)
  ROOT %maximum.1691 = f16[] maximum(f16[] %Arg_0.1689, f16[] %Arg_1.1690), metadata={op_name="parallelize(train_step_shard_parallel)/jit(main)/reduce_max[axes=(2,)]" source_file="/code/alpa/playground/alpa_micro_benchmark/test_export_hlo.py" source_line=88}
}

%region_39.1700 (Arg_0.1701: f32[], Arg_1.1702: f32[]) -> f32[] {
  %Arg_0.1701 = f32[] parameter(0)
  %Arg_1.1702 = f32[] parameter(1)
  ROOT %add.1703 = f32[] add(f32[] %Arg_0.1701, f32[] %Arg_1.1702), metadata={op_name="parallelize(train_step_shard_parallel)/jit(main)/reduce_sum[axes=(2,)]" source_file="/code/alpa/playground/alpa_micro_benchmark/test_export_hlo.py" source_line=88}
}

%add.14 (x.14: f16[], y.14: f16[]) -> f16[] {
  %x.14 = f16[] parameter(0)
  %y.14 = f16[] parameter(1)
  ROOT %add.40 = f16[] add(f16[] %x.14, f16[] %y.14)
}

%region_45.1817 (Arg_0.1818: f16[], Arg_1.1819: f16[]) -> f16[] {
  %Arg_0.1818 = f16[] parameter(0)
  %Arg_1.1819 = f16[] parameter(1)
  ROOT %maximum.1820 = f16[] maximum(f16[] %Arg_0.1818, f16[] %Arg_1.1819), metadata={op_name="parallelize(train_step_shard_parallel)/jit(main)/transpose(jvp(FlaxGPTForLMModule))/transformers/encoder/layer/5/remat(core_fn)/5/attention/self/reduce_max[axes=(3,)]" source_file="/python3.9-env/lib/python3.9/site-packages/flax/linen/attention.py" source_line=107}
}

%add.15 (x.15: f16[], y.15: f16[]) -> f16[] {
  %x.15 = f16[] parameter(0)
  %y.15 = f16[] parameter(1)
  ROOT %add.41 = f16[] add(f16[] %x.15, f16[] %y.15)
}

%add.16 (x.16: f16[], y.16: f16[]) -> f16[] {
  %x.16 = f16[] parameter(0)
  %y.16 = f16[] parameter(1)
  ROOT %add.42 = f16[] add(f16[] %x.16, f16[] %y.16)
}

%add.17 (x.17: f16[], y.17: f16[]) -> f16[] {
  %x.17 = f16[] parameter(0)
  %y.17 = f16[] parameter(1)
  ROOT %add.43 = f16[] add(f16[] %x.17, f16[] %y.17)
}

%add.18 (x.18: f16[], y.18: f16[]) -> f16[] {
  %x.18 = f16[] parameter(0)
  %y.18 = f16[] parameter(1)
  ROOT %add.44 = f16[] add(f16[] %x.18, f16[] %y.18)
}

%region_65.2276 (Arg_0.2277: f16[], Arg_1.2278: f16[]) -> f16[] {
  %Arg_0.2277 = f16[] parameter(0)
  %Arg_1.2278 = f16[] parameter(1)
  ROOT %maximum.2279 = f16[] maximum(f16[] %Arg_0.2277, f16[] %Arg_1.2278), metadata={op_name="parallelize(train_step_shard_parallel)/jit(main)/transpose(jvp(FlaxGPTForLMModule))/transformers/encoder/layer/4/remat(core_fn)/4/attention/self/reduce_max[axes=(3,)]" source_file="/python3.9-env/lib/python3.9/site-packages/flax/linen/attention.py" source_line=107}
}

%add.19 (x.19: f16[], y.19: f16[]) -> f16[] {
  %x.19 = f16[] parameter(0)
  %y.19 = f16[] parameter(1)
  ROOT %add.45 = f16[] add(f16[] %x.19, f16[] %y.19)
}

%add.20 (x.20: f16[], y.20: f16[]) -> f16[] {
  %x.20 = f16[] parameter(0)
  %y.20 = f16[] parameter(1)
  ROOT %add.46 = f16[] add(f16[] %x.20, f16[] %y.20)
}

%add.21 (x.21: f16[], y.21: f16[]) -> f16[] {
  %x.21 = f16[] parameter(0)
  %y.21 = f16[] parameter(1)
  ROOT %add.47 = f16[] add(f16[] %x.21, f16[] %y.21)
}

%add.22 (x.22: f16[], y.22: f16[]) -> f16[] {
  %x.22 = f16[] parameter(0)
  %y.22 = f16[] parameter(1)
  ROOT %add.48 = f16[] add(f16[] %x.22, f16[] %y.22)
}

%region_85.2735 (Arg_0.2736: f16[], Arg_1.2737: f16[]) -> f16[] {
  %Arg_0.2736 = f16[] parameter(0)
  %Arg_1.2737 = f16[] parameter(1)
  ROOT %maximum.2738 = f16[] maximum(f16[] %Arg_0.2736, f16[] %Arg_1.2737), metadata={op_name="parallelize(train_step_shard_parallel)/jit(main)/transpose(jvp(FlaxGPTForLMModule))/transformers/encoder/layer/3/remat(core_fn)/3/attention/self/reduce_max[axes=(3,)]" source_file="/python3.9-env/lib/python3.9/site-packages/flax/linen/attention.py" source_line=107}
}

%add.23 (x.23: f16[], y.23: f16[]) -> f16[] {
  %x.23 = f16[] parameter(0)
  %y.23 = f16[] parameter(1)
  ROOT %add.49 = f16[] add(f16[] %x.23, f16[] %y.23)
}

%add.24 (x.24: f16[], y.24: f16[]) -> f16[] {
  %x.24 = f16[] parameter(0)
  %y.24 = f16[] parameter(1)
  ROOT %add.50 = f16[] add(f16[] %x.24, f16[] %y.24)
}

%add.25 (x.25: f16[], y.25: f16[]) -> f16[] {
  %x.25 = f16[] parameter(0)
  %y.25 = f16[] parameter(1)
  ROOT %add.51 = f16[] add(f16[] %x.25, f16[] %y.25)
}

%add.26 (x.26: f16[], y.26: f16[]) -> f16[] {
  %x.26 = f16[] parameter(0)
  %y.26 = f16[] parameter(1)
  ROOT %add.52 = f16[] add(f16[] %x.26, f16[] %y.26)
}

%region_105.3194 (Arg_0.3195: f16[], Arg_1.3196: f16[]) -> f16[] {
  %Arg_0.3195 = f16[] parameter(0)
  %Arg_1.3196 = f16[] parameter(1)
  ROOT %maximum.3197 = f16[] maximum(f16[] %Arg_0.3195, f16[] %Arg_1.3196), metadata={op_name="parallelize(train_step_shard_parallel)/jit(main)/transpose(jvp(FlaxGPTForLMModule))/transformers/encoder/layer/2/remat(core_fn)/2/attention/self/reduce_max[axes=(3,)]" source_file="/python3.9-env/lib/python3.9/site-packages/flax/linen/attention.py" source_line=107}
}

%add.27 (x.27: f16[], y.27: f16[]) -> f16[] {
  %x.27 = f16[] parameter(0)
  %y.27 = f16[] parameter(1)
  ROOT %add.53 = f16[] add(f16[] %x.27, f16[] %y.27)
}

%add.28 (x.28: f16[], y.28: f16[]) -> f16[] {
  %x.28 = f16[] parameter(0)
  %y.28 = f16[] parameter(1)
  ROOT %add.54 = f16[] add(f16[] %x.28, f16[] %y.28)
}

%add.29 (x.29: f16[], y.29: f16[]) -> f16[] {
  %x.29 = f16[] parameter(0)
  %y.29 = f16[] parameter(1)
  ROOT %add.55 = f16[] add(f16[] %x.29, f16[] %y.29)
}

%add.30 (x.30: f16[], y.30: f16[]) -> f16[] {
  %x.30 = f16[] parameter(0)
  %y.30 = f16[] parameter(1)
  ROOT %add.56 = f16[] add(f16[] %x.30, f16[] %y.30)
}

%region_125.3653 (Arg_0.3654: f16[], Arg_1.3655: f16[]) -> f16[] {
  %Arg_0.3654 = f16[] parameter(0)
  %Arg_1.3655 = f16[] parameter(1)
  ROOT %maximum.3656 = f16[] maximum(f16[] %Arg_0.3654, f16[] %Arg_1.3655), metadata={op_name="parallelize(train_step_shard_parallel)/jit(main)/transpose(jvp(FlaxGPTForLMModule))/transformers/encoder/layer/1/remat(core_fn)/1/attention/self/reduce_max[axes=(3,)]" source_file="/python3.9-env/lib/python3.9/site-packages/flax/linen/attention.py" source_line=107}
}

%add.31 (x.31: f16[], y.31: f16[]) -> f16[] {
  %x.31 = f16[] parameter(0)
  %y.31 = f16[] parameter(1)
  ROOT %add.57 = f16[] add(f16[] %x.31, f16[] %y.31)
}

%add.32 (x.32: f16[], y.32: f16[]) -> f16[] {
  %x.32 = f16[] parameter(0)
  %y.32 = f16[] parameter(1)
  ROOT %add.58 = f16[] add(f16[] %x.32, f16[] %y.32)
}

%add.33 (x.33: f16[], y.33: f16[]) -> f16[] {
  %x.33 = f16[] parameter(0)
  %y.33 = f16[] parameter(1)
  ROOT %add.59 = f16[] add(f16[] %x.33, f16[] %y.33)
}

%add.34 (x.34: f16[], y.34: f16[]) -> f16[] {
  %x.34 = f16[] parameter(0)
  %y.34 = f16[] parameter(1)
  ROOT %add.60 = f16[] add(f16[] %x.34, f16[] %y.34)
}

%region_145.4112 (Arg_0.4113: f16[], Arg_1.4114: f16[]) -> f16[] {
  %Arg_0.4113 = f16[] parameter(0)
  %Arg_1.4114 = f16[] parameter(1)
  ROOT %maximum.4115 = f16[] maximum(f16[] %Arg_0.4113, f16[] %Arg_1.4114), metadata={op_name="parallelize(train_step_shard_parallel)/jit(main)/transpose(jvp(FlaxGPTForLMModule))/transformers/encoder/layer/0/remat(core_fn)/0/attention/self/reduce_max[axes=(3,)]" source_file="/python3.9-env/lib/python3.9/site-packages/flax/linen/attention.py" source_line=107}
}

%add.35 (x.35: f16[], y.35: f16[]) -> f16[] {
  %x.35 = f16[] parameter(0)
  %y.35 = f16[] parameter(1)
  ROOT %add.61 = f16[] add(f16[] %x.35, f16[] %y.35)
}

%add.36 (x.36: f16[], y.36: f16[]) -> f16[] {
  %x.36 = f16[] parameter(0)
  %y.36 = f16[] parameter(1)
  ROOT %add.62 = f16[] add(f16[] %x.36, f16[] %y.36)
}

%add.37 (x.37: f16[], y.37: f16[]) -> f16[] {
  %x.37 = f16[] parameter(0)
  %y.37 = f16[] parameter(1)
  ROOT %add.63 = f16[] add(f16[] %x.37, f16[] %y.37)
}

%add.38 (x.38: f16[], y.38: f16[]) -> f16[] {
  %x.38 = f16[] parameter(0)
  %y.38 = f16[] parameter(1)
  ROOT %add.64 = f16[] add(f16[] %x.38, f16[] %y.38)
}

%region_52.2025 (Arg_0.2026: f32[], Arg_1.2027: f32[]) -> f32[] {
  %Arg_0.2026 = f32[] parameter(0)
  %Arg_1.2027 = f32[] parameter(1)
  ROOT %add.2028 = f32[] add(f32[] %Arg_0.2026, f32[] %Arg_1.2027), metadata={op_name="parallelize(train_step_shard_parallel)/jit(main)/transpose(jvp(FlaxGPTForLMModule))/transformers/encoder/layer/5/remat(core_fn)/5/output/LayerNorm/reduce_sum[axes=(0, 1)]" source_file="/python3.9-env/lib/python3.9/site-packages/flax/linen/normalization.py" source_line=144}
}

%region_51.2015 (Arg_0.2016: f32[], Arg_1.2017: f32[]) -> f32[] {
  %Arg_0.2016 = f32[] parameter(0)
  %Arg_1.2017 = f32[] parameter(1)
  ROOT %add.2018 = f32[] add(f32[] %Arg_0.2016, f32[] %Arg_1.2017), metadata={op_name="parallelize(train_step_shard_parallel)/jit(main)/transpose(jvp(FlaxGPTForLMModule))/transformers/encoder/layer/5/remat(core_fn)/5/output/LayerNorm/reduce_sum[axes=(0, 1)]" source_file="/python3.9-env/lib/python3.9/site-packages/flax/linen/normalization.py" source_line=150}
}

%fused_computation.9 (param_0.1997: f32[], param_1.2425: f32[4,1024], param_2.2188: f32[], param_3.1652: f32[4,1024], param_4.1113: f32[], param_5.1119: f32[], param_6.951: f16[4,1024,1024], param_7.575: f16[4,1024,1024]) -> (f32[1024], f32[1024]) {
  %param_5.1119 = f32[] parameter(5)
  %broadcast.2185 = f32[4,1024]{1,0} broadcast(f32[] %param_5.1119), dimensions={}, metadata={op_name="parallelize(train_step_shard_parallel)/jit(main)/transpose(jvp(FlaxGPTForLMModule))/transformers/encoder/layer/5/remat(core_fn)/5/output/LayerNorm/max" source_file="/python3.9-env/lib/python3.9/site-packages/flax/linen/normalization.py" source_line=93}
  %param_3.1652 = f32[4,1024]{1,0} parameter(3)
  %param_4.1113 = f32[] parameter(4)
  %broadcast.2184 = f32[4,1024]{1,0} broadcast(f32[] %param_4.1113), dimensions={}, metadata={op_name="parallelize(train_step_shard_parallel)/jit(main)/transpose(jvp(FlaxGPTForLMModule))/transformers/encoder/layer/5/remat(core_fn)/5/output/LayerNorm/div" source_file="/python3.9-env/lib/python3.9/site-packages/flax/linen/normalization.py" source_line=83}
  %divide.701 = f32[4,1024]{1,0} divide(f32[4,1024]{1,0} %param_3.1652, f32[4,1024]{1,0} %broadcast.2184), metadata={op_name="parallelize(train_step_shard_parallel)/jit(main)/transpose(jvp(FlaxGPTForLMModule))/transformers/encoder/layer/5/remat(core_fn)/5/output/LayerNorm/div" source_file="/python3.9-env/lib/python3.9/site-packages/flax/linen/normalization.py" source_line=83}
  %param_1.2425 = f32[4,1024]{1,0} parameter(1)
  %param_2.2188 = f32[] parameter(2)
  %broadcast.2183 = f32[4,1024]{1,0} broadcast(f32[] %param_2.2188), dimensions={}, metadata={op_name="parallelize(train_step_shard_parallel)/jit(main)/transpose(jvp(FlaxGPTForLMModule))/transformers/encoder/layer/5/remat(core_fn)/5/output/LayerNorm/div" source_file="/python3.9-env/lib/python3.9/site-packages/flax/linen/normalization.py" source_line=82}
  %divide.700 = f32[4,1024]{1,0} divide(f32[4,1024]{1,0} %param_1.2425, f32[4,1024]{1,0} %broadcast.2183), metadata={op_name="parallelize(train_step_shard_parallel)/jit(main)/transpose(jvp(FlaxGPTForLMModule))/transformers/encoder/layer/5/remat(core_fn)/5/output/LayerNorm/div" source_file="/python3.9-env/lib/python3.9/site-packages/flax/linen/normalization.py" source_line=82}
  %multiply.2292 = f32[4,1024]{1,0} multiply(f32[4,1024]{1,0} %divide.700, f32[4,1024]{1,0} %divide.700), metadata={op_name="parallelize(train_step_shard_parallel)/jit(main)/transpose(jvp(FlaxGPTForLMModule))/transformers/encoder/layer/5/remat(core_fn)/5/output/LayerNorm/mul" source_file="/python3.9-env/lib/python3.9/site-packages/flax/linen/normalization.py" source_line=46}
  %subtract.201 = f32[4,1024]{1,0} subtract(f32[4,1024]{1,0} %divide.701, f32[4,1024]{1,0} %multiply.2292), metadata={op_name="parallelize(train_step_shard_parallel)/jit(main)/transpose(jvp(FlaxGPTForLMModule))/transformers/encoder/layer/5/remat(core_fn)/5/output/LayerNorm/sub" source_file="/python3.9-env/lib/python3.9/site-packages/flax/linen/normalization.py" source_line=93}
  %maximum.90 = f32[4,1024]{1,0} maximum(f32[4,1024]{1,0} %broadcast.2185, f32[4,1024]{1,0} %subtract.201), metadata={op_name="parallelize(train_step_shard_parallel)/jit(main)/transpose(jvp(FlaxGPTForLMModule))/transformers/encoder/layer/5/remat(core_fn)/5/output/LayerNorm/max" source_file="/python3.9-env/lib/python3.9/site-packages/flax/linen/normalization.py" source_line=93}
  %param_0.1997 = f32[] parameter(0)
  %broadcast.2182 = f32[4,1024]{1,0} broadcast(f32[] %param_0.1997), dimensions={}, metadata={op_name="parallelize(train_step_shard_parallel)/jit(main)/transpose(jvp(FlaxGPTForLMModule))/transformers/encoder/layer/5/remat(core_fn)/5/output/LayerNorm/add" source_file="/python3.9-env/lib/python3.9/site-packages/flax/linen/normalization.py" source_line=139}
  %add.1726 = f32[4,1024]{1,0} add(f32[4,1024]{1,0} %maximum.90, f32[4,1024]{1,0} %broadcast.2182), metadata={op_name="parallelize(train_step_shard_parallel)/jit(main)/transpose(jvp(FlaxGPTForLMModule))/transformers/encoder/layer/5/remat(core_fn)/5/output/LayerNorm/add" source_file="/python3.9-env/lib/python3.9/site-packages/flax/linen/normalization.py" source_line=139}
  %bitcast.1240 = f32[4,1024,1]{1,0,2} bitcast(f32[4,1024]{1,0} %add.1726), metadata={op_name="parallelize(train_step_shard_parallel)/jit(main)/transpose(jvp(FlaxGPTForLMModule))/transformers/encoder/layer/5/remat(core_fn)/5/output/LayerNorm/add" source_file="/python3.9-env/lib/python3.9/site-packages/flax/linen/normalization.py" source_line=139}
  %rsqrt.78 = f32[4,1024,1]{1,0,2} rsqrt(f32[4,1024,1]{1,0,2} %bitcast.1240), metadata={op_name="parallelize(train_step_shard_parallel)/jit(main)/transpose(jvp(FlaxGPTForLMModule))/transformers/encoder/layer/5/remat(core_fn)/5/output/LayerNorm/rsqrt" source_file="/python3.9-env/lib/python3.9/site-packages/flax/linen/normalization.py" source_line=139}
  %bitcast.1239 = f32[4,1024]{1,0} bitcast(f32[4,1024,1]{1,0,2} %rsqrt.78), metadata={op_name="parallelize(train_step_shard_parallel)/jit(main)/transpose(jvp(FlaxGPTForLMModule))/transformers/encoder/layer/5/remat(core_fn)/5/output/LayerNorm/mul" source_file="/python3.9-env/lib/python3.9/site-packages/flax/linen/normalization.py" source_line=144}
  %broadcast.2181 = f32[4,1024,1024]{2,1,0} broadcast(f32[4,1024]{1,0} %bitcast.1239), dimensions={0,1}, metadata={op_name="parallelize(train_step_shard_parallel)/jit(main)/transpose(jvp(FlaxGPTForLMModule))/transformers/encoder/layer/5/remat(core_fn)/5/output/LayerNorm/mul" source_file="/python3.9-env/lib/python3.9/site-packages/flax/linen/normalization.py" source_line=144}
  %param_7.575 = f16[4,1024,1024]{2,1,0} parameter(7)
  %convert.792 = f32[4,1024,1024]{2,1,0} convert(f16[4,1024,1024]{2,1,0} %param_7.575), metadata={op_name="parallelize(train_step_shard_parallel)/jit(main)/transpose(jvp(FlaxGPTForLMModule))/transformers/encoder/layer/5/remat(core_fn)/5/output/LayerNorm/convert_element_type[new_dtype=float32 weak_type=False]" source_file="/python3.9-env/lib/python3.9/site-packages/flax/linen/normalization.py" source_line=80}
  %broadcast.2216 = f32[4,1024,1024]{2,1,0} broadcast(f32[4,1024]{1,0} %divide.700), dimensions={0,1}, metadata={op_name="parallelize(train_step_shard_parallel)/jit(main)/transpose(jvp(FlaxGPTForLMModule))/transformers/encoder/layer/5/remat(core_fn)/5/output/LayerNorm/sub" source_file="/python3.9-env/lib/python3.9/site-packages/flax/linen/normalization.py" source_line=138}
  %subtract.212 = f32[4,1024,1024]{2,1,0} subtract(f32[4,1024,1024]{2,1,0} %convert.792, f32[4,1024,1024]{2,1,0} %broadcast.2216), metadata={op_name="parallelize(train_step_shard_parallel)/jit(main)/transpose(jvp(FlaxGPTForLMModule))/transformers/encoder/layer/5/remat(core_fn)/5/output/LayerNorm/sub" source_file="/python3.9-env/lib/python3.9/site-packages/flax/linen/normalization.py" source_line=138}
  %param_6.951 = f16[4,1024,1024]{2,1,0} parameter(6)
  %convert.791 = f32[4,1024,1024]{2,1,0} convert(f16[4,1024,1024]{2,1,0} %param_6.951), metadata={op_name="parallelize(train_step_shard_parallel)/jit(main)/transpose(jvp(FlaxGPTForLMModule))/transformers/encoder/layer/5/remat(core_fn)/5/output/LayerNorm/convert_element_type[new_dtype=float32 weak_type=False]" source_file="/python3.9-env/lib/python3.9/site-packages/flax/linen/normalization.py" source_line=153}
  %multiply.2308 = f32[4,1024,1024]{2,1,0} multiply(f32[4,1024,1024]{2,1,0} %subtract.212, f32[4,1024,1024]{2,1,0} %convert.791), metadata={op_name="parallelize(train_step_shard_parallel)/jit(main)/transpose(jvp(FlaxGPTForLMModule))/transformers/encoder/layer/5/remat(core_fn)/5/output/LayerNorm/mul" source_file="/python3.9-env/lib/python3.9/site-packages/flax/linen/normalization.py" source_line=146}
  %multiply.24 = f32[4,1024,1024]{2,1,0} multiply(f32[4,1024,1024]{2,1,0} %broadcast.2181, f32[4,1024,1024]{2,1,0} %multiply.2308), metadata={op_name="parallelize(train_step_shard_parallel)/jit(main)/transpose(jvp(FlaxGPTForLMModule))/transformers/encoder/layer/5/remat(core_fn)/5/output/LayerNorm/mul" source_file="/python3.9-env/lib/python3.9/site-packages/flax/linen/normalization.py" source_line=144}
  %bitcast.622 = f32[4096,1024]{1,0} bitcast(f32[4,1024,1024]{2,1,0} %multiply.24)
  %constant_31 = f32[] constant(0)
  %reduce.213 = f32[1024]{0} reduce(f32[4096,1024]{1,0} %bitcast.622, f32[] %constant_31), dimensions={0}, to_apply=%region_52.2025, metadata={op_name="parallelize(train_step_shard_parallel)/jit(main)/transpose(jvp(FlaxGPTForLMModule))/transformers/encoder/layer/5/remat(core_fn)/5/output/LayerNorm/reduce_sum[axes=(0, 1)]" source_file="/python3.9-env/lib/python3.9/site-packages/flax/linen/normalization.py" source_line=144}
  %bitcast.623.clone.1 = f32[4096,1024]{1,0} bitcast(f32[4,1024,1024]{2,1,0} %convert.791)
  %reduce.214.clone.1 = f32[1024]{0} reduce(f32[4096,1024]{1,0} %bitcast.623.clone.1, f32[] %constant_31), dimensions={0}, to_apply=%region_51.2015, metadata={op_name="parallelize(train_step_shard_parallel)/jit(main)/transpose(jvp(FlaxGPTForLMModule))/transformers/encoder/layer/5/remat(core_fn)/5/output/LayerNorm/reduce_sum[axes=(0, 1)]" source_file="/python3.9-env/lib/python3.9/site-packages/flax/linen/normalization.py" source_line=150}
  ROOT %tuple.215 = (f32[1024]{0}, f32[1024]{0}) tuple(f32[1024]{0} %reduce.213, f32[1024]{0} %reduce.214.clone.1)
}

%region_58.2105 (Arg_0.2106: f32[], Arg_1.2107: f32[]) -> f32[] {
  %Arg_0.2106 = f32[] parameter(0)
  %Arg_1.2107 = f32[] parameter(1)
  ROOT %add.2108 = f32[] add(f32[] %Arg_0.2106, f32[] %Arg_1.2107), metadata={op_name="parallelize(train_step_shard_parallel)/jit(main)/transpose(jvp(FlaxGPTForLMModule))/transformers/encoder/layer/5/remat(core_fn)/5/attention/output/LayerNorm/reduce_sum[axes=(0, 1)]" source_file="/python3.9-env/lib/python3.9/site-packages/flax/linen/normalization.py" source_line=144}
}

%region_57.2095 (Arg_0.2096: f32[], Arg_1.2097: f32[]) -> f32[] {
  %Arg_0.2096 = f32[] parameter(0)
  %Arg_1.2097 = f32[] parameter(1)
  ROOT %add.2098 = f32[] add(f32[] %Arg_0.2096, f32[] %Arg_1.2097), metadata={op_name="parallelize(train_step_shard_parallel)/jit(main)/transpose(jvp(FlaxGPTForLMModule))/transformers/encoder/layer/5/remat(core_fn)/5/attention/output/LayerNorm/reduce_sum[axes=(0, 1)]" source_file="/python3.9-env/lib/python3.9/site-packages/flax/linen/normalization.py" source_line=150}
}

%fused_computation.35 (param_0.2012: f32[], param_1.2444: f32[4,1024], param_2.2209: f32[], param_3.1669: f32[4,1024], param_4.1131: f32[], param_5.1133: f32[], param_6.962: f16[4,1024,1024], param_7.588: f16[4096,1024], param_8.328: f16[4,1024,1024]) -> (f32[1024], f32[1024]) {
  %param_5.1133 = f32[] parameter(5)
  %broadcast.2063 = f32[4,1024]{1,0} broadcast(f32[] %param_5.1133), dimensions={}, metadata={op_name="parallelize(train_step_shard_parallel)/jit(main)/transpose(jvp(FlaxGPTForLMModule))/transformers/encoder/layer/5/remat(core_fn)/5/attention/output/LayerNorm/max" source_file="/python3.9-env/lib/python3.9/site-packages/flax/linen/normalization.py" source_line=93}
  %param_3.1669 = f32[4,1024]{1,0} parameter(3)
  %param_4.1131 = f32[] parameter(4)
  %broadcast.2062 = f32[4,1024]{1,0} broadcast(f32[] %param_4.1131), dimensions={}, metadata={op_name="parallelize(train_step_shard_parallel)/jit(main)/transpose(jvp(FlaxGPTForLMModule))/transformers/encoder/layer/5/remat(core_fn)/5/attention/output/LayerNorm/div" source_file="/python3.9-env/lib/python3.9/site-packages/flax/linen/normalization.py" source_line=83}
  %divide.665 = f32[4,1024]{1,0} divide(f32[4,1024]{1,0} %param_3.1669, f32[4,1024]{1,0} %broadcast.2062), metadata={op_name="parallelize(train_step_shard_parallel)/jit(main)/transpose(jvp(FlaxGPTForLMModule))/transformers/encoder/layer/5/remat(core_fn)/5/attention/output/LayerNorm/div" source_file="/python3.9-env/lib/python3.9/site-packages/flax/linen/normalization.py" source_line=83}
  %param_1.2444 = f32[4,1024]{1,0} parameter(1)
  %param_2.2209 = f32[] parameter(2)
  %broadcast.2061 = f32[4,1024]{1,0} broadcast(f32[] %param_2.2209), dimensions={}, metadata={op_name="parallelize(train_step_shard_parallel)/jit(main)/transpose(jvp(FlaxGPTForLMModule))/transformers/encoder/layer/5/remat(core_fn)/5/attention/output/LayerNorm/div" source_file="/python3.9-env/lib/python3.9/site-packages/flax/linen/normalization.py" source_line=82}
  %divide.664 = f32[4,1024]{1,0} divide(f32[4,1024]{1,0} %param_1.2444, f32[4,1024]{1,0} %broadcast.2061), metadata={op_name="parallelize(train_step_shard_parallel)/jit(main)/transpose(jvp(FlaxGPTForLMModule))/transformers/encoder/layer/5/remat(core_fn)/5/attention/output/LayerNorm/div" source_file="/python3.9-env/lib/python3.9/site-packages/flax/linen/normalization.py" source_line=82}
  %multiply.2226 = f32[4,1024]{1,0} multiply(f32[4,1024]{1,0} %divide.664, f32[4,1024]{1,0} %divide.664), metadata={op_name="parallelize(train_step_shard_parallel)/jit(main)/transpose(jvp(FlaxGPTForLMModule))/transformers/encoder/layer/5/remat(core_fn)/5/attention/output/LayerNorm/mul" source_file="/python3.9-env/lib/python3.9/site-packages/flax/linen/normalization.py" source_line=46}
  %subtract.185 = f32[4,1024]{1,0} subtract(f32[4,1024]{1,0} %divide.665, f32[4,1024]{1,0} %multiply.2226), metadata={op_name="parallelize(train_step_shard_parallel)/jit(main)/transpose(jvp(FlaxGPTForLMModule))/transformers/encoder/layer/5/remat(core_fn)/5/attention/output/LayerNorm/sub" source_file="/python3.9-env/lib/python3.9/site-packages/flax/linen/normalization.py" source_line=93}
  %maximum.80 = f32[4,1024]{1,0} maximum(f32[4,1024]{1,0} %broadcast.2063, f32[4,1024]{1,0} %subtract.185), metadata={op_name="parallelize(train_step_shard_parallel)/jit(main)/transpose(jvp(FlaxGPTForLMModule))/transformers/encoder/layer/5/remat(core_fn)/5/attention/output/LayerNorm/max" source_file="/python3.9-env/lib/python3.9/site-packages/flax/linen/normalization.py" source_line=93}
  %param_0.2012 = f32[] parameter(0)
  %broadcast.2060 = f32[4,1024]{1,0} broadcast(f32[] %param_0.2012), dimensions={}, metadata={op_name="parallelize(train_step_shard_parallel)/jit(main)/transpose(jvp(FlaxGPTForLMModule))/transformers/encoder/layer/5/remat(core_fn)/5/attention/output/LayerNorm/add" source_file="/python3.9-env/lib/python3.9/site-packages/flax/linen/normalization.py" source_line=139}
  %add.1661 = f32[4,1024]{1,0} add(f32[4,1024]{1,0} %maximum.80, f32[4,1024]{1,0} %broadcast.2060), metadata={op_name="parallelize(train_step_shard_parallel)/jit(main)/transpose(jvp(FlaxGPTForLMModule))/transformers/encoder/layer/5/remat(core_fn)/5/attention/output/LayerNorm/add" source_file="/python3.9-env/lib/python3.9/site-packages/flax/linen/normalization.py" source_line=139}
  %bitcast.1220 = f32[4,1024,1]{1,0,2} bitcast(f32[4,1024]{1,0} %add.1661), metadata={op_name="parallelize(train_step_shard_parallel)/jit(main)/transpose(jvp(FlaxGPTForLMModule))/transformers/encoder/layer/5/remat(core_fn)/5/attention/output/LayerNorm/add" source_file="/python3.9-env/lib/python3.9/site-packages/flax/linen/normalization.py" source_line=139}
  %rsqrt.72 = f32[4,1024,1]{1,0,2} rsqrt(f32[4,1024,1]{1,0,2} %bitcast.1220), metadata={op_name="parallelize(train_step_shard_parallel)/jit(main)/transpose(jvp(FlaxGPTForLMModule))/transformers/encoder/layer/5/remat(core_fn)/5/attention/output/LayerNorm/rsqrt" source_file="/python3.9-env/lib/python3.9/site-packages/flax/linen/normalization.py" source_line=139}
  %bitcast.1219 = f32[4,1024]{1,0} bitcast(f32[4,1024,1]{1,0,2} %rsqrt.72), metadata={op_name="parallelize(train_step_shard_parallel)/jit(main)/transpose(jvp(FlaxGPTForLMModule))/transformers/encoder/layer/5/remat(core_fn)/5/attention/output/LayerNorm/mul" source_file="/python3.9-env/lib/python3.9/site-packages/flax/linen/normalization.py" source_line=144}
  %broadcast.2059 = f32[4,1024,1024]{2,1,0} broadcast(f32[4,1024]{1,0} %bitcast.1219), dimensions={0,1}, metadata={op_name="parallelize(train_step_shard_parallel)/jit(main)/transpose(jvp(FlaxGPTForLMModule))/transformers/encoder/layer/5/remat(core_fn)/5/attention/output/LayerNorm/mul" source_file="/python3.9-env/lib/python3.9/site-packages/flax/linen/normalization.py" source_line=144}
  %param_8.328 = f16[4,1024,1024]{2,1,0} parameter(8)
  %convert.804 = f32[4,1024,1024]{2,1,0} convert(f16[4,1024,1024]{2,1,0} %param_8.328), metadata={op_name="parallelize(train_step_shard_parallel)/jit(main)/transpose(jvp(FlaxGPTForLMModule))/transformers/encoder/layer/5/remat(core_fn)/5/attention/output/LayerNorm/convert_element_type[new_dtype=float32 weak_type=False]" source_file="/python3.9-env/lib/python3.9/site-packages/flax/linen/normalization.py" source_line=80}
  %broadcast.2248 = f32[4,1024,1024]{2,1,0} broadcast(f32[4,1024]{1,0} %divide.664), dimensions={0,1}, metadata={op_name="parallelize(train_step_shard_parallel)/jit(main)/transpose(jvp(FlaxGPTForLMModule))/transformers/encoder/layer/5/remat(core_fn)/5/attention/output/LayerNorm/sub" source_file="/python3.9-env/lib/python3.9/site-packages/flax/linen/normalization.py" source_line=138}
  %subtract.220 = f32[4,1024,1024]{2,1,0} subtract(f32[4,1024,1024]{2,1,0} %convert.804, f32[4,1024,1024]{2,1,0} %broadcast.2248), metadata={op_name="parallelize(train_step_shard_parallel)/jit(main)/transpose(jvp(FlaxGPTForLMModule))/transformers/encoder/layer/5/remat(core_fn)/5/attention/output/LayerNorm/sub" source_file="/python3.9-env/lib/python3.9/site-packages/flax/linen/normalization.py" source_line=138}
  %param_6.962 = f16[4,1024,1024]{2,1,0} parameter(6)
  %param_7.588 = f16[4096,1024]{1,0} parameter(7)
  %bitcast.1270 = f16[4,1024,1024]{2,1,0} bitcast(f16[4096,1024]{1,0} %param_7.588), metadata={op_name="parallelize(train_step_shard_parallel)/jit(main)/transpose(jvp(FlaxGPTForLMModule))/transformers/encoder/layer/5/remat(core_fn)/5/intermediate/dense/dot_general[dimension_numbers=(((2,), (1,)), ((), ())) precision=None preferred_element_type=None]" source_file="/python3.9-env/lib/python3.9/site-packages/flax/linen/linear.py" source_line=196}
  %add.1749 = f16[4,1024,1024]{2,1,0} add(f16[4,1024,1024]{2,1,0} %param_6.962, f16[4,1024,1024]{2,1,0} %bitcast.1270), metadata={op_name="parallelize(train_step_shard_parallel)/jit(main)/transpose(jvp(FlaxGPTForLMModule))/transformers/encoder/layer/5/remat(core_fn)/5/intermediate/dense/add_any" source_file="/python3.9-env/lib/python3.9/site-packages/flax/linen/linear.py" source_line=196}
  %convert.803 = f32[4,1024,1024]{2,1,0} convert(f16[4,1024,1024]{2,1,0} %add.1749), metadata={op_name="parallelize(train_step_shard_parallel)/jit(main)/transpose(jvp(FlaxGPTForLMModule))/transformers/encoder/layer/5/remat(core_fn)/5/attention/output/LayerNorm/convert_element_type[new_dtype=float32 weak_type=False]" source_file="/python3.9-env/lib/python3.9/site-packages/flax/linen/normalization.py" source_line=153}
  %multiply.2324 = f32[4,1024,1024]{2,1,0} multiply(f32[4,1024,1024]{2,1,0} %subtract.220, f32[4,1024,1024]{2,1,0} %convert.803), metadata={op_name="parallelize(train_step_shard_parallel)/jit(main)/transpose(jvp(FlaxGPTForLMModule))/transformers/encoder/layer/5/remat(core_fn)/5/attention/output/LayerNorm/mul" source_file="/python3.9-env/lib/python3.9/site-packages/flax/linen/normalization.py" source_line=146}
  %multiply.84 = f32[4,1024,1024]{2,1,0} multiply(f32[4,1024,1024]{2,1,0} %broadcast.2059, f32[4,1024,1024]{2,1,0} %multiply.2324), metadata={op_name="parallelize(train_step_shard_parallel)/jit(main)/transpose(jvp(FlaxGPTForLMModule))/transformers/encoder/layer/5/remat(core_fn)/5/attention/output/LayerNorm/mul" source_file="/python3.9-env/lib/python3.9/site-packages/flax/linen/normalization.py" source_line=144}
  %bitcast.624 = f32[4096,1024]{1,0} bitcast(f32[4,1024,1024]{2,1,0} %multiply.84)
  %constant_97 = f32[] constant(0)
  %reduce.215 = f32[1024]{0} reduce(f32[4096,1024]{1,0} %bitcast.624, f32[] %constant_97), dimensions={0}, to_apply=%region_58.2105, metadata={op_name="parallelize(train_step_shard_parallel)/jit(main)/transpose(jvp(FlaxGPTForLMModule))/transformers/encoder/layer/5/remat(core_fn)/5/attention/output/LayerNorm/reduce_sum[axes=(0, 1)]" source_file="/python3.9-env/lib/python3.9/site-packages/flax/linen/normalization.py" source_line=144}
  %bitcast.625.clone.1 = f32[4096,1024]{1,0} bitcast(f32[4,1024,1024]{2,1,0} %convert.803)
  %reduce.216.clone.1 = f32[1024]{0} reduce(f32[4096,1024]{1,0} %bitcast.625.clone.1, f32[] %constant_97), dimensions={0}, to_apply=%region_57.2095, metadata={op_name="parallelize(train_step_shard_parallel)/jit(main)/transpose(jvp(FlaxGPTForLMModule))/transformers/encoder/layer/5/remat(core_fn)/5/attention/output/LayerNorm/reduce_sum[axes=(0, 1)]" source_file="/python3.9-env/lib/python3.9/site-packages/flax/linen/normalization.py" source_line=150}
  ROOT %tuple.213 = (f32[1024]{0}, f32[1024]{0}) tuple(f32[1024]{0} %reduce.215, f32[1024]{0} %reduce.216.clone.1)
}

%fused_computation.46 (param_0.78: f32[1024], param_1.2939: f32[], param_2.2784: f32[], param_3.2216: f32[1024], param_4.1651: f32[1024], param_5.1716: f32[1024], param_6.1928: f32[1024], param_7.1225: f32[1024], param_8.662: f32[1024], param_9.575: f32[1024], param_10.530: f32[1024], param_11.455: f32[1024], param_12.380: f16[1024], param_13.414: f32[1024], param_14.529: f32[1024], param_15.521: f32[1024], param_16.471: f32[1024], param_17.373: f32[1024], param_18.283: f32[1024], param_19.145: f32[1024], param_20.39: f32[1024], param_21.75: f32[1024], param_22.155: f32[1024], param_23.109: f32[1024], param_24.39: f16[1024], param_25.75: f32[1024], param_26.135: f32[1024], param_27.89: f32[1024], param_28.14: f32[1024], param_29.27: f32[1024], param_30.52: f32[1024], param_31.33: f32[1024], param_32.9: f32[1024], param_33.17: f32[1024]) -> (f32[1024], f32[1024], f32[1024], f32[1024], f32[1024], /*index=5*/f32[1024], f32[1024], f32[1024], f32[1024], f32[1024], /*index=10*/f32[1024], f32[1024], f32[1024], f32[1024], f32[1024], /*index=15*/f32[1024], f32[1024], f32[1024], f32[1024], f32[1024], /*index=20*/f32[1024], f32[1024], f32[1024], f32[1024]) {
  %param_0.78 = f32[1024]{0} parameter(0)
  %param_4.1651 = f32[1024]{0} parameter(4)
  %constant_127_clone_1 = f32[] constant(0.1)
  %broadcast.399.clone.1 = f32[1024]{0} broadcast(f32[] %constant_127_clone_1), dimensions={}, metadata={op_name="parallelize(train_step_shard_parallel)/jit(main)/mul" source_file="/python3.9-env/lib/python3.9/site-packages/optax/_src/transform.py" source_line=84}
  %multiply.113.clone.1 = f32[1024]{0} multiply(f32[1024]{0} %param_4.1651, f32[1024]{0} %broadcast.399.clone.1), metadata={op_name="parallelize(train_step_shard_parallel)/jit(main)/mul" source_file="/python3.9-env/lib/python3.9/site-packages/optax/_src/transform.py" source_line=84}
  %param_5.1716 = f32[1024]{0} parameter(5)
  %constant_128_clone_1 = f32[] constant(0.9)
  %broadcast.400.clone.1 = f32[1024]{0} broadcast(f32[] %constant_128_clone_1), dimensions={}, metadata={op_name="parallelize(train_step_shard_parallel)/jit(main)/mul" source_file="/python3.9-env/lib/python3.9/site-packages/optax/_src/transform.py" source_line=84}
  %multiply.112.clone.1 = f32[1024]{0} multiply(f32[1024]{0} %param_5.1716, f32[1024]{0} %broadcast.400.clone.1), metadata={op_name="parallelize(train_step_shard_parallel)/jit(main)/mul" source_file="/python3.9-env/lib/python3.9/site-packages/optax/_src/transform.py" source_line=84}
  %add.867.clone.1 = f32[1024]{0} add(f32[1024]{0} %multiply.113.clone.1, f32[1024]{0} %multiply.112.clone.1), metadata={op_name="parallelize(train_step_shard_parallel)/jit(main)/add" source_file="/python3.9-env/lib/python3.9/site-packages/optax/_src/transform.py" source_line=84}
  %param_2.2784 = f32[] parameter(2)
  %broadcast.395 = f32[1024]{0} broadcast(f32[] %param_2.2784), dimensions={}, metadata={op_name="parallelize(train_step_shard_parallel)/jit(main)/div" source_file="/python3.9-env/lib/python3.9/site-packages/optax/_src/transform.py" source_line=114}
  %multiply.111.clone.1 = f32[1024]{0} multiply(f32[1024]{0} %param_4.1651, f32[1024]{0} %param_4.1651), metadata={op_name="parallelize(train_step_shard_parallel)/jit(main)/mul" source_file="/python3.9-env/lib/python3.9/site-packages/optax/_src/transform.py" source_line=98}
  %constant_125_clone_1 = f32[] constant(0.001)
  %broadcast.397.clone.1 = f32[1024]{0} broadcast(f32[] %constant_125_clone_1), dimensions={}, metadata={op_name="parallelize(train_step_shard_parallel)/jit(main)/mul" source_file="/python3.9-env/lib/python3.9/site-packages/optax/_src/transform.py" source_line=107}
  %multiply.110.clone.1 = f32[1024]{0} multiply(f32[1024]{0} %multiply.111.clone.1, f32[1024]{0} %broadcast.397.clone.1), metadata={op_name="parallelize(train_step_shard_parallel)/jit(main)/mul" source_file="/python3.9-env/lib/python3.9/site-packages/optax/_src/transform.py" source_line=107}
  %param_3.2216 = f32[1024]{0} parameter(3)
  %constant_126_clone_1 = f32[] constant(0.999)
  %broadcast.398.clone.1 = f32[1024]{0} broadcast(f32[] %constant_126_clone_1), dimensions={}, metadata={op_name="parallelize(train_step_shard_parallel)/jit(main)/mul" source_file="/python3.9-env/lib/python3.9/site-packages/optax/_src/transform.py" source_line=107}
  %multiply.109.clone.1 = f32[1024]{0} multiply(f32[1024]{0} %param_3.2216, f32[1024]{0} %broadcast.398.clone.1), metadata={op_name="parallelize(train_step_shard_parallel)/jit(main)/mul" source_file="/python3.9-env/lib/python3.9/site-packages/optax/_src/transform.py" source_line=107}
  %add.866.clone.1 = f32[1024]{0} add(f32[1024]{0} %multiply.110.clone.1, f32[1024]{0} %multiply.109.clone.1), metadata={op_name="parallelize(train_step_shard_parallel)/jit(main)/add" source_file="/python3.9-env/lib/python3.9/site-packages/optax/_src/transform.py" source_line=107}
  %param_1.2939 = f32[] parameter(1)
  %broadcast.393 = f32[1024]{0} broadcast(f32[] %param_1.2939), dimensions={}, metadata={op_name="parallelize(train_step_shard_parallel)/jit(main)/div" source_file="/python3.9-env/lib/python3.9/site-packages/optax/_src/transform.py" source_line=114}
  %divide.29 = f32[1024]{0} divide(f32[1024]{0} %add.866.clone.1, f32[1024]{0} %broadcast.393), metadata={op_name="parallelize(train_step_shard_parallel)/jit(main)/div" source_file="/python3.9-env/lib/python3.9/site-packages/optax/_src/transform.py" source_line=114}
  %sqrt.91 = f32[1024]{0} sqrt(f32[1024]{0} %divide.29), metadata={op_name="parallelize(train_step_shard_parallel)/jit(main)/sqrt" source_file="/python3.9-env/lib/python3.9/site-packages/optax/_src/transform.py" source_line=340}
  %constant_122 = f32[] constant(1e-08)
  %broadcast.394 = f32[1024]{0} broadcast(f32[] %constant_122), dimensions={}, metadata={op_name="parallelize(train_step_shard_parallel)/jit(main)/add" source_file="/python3.9-env/lib/python3.9/site-packages/optax/_src/transform.py" source_line=340}
  %add.865 = f32[1024]{0} add(f32[1024]{0} %sqrt.91, f32[1024]{0} %broadcast.394), metadata={op_name="parallelize(train_step_shard_parallel)/jit(main)/add" source_file="/python3.9-env/lib/python3.9/site-packages/optax/_src/transform.py" source_line=340}
  %multiply.108 = f32[1024]{0} multiply(f32[1024]{0} %broadcast.395, f32[1024]{0} %add.865)
  %divide.28 = f32[1024]{0} divide(f32[1024]{0} %add.867.clone.1, f32[1024]{0} %multiply.108), metadata={op_name="parallelize(train_step_shard_parallel)/jit(main)/div" source_file="/python3.9-env/lib/python3.9/site-packages/optax/_src/transform.py" source_line=340}
  %constant_123 = f32[] constant(-0.01)
  %broadcast.396 = f32[1024]{0} broadcast(f32[] %constant_123), dimensions={}, metadata={op_name="parallelize(train_step_shard_parallel)/jit(main)/mul" source_file="/python3.9-env/lib/python3.9/site-packages/optax/_src/transform.py" source_line=405}
  %multiply.107 = f32[1024]{0} multiply(f32[1024]{0} %divide.28, f32[1024]{0} %broadcast.396), metadata={op_name="parallelize(train_step_shard_parallel)/jit(main)/mul" source_file="/python3.9-env/lib/python3.9/site-packages/optax/_src/transform.py" source_line=405}
  %add.864 = f32[1024]{0} add(f32[1024]{0} %param_0.78, f32[1024]{0} %multiply.107), metadata={op_name="parallelize(train_step_shard_parallel)/jit(main)/add" source_file="/python3.9-env/lib/python3.9/site-packages/optax/_src/update.py" source_line=43}
  %param_6.1928 = f32[1024]{0} parameter(6)
  %param_8.662 = f32[1024]{0} parameter(8)
  %multiply.121.clone.1.clone.1 = f32[1024]{0} multiply(f32[1024]{0} %param_8.662, f32[1024]{0} %broadcast.399.clone.1), metadata={op_name="parallelize(train_step_shard_parallel)/jit(main)/mul" source_file="/python3.9-env/lib/python3.9/site-packages/optax/_src/transform.py" source_line=84}
  %param_9.575 = f32[1024]{0} parameter(9)
  %multiply.120.clone.1.clone.1 = f32[1024]{0} multiply(f32[1024]{0} %param_9.575, f32[1024]{0} %broadcast.400.clone.1), metadata={op_name="parallelize(train_step_shard_parallel)/jit(main)/mul" source_file="/python3.9-env/lib/python3.9/site-packages/optax/_src/transform.py" source_line=84}
  %add.871.clone.1.clone.1 = f32[1024]{0} add(f32[1024]{0} %multiply.121.clone.1.clone.1, f32[1024]{0} %multiply.120.clone.1.clone.1), metadata={op_name="parallelize(train_step_shard_parallel)/jit(main)/add" source_file="/python3.9-env/lib/python3.9/site-packages/optax/_src/transform.py" source_line=84}
  %multiply.119.clone.1.clone.1 = f32[1024]{0} multiply(f32[1024]{0} %param_8.662, f32[1024]{0} %param_8.662), metadata={op_name="parallelize(train_step_shard_parallel)/jit(main)/mul" source_file="/python3.9-env/lib/python3.9/site-packages/optax/_src/transform.py" source_line=98}
  %multiply.118.clone.1.clone.1 = f32[1024]{0} multiply(f32[1024]{0} %multiply.119.clone.1.clone.1, f32[1024]{0} %broadcast.397.clone.1), metadata={op_name="parallelize(train_step_shard_parallel)/jit(main)/mul" source_file="/python3.9-env/lib/python3.9/site-packages/optax/_src/transform.py" source_line=107}
  %param_7.1225 = f32[1024]{0} parameter(7)
  %multiply.117.clone.1.clone.1 = f32[1024]{0} multiply(f32[1024]{0} %param_7.1225, f32[1024]{0} %broadcast.398.clone.1), metadata={op_name="parallelize(train_step_shard_parallel)/jit(main)/mul" source_file="/python3.9-env/lib/python3.9/site-packages/optax/_src/transform.py" source_line=107}
  %add.870.clone.1.clone.1 = f32[1024]{0} add(f32[1024]{0} %multiply.118.clone.1.clone.1, f32[1024]{0} %multiply.117.clone.1.clone.1), metadata={op_name="parallelize(train_step_shard_parallel)/jit(main)/add" source_file="/python3.9-env/lib/python3.9/site-packages/optax/_src/transform.py" source_line=107}
  %divide.31.clone.1 = f32[1024]{0} divide(f32[1024]{0} %add.870.clone.1.clone.1, f32[1024]{0} %broadcast.393), metadata={op_name="parallelize(train_step_shard_parallel)/jit(main)/div" source_file="/python3.9-env/lib/python3.9/site-packages/optax/_src/transform.py" source_line=114}
  %sqrt.92.clone.1 = f32[1024]{0} sqrt(f32[1024]{0} %divide.31.clone.1), metadata={op_name="parallelize(train_step_shard_parallel)/jit(main)/sqrt" source_file="/python3.9-env/lib/python3.9/site-packages/optax/_src/transform.py" source_line=340}
  %add.869.clone.1 = f32[1024]{0} add(f32[1024]{0} %sqrt.92.clone.1, f32[1024]{0} %broadcast.394), metadata={op_name="parallelize(train_step_shard_parallel)/jit(main)/add" source_file="/python3.9-env/lib/python3.9/site-packages/optax/_src/transform.py" source_line=340}
  %multiply.116.clone.1 = f32[1024]{0} multiply(f32[1024]{0} %broadcast.395, f32[1024]{0} %add.869.clone.1)
  %divide.30.clone.1 = f32[1024]{0} divide(f32[1024]{0} %add.871.clone.1.clone.1, f32[1024]{0} %multiply.116.clone.1), metadata={op_name="parallelize(train_step_shard_parallel)/jit(main)/div" source_file="/python3.9-env/lib/python3.9/site-packages/optax/_src/transform.py" source_line=340}
  %multiply.115.clone.1 = f32[1024]{0} multiply(f32[1024]{0} %divide.30.clone.1, f32[1024]{0} %broadcast.396), metadata={op_name="parallelize(train_step_shard_parallel)/jit(main)/mul" source_file="/python3.9-env/lib/python3.9/site-packages/optax/_src/transform.py" source_line=405}
  %add.868.clone.1 = f32[1024]{0} add(f32[1024]{0} %param_6.1928, f32[1024]{0} %multiply.115.clone.1), metadata={op_name="parallelize(train_step_shard_parallel)/jit(main)/add" source_file="/python3.9-env/lib/python3.9/site-packages/optax/_src/update.py" source_line=43}
  %param_10.530 = f32[1024]{0} parameter(10)
  %param_12.380 = f16[1024]{0} parameter(12)
  %convert.35.clone.1.clone.1 = f32[1024]{0} convert(f16[1024]{0} %param_12.380), metadata={op_name="parallelize(train_step_shard_parallel)/jit(main)/transpose(jvp(FlaxGPTForLMModule))/transformers/encoder/layer/4/remat(core_fn)/4/attention/output/dense/convert_element_type[new_dtype=float32 weak_type=False]" source_file="/python3.9-env/lib/python3.9/site-packages/flax/linen/dtypes.py" source_line=97}
  %multiply.166.clone.1.clone.1 = f32[1024]{0} multiply(f32[1024]{0} %convert.35.clone.1.clone.1, f32[1024]{0} %broadcast.399.clone.1), metadata={op_name="parallelize(train_step_shard_parallel)/jit(main)/mul" source_file="/python3.9-env/lib/python3.9/site-packages/optax/_src/transform.py" source_line=84}
  %param_13.414 = f32[1024]{0} parameter(13)
  %multiply.165.clone.1.clone.1 = f32[1024]{0} multiply(f32[1024]{0} %param_13.414, f32[1024]{0} %broadcast.400.clone.1), metadata={op_name="parallelize(train_step_shard_parallel)/jit(main)/mul" source_file="/python3.9-env/lib/python3.9/site-packages/optax/_src/transform.py" source_line=84}
  %add.899.clone.1.clone.1 = f32[1024]{0} add(f32[1024]{0} %multiply.166.clone.1.clone.1, f32[1024]{0} %multiply.165.clone.1.clone.1), metadata={op_name="parallelize(train_step_shard_parallel)/jit(main)/add" source_file="/python3.9-env/lib/python3.9/site-packages/optax/_src/transform.py" source_line=84}
  %multiply.164.clone.1.clone.1 = f32[1024]{0} multiply(f32[1024]{0} %convert.35.clone.1.clone.1, f32[1024]{0} %convert.35.clone.1.clone.1), metadata={op_name="parallelize(train_step_shard_parallel)/jit(main)/mul" source_file="/python3.9-env/lib/python3.9/site-packages/optax/_src/transform.py" source_line=98}
  %multiply.163.clone.1.clone.1 = f32[1024]{0} multiply(f32[1024]{0} %multiply.164.clone.1.clone.1, f32[1024]{0} %broadcast.397.clone.1), metadata={op_name="parallelize(train_step_shard_parallel)/jit(main)/mul" source_file="/python3.9-env/lib/python3.9/site-packages/optax/_src/transform.py" source_line=107}
  %param_11.455 = f32[1024]{0} parameter(11)
  %multiply.162.clone.1.clone.1 = f32[1024]{0} multiply(f32[1024]{0} %param_11.455, f32[1024]{0} %broadcast.398.clone.1), metadata={op_name="parallelize(train_step_shard_parallel)/jit(main)/mul" source_file="/python3.9-env/lib/python3.9/site-packages/optax/_src/transform.py" source_line=107}
  %add.898.clone.1.clone.1 = f32[1024]{0} add(f32[1024]{0} %multiply.163.clone.1.clone.1, f32[1024]{0} %multiply.162.clone.1.clone.1), metadata={op_name="parallelize(train_step_shard_parallel)/jit(main)/add" source_file="/python3.9-env/lib/python3.9/site-packages/optax/_src/transform.py" source_line=107}
  %divide.43.clone.1 = f32[1024]{0} divide(f32[1024]{0} %add.898.clone.1.clone.1, f32[1024]{0} %broadcast.393), metadata={op_name="parallelize(train_step_shard_parallel)/jit(main)/div" source_file="/python3.9-env/lib/python3.9/site-packages/optax/_src/transform.py" source_line=114}
  %sqrt.98.clone.1 = f32[1024]{0} sqrt(f32[1024]{0} %divide.43.clone.1), metadata={op_name="parallelize(train_step_shard_parallel)/jit(main)/sqrt" source_file="/python3.9-env/lib/python3.9/site-packages/optax/_src/transform.py" source_line=340}
  %add.897.clone.1 = f32[1024]{0} add(f32[1024]{0} %sqrt.98.clone.1, f32[1024]{0} %broadcast.394), metadata={op_name="parallelize(train_step_shard_parallel)/jit(main)/add" source_file="/python3.9-env/lib/python3.9/site-packages/optax/_src/transform.py" source_line=340}
  %multiply.161.clone.1 = f32[1024]{0} multiply(f32[1024]{0} %broadcast.395, f32[1024]{0} %add.897.clone.1)
  %divide.42.clone.1 = f32[1024]{0} divide(f32[1024]{0} %add.899.clone.1.clone.1, f32[1024]{0} %multiply.161.clone.1), metadata={op_name="parallelize(train_step_shard_parallel)/jit(main)/div" source_file="/python3.9-env/lib/python3.9/site-packages/optax/_src/transform.py" source_line=340}
  %multiply.160.clone.1 = f32[1024]{0} multiply(f32[1024]{0} %divide.42.clone.1, f32[1024]{0} %broadcast.396), metadata={op_name="parallelize(train_step_shard_parallel)/jit(main)/mul" source_file="/python3.9-env/lib/python3.9/site-packages/optax/_src/transform.py" source_line=405}
  %add.896.clone.1 = f32[1024]{0} add(f32[1024]{0} %param_10.530, f32[1024]{0} %multiply.160.clone.1), metadata={op_name="parallelize(train_step_shard_parallel)/jit(main)/add" source_file="/python3.9-env/lib/python3.9/site-packages/optax/_src/update.py" source_line=43}
  %param_14.529 = f32[1024]{0} parameter(14)
  %param_16.471 = f32[1024]{0} parameter(16)
  %multiply.480.clone.1.clone.1 = f32[1024]{0} multiply(f32[1024]{0} %param_16.471, f32[1024]{0} %broadcast.399.clone.1), metadata={op_name="parallelize(train_step_shard_parallel)/jit(main)/mul" source_file="/python3.9-env/lib/python3.9/site-packages/optax/_src/transform.py" source_line=84}
  %param_17.373 = f32[1024]{0} parameter(17)
  %multiply.473.clone.1.clone.1 = f32[1024]{0} multiply(f32[1024]{0} %param_17.373, f32[1024]{0} %broadcast.400.clone.1), metadata={op_name="parallelize(train_step_shard_parallel)/jit(main)/mul" source_file="/python3.9-env/lib/python3.9/site-packages/optax/_src/transform.py" source_line=84}
  %add.903.clone.1.clone.1 = f32[1024]{0} add(f32[1024]{0} %multiply.480.clone.1.clone.1, f32[1024]{0} %multiply.473.clone.1.clone.1), metadata={op_name="parallelize(train_step_shard_parallel)/jit(main)/add" source_file="/python3.9-env/lib/python3.9/site-packages/optax/_src/transform.py" source_line=84}
  %multiply.472.clone.1.clone.1 = f32[1024]{0} multiply(f32[1024]{0} %param_16.471, f32[1024]{0} %param_16.471), metadata={op_name="parallelize(train_step_shard_parallel)/jit(main)/mul" source_file="/python3.9-env/lib/python3.9/site-packages/optax/_src/transform.py" source_line=98}
  %multiply.170.clone.1.clone.1 = f32[1024]{0} multiply(f32[1024]{0} %multiply.472.clone.1.clone.1, f32[1024]{0} %broadcast.397.clone.1), metadata={op_name="parallelize(train_step_shard_parallel)/jit(main)/mul" source_file="/python3.9-env/lib/python3.9/site-packages/optax/_src/transform.py" source_line=107}
  %param_15.521 = f32[1024]{0} parameter(15)
  %multiply.169.clone.1.clone.1 = f32[1024]{0} multiply(f32[1024]{0} %param_15.521, f32[1024]{0} %broadcast.398.clone.1), metadata={op_name="parallelize(train_step_shard_parallel)/jit(main)/mul" source_file="/python3.9-env/lib/python3.9/site-packages/optax/_src/transform.py" source_line=107}
  %add.902.clone.1.clone.1 = f32[1024]{0} add(f32[1024]{0} %multiply.170.clone.1.clone.1, f32[1024]{0} %multiply.169.clone.1.clone.1), metadata={op_name="parallelize(train_step_shard_parallel)/jit(main)/add" source_file="/python3.9-env/lib/python3.9/site-packages/optax/_src/transform.py" source_line=107}
  %divide.45.clone.1 = f32[1024]{0} divide(f32[1024]{0} %add.902.clone.1.clone.1, f32[1024]{0} %broadcast.393), metadata={op_name="parallelize(train_step_shard_parallel)/jit(main)/div" source_file="/python3.9-env/lib/python3.9/site-packages/optax/_src/transform.py" source_line=114}
  %sqrt.99.clone.1 = f32[1024]{0} sqrt(f32[1024]{0} %divide.45.clone.1), metadata={op_name="parallelize(train_step_shard_parallel)/jit(main)/sqrt" source_file="/python3.9-env/lib/python3.9/site-packages/optax/_src/transform.py" source_line=340}
  %add.901.clone.1 = f32[1024]{0} add(f32[1024]{0} %sqrt.99.clone.1, f32[1024]{0} %broadcast.394), metadata={op_name="parallelize(train_step_shard_parallel)/jit(main)/add" source_file="/python3.9-env/lib/python3.9/site-packages/optax/_src/transform.py" source_line=340}
  %multiply.168.clone.1 = f32[1024]{0} multiply(f32[1024]{0} %broadcast.395, f32[1024]{0} %add.901.clone.1)
  %divide.44.clone.1 = f32[1024]{0} divide(f32[1024]{0} %add.903.clone.1.clone.1, f32[1024]{0} %multiply.168.clone.1), metadata={op_name="parallelize(train_step_shard_parallel)/jit(main)/div" source_file="/python3.9-env/lib/python3.9/site-packages/optax/_src/transform.py" source_line=340}
  %multiply.167.clone.1 = f32[1024]{0} multiply(f32[1024]{0} %divide.44.clone.1, f32[1024]{0} %broadcast.396), metadata={op_name="parallelize(train_step_shard_parallel)/jit(main)/mul" source_file="/python3.9-env/lib/python3.9/site-packages/optax/_src/transform.py" source_line=405}
  %add.900.clone.1 = f32[1024]{0} add(f32[1024]{0} %param_14.529, f32[1024]{0} %multiply.167.clone.1), metadata={op_name="parallelize(train_step_shard_parallel)/jit(main)/add" source_file="/python3.9-env/lib/python3.9/site-packages/optax/_src/update.py" source_line=43}
  %param_18.283 = f32[1024]{0} parameter(18)
  %param_20.39 = f32[1024]{0} parameter(20)
  %multiply.608.clone.1.clone.1 = f32[1024]{0} multiply(f32[1024]{0} %param_20.39, f32[1024]{0} %broadcast.399.clone.1), metadata={op_name="parallelize(train_step_shard_parallel)/jit(main)/mul" source_file="/python3.9-env/lib/python3.9/site-packages/optax/_src/transform.py" source_line=84}
  %param_21.75 = f32[1024]{0} parameter(21)
  %multiply.607.clone.1.clone.1 = f32[1024]{0} multiply(f32[1024]{0} %param_21.75, f32[1024]{0} %broadcast.400.clone.1), metadata={op_name="parallelize(train_step_shard_parallel)/jit(main)/mul" source_file="/python3.9-env/lib/python3.9/site-packages/optax/_src/transform.py" source_line=84}
  %add.907.clone.1.clone.1 = f32[1024]{0} add(f32[1024]{0} %multiply.608.clone.1.clone.1, f32[1024]{0} %multiply.607.clone.1.clone.1), metadata={op_name="parallelize(train_step_shard_parallel)/jit(main)/add" source_file="/python3.9-env/lib/python3.9/site-packages/optax/_src/transform.py" source_line=84}
  %multiply.594.clone.1.clone.1 = f32[1024]{0} multiply(f32[1024]{0} %param_20.39, f32[1024]{0} %param_20.39), metadata={op_name="parallelize(train_step_shard_parallel)/jit(main)/mul" source_file="/python3.9-env/lib/python3.9/site-packages/optax/_src/transform.py" source_line=98}
  %multiply.587.clone.1.clone.1 = f32[1024]{0} multiply(f32[1024]{0} %multiply.594.clone.1.clone.1, f32[1024]{0} %broadcast.397.clone.1), metadata={op_name="parallelize(train_step_shard_parallel)/jit(main)/mul" source_file="/python3.9-env/lib/python3.9/site-packages/optax/_src/transform.py" source_line=107}
  %param_19.145 = f32[1024]{0} parameter(19)
  %multiply.508.clone.1.clone.1 = f32[1024]{0} multiply(f32[1024]{0} %param_19.145, f32[1024]{0} %broadcast.398.clone.1), metadata={op_name="parallelize(train_step_shard_parallel)/jit(main)/mul" source_file="/python3.9-env/lib/python3.9/site-packages/optax/_src/transform.py" source_line=107}
  %add.906.clone.1.clone.1 = f32[1024]{0} add(f32[1024]{0} %multiply.587.clone.1.clone.1, f32[1024]{0} %multiply.508.clone.1.clone.1), metadata={op_name="parallelize(train_step_shard_parallel)/jit(main)/add" source_file="/python3.9-env/lib/python3.9/site-packages/optax/_src/transform.py" source_line=107}
  %divide.47.clone.1 = f32[1024]{0} divide(f32[1024]{0} %add.906.clone.1.clone.1, f32[1024]{0} %broadcast.393), metadata={op_name="parallelize(train_step_shard_parallel)/jit(main)/div" source_file="/python3.9-env/lib/python3.9/site-packages/optax/_src/transform.py" source_line=114}
  %sqrt.100.clone.1 = f32[1024]{0} sqrt(f32[1024]{0} %divide.47.clone.1), metadata={op_name="parallelize(train_step_shard_parallel)/jit(main)/sqrt" source_file="/python3.9-env/lib/python3.9/site-packages/optax/_src/transform.py" source_line=340}
  %add.905.clone.1 = f32[1024]{0} add(f32[1024]{0} %sqrt.100.clone.1, f32[1024]{0} %broadcast.394), metadata={op_name="parallelize(train_step_shard_parallel)/jit(main)/add" source_file="/python3.9-env/lib/python3.9/site-packages/optax/_src/transform.py" source_line=340}
  %multiply.507.clone.1 = f32[1024]{0} multiply(f32[1024]{0} %broadcast.395, f32[1024]{0} %add.905.clone.1)
  %divide.46.clone.1 = f32[1024]{0} divide(f32[1024]{0} %add.907.clone.1.clone.1, f32[1024]{0} %multiply.507.clone.1), metadata={op_name="parallelize(train_step_shard_parallel)/jit(main)/div" source_file="/python3.9-env/lib/python3.9/site-packages/optax/_src/transform.py" source_line=340}
  %multiply.499.clone.1 = f32[1024]{0} multiply(f32[1024]{0} %divide.46.clone.1, f32[1024]{0} %broadcast.396), metadata={op_name="parallelize(train_step_shard_parallel)/jit(main)/mul" source_file="/python3.9-env/lib/python3.9/site-packages/optax/_src/transform.py" source_line=405}
  %add.904.clone.1 = f32[1024]{0} add(f32[1024]{0} %param_18.283, f32[1024]{0} %multiply.499.clone.1), metadata={op_name="parallelize(train_step_shard_parallel)/jit(main)/add" source_file="/python3.9-env/lib/python3.9/site-packages/optax/_src/update.py" source_line=43}
  %param_22.155 = f32[1024]{0} parameter(22)
  %param_24.39 = f16[1024]{0} parameter(24)
  %convert.40.clone.1.clone.1 = f32[1024]{0} convert(f16[1024]{0} %param_24.39), metadata={op_name="parallelize(train_step_shard_parallel)/jit(main)/transpose(jvp(FlaxGPTForLMModule))/transformers/encoder/layer/3/remat(core_fn)/3/output/dense/convert_element_type[new_dtype=float32 weak_type=False]" source_file="/python3.9-env/lib/python3.9/site-packages/flax/linen/dtypes.py" source_line=97}
  %multiply.655.clone.1.clone.1 = f32[1024]{0} multiply(f32[1024]{0} %convert.40.clone.1.clone.1, f32[1024]{0} %broadcast.399.clone.1), metadata={op_name="parallelize(train_step_shard_parallel)/jit(main)/mul" source_file="/python3.9-env/lib/python3.9/site-packages/optax/_src/transform.py" source_line=84}
  %param_25.75 = f32[1024]{0} parameter(25)
  %multiply.651.clone.1.clone.1 = f32[1024]{0} multiply(f32[1024]{0} %param_25.75, f32[1024]{0} %broadcast.400.clone.1), metadata={op_name="parallelize(train_step_shard_parallel)/jit(main)/mul" source_file="/python3.9-env/lib/python3.9/site-packages/optax/_src/transform.py" source_line=84}
  %add.916.clone.1.clone.1 = f32[1024]{0} add(f32[1024]{0} %multiply.655.clone.1.clone.1, f32[1024]{0} %multiply.651.clone.1.clone.1), metadata={op_name="parallelize(train_step_shard_parallel)/jit(main)/add" source_file="/python3.9-env/lib/python3.9/site-packages/optax/_src/transform.py" source_line=84}
  %multiply.649.clone.1.clone.1 = f32[1024]{0} multiply(f32[1024]{0} %convert.40.clone.1.clone.1, f32[1024]{0} %convert.40.clone.1.clone.1), metadata={op_name="parallelize(train_step_shard_parallel)/jit(main)/mul" source_file="/python3.9-env/lib/python3.9/site-packages/optax/_src/transform.py" source_line=98}
  %multiply.647.clone.1.clone.1 = f32[1024]{0} multiply(f32[1024]{0} %multiply.649.clone.1.clone.1, f32[1024]{0} %broadcast.397.clone.1), metadata={op_name="parallelize(train_step_shard_parallel)/jit(main)/mul" source_file="/python3.9-env/lib/python3.9/site-packages/optax/_src/transform.py" source_line=107}
  %param_23.109 = f32[1024]{0} parameter(23)
  %multiply.645.clone.1.clone.1 = f32[1024]{0} multiply(f32[1024]{0} %param_23.109, f32[1024]{0} %broadcast.398.clone.1), metadata={op_name="parallelize(train_step_shard_parallel)/jit(main)/mul" source_file="/python3.9-env/lib/python3.9/site-packages/optax/_src/transform.py" source_line=107}
  %add.915.clone.1.clone.1 = f32[1024]{0} add(f32[1024]{0} %multiply.647.clone.1.clone.1, f32[1024]{0} %multiply.645.clone.1.clone.1), metadata={op_name="parallelize(train_step_shard_parallel)/jit(main)/add" source_file="/python3.9-env/lib/python3.9/site-packages/optax/_src/transform.py" source_line=107}
  %divide.51.clone.1 = f32[1024]{0} divide(f32[1024]{0} %add.915.clone.1.clone.1, f32[1024]{0} %broadcast.393), metadata={op_name="parallelize(train_step_shard_parallel)/jit(main)/div" source_file="/python3.9-env/lib/python3.9/site-packages/optax/_src/transform.py" source_line=114}
  %sqrt.102.clone.1 = f32[1024]{0} sqrt(f32[1024]{0} %divide.51.clone.1), metadata={op_name="parallelize(train_step_shard_parallel)/jit(main)/sqrt" source_file="/python3.9-env/lib/python3.9/site-packages/optax/_src/transform.py" source_line=340}
  %add.914.clone.1 = f32[1024]{0} add(f32[1024]{0} %sqrt.102.clone.1, f32[1024]{0} %broadcast.394), metadata={op_name="parallelize(train_step_shard_parallel)/jit(main)/add" source_file="/python3.9-env/lib/python3.9/site-packages/optax/_src/transform.py" source_line=340}
  %multiply.643.clone.1 = f32[1024]{0} multiply(f32[1024]{0} %broadcast.395, f32[1024]{0} %add.914.clone.1)
  %divide.50.clone.1 = f32[1024]{0} divide(f32[1024]{0} %add.916.clone.1.clone.1, f32[1024]{0} %multiply.643.clone.1), metadata={op_name="parallelize(train_step_shard_parallel)/jit(main)/div" source_file="/python3.9-env/lib/python3.9/site-packages/optax/_src/transform.py" source_line=340}
  %multiply.641.clone.1 = f32[1024]{0} multiply(f32[1024]{0} %divide.50.clone.1, f32[1024]{0} %broadcast.396), metadata={op_name="parallelize(train_step_shard_parallel)/jit(main)/mul" source_file="/python3.9-env/lib/python3.9/site-packages/optax/_src/transform.py" source_line=405}
  %add.913.clone.1 = f32[1024]{0} add(f32[1024]{0} %param_22.155, f32[1024]{0} %multiply.641.clone.1), metadata={op_name="parallelize(train_step_shard_parallel)/jit(main)/add" source_file="/python3.9-env/lib/python3.9/site-packages/optax/_src/update.py" source_line=43}
  %param_26.135 = f32[1024]{0} parameter(26)
  %param_28.14 = f32[1024]{0} parameter(28)
  %multiply.799.clone.1.clone.1 = f32[1024]{0} multiply(f32[1024]{0} %param_28.14, f32[1024]{0} %broadcast.399.clone.1), metadata={op_name="parallelize(train_step_shard_parallel)/jit(main)/mul" source_file="/python3.9-env/lib/python3.9/site-packages/optax/_src/transform.py" source_line=84}
  %param_29.27 = f32[1024]{0} parameter(29)
  %multiply.786.clone.1.clone.1 = f32[1024]{0} multiply(f32[1024]{0} %param_29.27, f32[1024]{0} %broadcast.400.clone.1), metadata={op_name="parallelize(train_step_shard_parallel)/jit(main)/mul" source_file="/python3.9-env/lib/python3.9/site-packages/optax/_src/transform.py" source_line=84}
  %add.920.clone.1.clone.1 = f32[1024]{0} add(f32[1024]{0} %multiply.799.clone.1.clone.1, f32[1024]{0} %multiply.786.clone.1.clone.1), metadata={op_name="parallelize(train_step_shard_parallel)/jit(main)/add" source_file="/python3.9-env/lib/python3.9/site-packages/optax/_src/transform.py" source_line=84}
  %multiply.779.clone.1.clone.1 = f32[1024]{0} multiply(f32[1024]{0} %param_28.14, f32[1024]{0} %param_28.14), metadata={op_name="parallelize(train_step_shard_parallel)/jit(main)/mul" source_file="/python3.9-env/lib/python3.9/site-packages/optax/_src/transform.py" source_line=98}
  %multiply.700.clone.1.clone.1 = f32[1024]{0} multiply(f32[1024]{0} %multiply.779.clone.1.clone.1, f32[1024]{0} %broadcast.397.clone.1), metadata={op_name="parallelize(train_step_shard_parallel)/jit(main)/mul" source_file="/python3.9-env/lib/python3.9/site-packages/optax/_src/transform.py" source_line=107}
  %param_27.89 = f32[1024]{0} parameter(27)
  %multiply.699.clone.1.clone.1 = f32[1024]{0} multiply(f32[1024]{0} %param_27.89, f32[1024]{0} %broadcast.398.clone.1), metadata={op_name="parallelize(train_step_shard_parallel)/jit(main)/mul" source_file="/python3.9-env/lib/python3.9/site-packages/optax/_src/transform.py" source_line=107}
  %add.919.clone.1.clone.1 = f32[1024]{0} add(f32[1024]{0} %multiply.700.clone.1.clone.1, f32[1024]{0} %multiply.699.clone.1.clone.1), metadata={op_name="parallelize(train_step_shard_parallel)/jit(main)/add" source_file="/python3.9-env/lib/python3.9/site-packages/optax/_src/transform.py" source_line=107}
  %divide.53.clone.1 = f32[1024]{0} divide(f32[1024]{0} %add.919.clone.1.clone.1, f32[1024]{0} %broadcast.393), metadata={op_name="parallelize(train_step_shard_parallel)/jit(main)/div" source_file="/python3.9-env/lib/python3.9/site-packages/optax/_src/transform.py" source_line=114}
  %sqrt.103.clone.1 = f32[1024]{0} sqrt(f32[1024]{0} %divide.53.clone.1), metadata={op_name="parallelize(train_step_shard_parallel)/jit(main)/sqrt" source_file="/python3.9-env/lib/python3.9/site-packages/optax/_src/transform.py" source_line=340}
  %add.918.clone.1 = f32[1024]{0} add(f32[1024]{0} %sqrt.103.clone.1, f32[1024]{0} %broadcast.394), metadata={op_name="parallelize(train_step_shard_parallel)/jit(main)/add" source_file="/python3.9-env/lib/python3.9/site-packages/optax/_src/transform.py" source_line=340}
  %multiply.686.clone.1 = f32[1024]{0} multiply(f32[1024]{0} %broadcast.395, f32[1024]{0} %add.918.clone.1)
  %divide.52.clone.1 = f32[1024]{0} divide(f32[1024]{0} %add.920.clone.1.clone.1, f32[1024]{0} %multiply.686.clone.1), metadata={op_name="parallelize(train_step_shard_parallel)/jit(main)/div" source_file="/python3.9-env/lib/python3.9/site-packages/optax/_src/transform.py" source_line=340}
  %multiply.679.clone.1 = f32[1024]{0} multiply(f32[1024]{0} %divide.52.clone.1, f32[1024]{0} %broadcast.396), metadata={op_name="parallelize(train_step_shard_parallel)/jit(main)/mul" source_file="/python3.9-env/lib/python3.9/site-packages/optax/_src/transform.py" source_line=405}
  %add.917.clone.1 = f32[1024]{0} add(f32[1024]{0} %param_26.135, f32[1024]{0} %multiply.679.clone.1), metadata={op_name="parallelize(train_step_shard_parallel)/jit(main)/add" source_file="/python3.9-env/lib/python3.9/site-packages/optax/_src/update.py" source_line=43}
  %param_30.52 = f32[1024]{0} parameter(30)
  %param_32.9 = f32[1024]{0} parameter(32)
  %multiply.829.clone.1.clone.1 = f32[1024]{0} multiply(f32[1024]{0} %param_32.9, f32[1024]{0} %broadcast.399.clone.1), metadata={op_name="parallelize(train_step_shard_parallel)/jit(main)/mul" source_file="/python3.9-env/lib/python3.9/site-packages/optax/_src/transform.py" source_line=84}
  %param_33.17 = f32[1024]{0} parameter(33)
  %multiply.827.clone.1.clone.1 = f32[1024]{0} multiply(f32[1024]{0} %param_33.17, f32[1024]{0} %broadcast.400.clone.1), metadata={op_name="parallelize(train_step_shard_parallel)/jit(main)/mul" source_file="/python3.9-env/lib/python3.9/site-packages/optax/_src/transform.py" source_line=84}
  %add.924.clone.1.clone.1 = f32[1024]{0} add(f32[1024]{0} %multiply.829.clone.1.clone.1, f32[1024]{0} %multiply.827.clone.1.clone.1), metadata={op_name="parallelize(train_step_shard_parallel)/jit(main)/add" source_file="/python3.9-env/lib/python3.9/site-packages/optax/_src/transform.py" source_line=84}
  %multiply.825.clone.1.clone.1 = f32[1024]{0} multiply(f32[1024]{0} %param_32.9, f32[1024]{0} %param_32.9), metadata={op_name="parallelize(train_step_shard_parallel)/jit(main)/mul" source_file="/python3.9-env/lib/python3.9/site-packages/optax/_src/transform.py" source_line=98}
  %multiply.823.clone.1.clone.1 = f32[1024]{0} multiply(f32[1024]{0} %multiply.825.clone.1.clone.1, f32[1024]{0} %broadcast.397.clone.1), metadata={op_name="parallelize(train_step_shard_parallel)/jit(main)/mul" source_file="/python3.9-env/lib/python3.9/site-packages/optax/_src/transform.py" source_line=107}
  %param_31.33 = f32[1024]{0} parameter(31)
  %multiply.821.clone.1.clone.1 = f32[1024]{0} multiply(f32[1024]{0} %param_31.33, f32[1024]{0} %broadcast.398.clone.1), metadata={op_name="parallelize(train_step_shard_parallel)/jit(main)/mul" source_file="/python3.9-env/lib/python3.9/site-packages/optax/_src/transform.py" source_line=107}
  %add.923.clone.1.clone.1 = f32[1024]{0} add(f32[1024]{0} %multiply.823.clone.1.clone.1, f32[1024]{0} %multiply.821.clone.1.clone.1), metadata={op_name="parallelize(train_step_shard_parallel)/jit(main)/add" source_file="/python3.9-env/lib/python3.9/site-packages/optax/_src/transform.py" source_line=107}
  %divide.55.clone.1 = f32[1024]{0} divide(f32[1024]{0} %add.923.clone.1.clone.1, f32[1024]{0} %broadcast.393), metadata={op_name="parallelize(train_step_shard_parallel)/jit(main)/div" source_file="/python3.9-env/lib/python3.9/site-packages/optax/_src/transform.py" source_line=114}
  %sqrt.104.clone.1 = f32[1024]{0} sqrt(f32[1024]{0} %divide.55.clone.1), metadata={op_name="parallelize(train_step_shard_parallel)/jit(main)/sqrt" source_file="/python3.9-env/lib/python3.9/site-packages/optax/_src/transform.py" source_line=340}
  %add.922.clone.1 = f32[1024]{0} add(f32[1024]{0} %sqrt.104.clone.1, f32[1024]{0} %broadcast.394), metadata={op_name="parallelize(train_step_shard_parallel)/jit(main)/add" source_file="/python3.9-env/lib/python3.9/site-packages/optax/_src/transform.py" source_line=340}
  %multiply.819.clone.1 = f32[1024]{0} multiply(f32[1024]{0} %broadcast.395, f32[1024]{0} %add.922.clone.1)
  %divide.54.clone.1 = f32[1024]{0} divide(f32[1024]{0} %add.924.clone.1.clone.1, f32[1024]{0} %multiply.819.clone.1), metadata={op_name="parallelize(train_step_shard_parallel)/jit(main)/div" source_file="/python3.9-env/lib/python3.9/site-packages/optax/_src/transform.py" source_line=340}
  %multiply.818.clone.1 = f32[1024]{0} multiply(f32[1024]{0} %divide.54.clone.1, f32[1024]{0} %broadcast.396), metadata={op_name="parallelize(train_step_shard_parallel)/jit(main)/mul" source_file="/python3.9-env/lib/python3.9/site-packages/optax/_src/transform.py" source_line=405}
  %add.921.clone.1 = f32[1024]{0} add(f32[1024]{0} %param_30.52, f32[1024]{0} %multiply.818.clone.1), metadata={op_name="parallelize(train_step_shard_parallel)/jit(main)/add" source_file="/python3.9-env/lib/python3.9/site-packages/optax/_src/update.py" source_line=43}
  ROOT %tuple.267 = (f32[1024]{0}, f32[1024]{0}, f32[1024]{0}, f32[1024]{0}, f32[1024]{0}, /*index=5*/f32[1024]{0}, f32[1024]{0}, f32[1024]{0}, f32[1024]{0}, f32[1024]{0}, /*index=10*/f32[1024]{0}, f32[1024]{0}, f32[1024]{0}, f32[1024]{0}, f32[1024]{0}, /*index=15*/f32[1024]{0}, f32[1024]{0}, f32[1024]{0}, f32[1024]{0}, f32[1024]{0}, /*index=20*/f32[1024]{0}, f32[1024]{0}, f32[1024]{0}, f32[1024]{0}) tuple(f32[1024]{0} %add.864, f32[1024]{0} %add.866.clone.1, f32[1024]{0} %add.867.clone.1, f32[1024]{0} %add.868.clone.1, f32[1024]{0} %add.870.clone.1.clone.1, /*index=5*/f32[1024]{0} %add.871.clone.1.clone.1, f32[1024]{0} %add.896.clone.1, f32[1024]{0} %add.898.clone.1.clone.1, f32[1024]{0} %add.899.clone.1.clone.1, f32[1024]{0} %add.900.clone.1, /*index=10*/f32[1024]{0} %add.902.clone.1.clone.1, f32[1024]{0} %add.903.clone.1.clone.1, f32[1024]{0} %add.904.clone.1, f32[1024]{0} %add.906.clone.1.clone.1, f32[1024]{0} %add.907.clone.1.clone.1, /*index=15*/f32[1024]{0} %add.913.clone.1, f32[1024]{0} %add.915.clone.1.clone.1, f32[1024]{0} %add.916.clone.1.clone.1, f32[1024]{0} %add.917.clone.1, f32[1024]{0} %add.919.clone.1.clone.1, /*index=20*/f32[1024]{0} %add.920.clone.1.clone.1, f32[1024]{0} %add.921.clone.1, f32[1024]{0} %add.923.clone.1.clone.1, f32[1024]{0} %add.924.clone.1.clone.1)
}

%region_72.2484 (Arg_0.2485: f32[], Arg_1.2486: f32[]) -> f32[] {
  %Arg_0.2485 = f32[] parameter(0)
  %Arg_1.2486 = f32[] parameter(1)
  ROOT %add.2487 = f32[] add(f32[] %Arg_0.2485, f32[] %Arg_1.2486), metadata={op_name="parallelize(train_step_shard_parallel)/jit(main)/transpose(jvp(FlaxGPTForLMModule))/transformers/encoder/layer/4/remat(core_fn)/4/output/LayerNorm/reduce_sum[axes=(0, 1)]" source_file="/python3.9-env/lib/python3.9/site-packages/flax/linen/normalization.py" source_line=144}
}

%region_71.2474 (Arg_0.2475: f32[], Arg_1.2476: f32[]) -> f32[] {
  %Arg_0.2475 = f32[] parameter(0)
  %Arg_1.2476 = f32[] parameter(1)
  ROOT %add.2477 = f32[] add(f32[] %Arg_0.2475, f32[] %Arg_1.2476), metadata={op_name="parallelize(train_step_shard_parallel)/jit(main)/transpose(jvp(FlaxGPTForLMModule))/transformers/encoder/layer/4/remat(core_fn)/4/output/LayerNorm/reduce_sum[axes=(0, 1)]" source_file="/python3.9-env/lib/python3.9/site-packages/flax/linen/normalization.py" source_line=150}
}

%fused_computation.49 (param_0.2071: f32[], param_1.2516: f32[4,1024], param_2.2291: f32[], param_3.1750: f32[4,1024], param_4.1204: f32[], param_5.1214: f32[], param_6.1022: f16[4,1024,1024], param_7.641: f16[4,1024,1024]) -> (f32[1024], f32[1024]) {
  %param_5.1214 = f32[] parameter(5)
  %broadcast.2431 = f32[4,1024]{1,0} broadcast(f32[] %param_5.1214), dimensions={}, metadata={op_name="parallelize(train_step_shard_parallel)/jit(main)/transpose(jvp(FlaxGPTForLMModule))/transformers/encoder/layer/4/remat(core_fn)/4/output/LayerNorm/max" source_file="/python3.9-env/lib/python3.9/site-packages/flax/linen/normalization.py" source_line=93}
  %param_3.1750 = f32[4,1024]{1,0} parameter(3)
  %param_4.1204 = f32[] parameter(4)
  %broadcast.2430 = f32[4,1024]{1,0} broadcast(f32[] %param_4.1204), dimensions={}, metadata={op_name="parallelize(train_step_shard_parallel)/jit(main)/transpose(jvp(FlaxGPTForLMModule))/transformers/encoder/layer/4/remat(core_fn)/4/output/LayerNorm/div" source_file="/python3.9-env/lib/python3.9/site-packages/flax/linen/normalization.py" source_line=83}
  %divide.789 = f32[4,1024]{1,0} divide(f32[4,1024]{1,0} %param_3.1750, f32[4,1024]{1,0} %broadcast.2430), metadata={op_name="parallelize(train_step_shard_parallel)/jit(main)/transpose(jvp(FlaxGPTForLMModule))/transformers/encoder/layer/4/remat(core_fn)/4/output/LayerNorm/div" source_file="/python3.9-env/lib/python3.9/site-packages/flax/linen/normalization.py" source_line=83}
  %param_1.2516 = f32[4,1024]{1,0} parameter(1)
  %param_2.2291 = f32[] parameter(2)
  %broadcast.2429 = f32[4,1024]{1,0} broadcast(f32[] %param_2.2291), dimensions={}, metadata={op_name="parallelize(train_step_shard_parallel)/jit(main)/transpose(jvp(FlaxGPTForLMModule))/transformers/encoder/layer/4/remat(core_fn)/4/output/LayerNorm/div" source_file="/python3.9-env/lib/python3.9/site-packages/flax/linen/normalization.py" source_line=82}
  %divide.788 = f32[4,1024]{1,0} divide(f32[4,1024]{1,0} %param_1.2516, f32[4,1024]{1,0} %broadcast.2429), metadata={op_name="parallelize(train_step_shard_parallel)/jit(main)/transpose(jvp(FlaxGPTForLMModule))/transformers/encoder/layer/4/remat(core_fn)/4/output/LayerNorm/div" source_file="/python3.9-env/lib/python3.9/site-packages/flax/linen/normalization.py" source_line=82}
  %multiply.2402 = f32[4,1024]{1,0} multiply(f32[4,1024]{1,0} %divide.788, f32[4,1024]{1,0} %divide.788), metadata={op_name="parallelize(train_step_shard_parallel)/jit(main)/transpose(jvp(FlaxGPTForLMModule))/transformers/encoder/layer/4/remat(core_fn)/4/output/LayerNorm/mul" source_file="/python3.9-env/lib/python3.9/site-packages/flax/linen/normalization.py" source_line=46}
  %subtract.265 = f32[4,1024]{1,0} subtract(f32[4,1024]{1,0} %divide.789, f32[4,1024]{1,0} %multiply.2402), metadata={op_name="parallelize(train_step_shard_parallel)/jit(main)/transpose(jvp(FlaxGPTForLMModule))/transformers/encoder/layer/4/remat(core_fn)/4/output/LayerNorm/sub" source_file="/python3.9-env/lib/python3.9/site-packages/flax/linen/normalization.py" source_line=93}
  %maximum.116 = f32[4,1024]{1,0} maximum(f32[4,1024]{1,0} %broadcast.2431, f32[4,1024]{1,0} %subtract.265), metadata={op_name="parallelize(train_step_shard_parallel)/jit(main)/transpose(jvp(FlaxGPTForLMModule))/transformers/encoder/layer/4/remat(core_fn)/4/output/LayerNorm/max" source_file="/python3.9-env/lib/python3.9/site-packages/flax/linen/normalization.py" source_line=93}
  %param_0.2071 = f32[] parameter(0)
  %broadcast.2428 = f32[4,1024]{1,0} broadcast(f32[] %param_0.2071), dimensions={}, metadata={op_name="parallelize(train_step_shard_parallel)/jit(main)/transpose(jvp(FlaxGPTForLMModule))/transformers/encoder/layer/4/remat(core_fn)/4/output/LayerNorm/add" source_file="/python3.9-env/lib/python3.9/site-packages/flax/linen/normalization.py" source_line=139}
  %add.1819 = f32[4,1024]{1,0} add(f32[4,1024]{1,0} %maximum.116, f32[4,1024]{1,0} %broadcast.2428), metadata={op_name="parallelize(train_step_shard_parallel)/jit(main)/transpose(jvp(FlaxGPTForLMModule))/transformers/encoder/layer/4/remat(core_fn)/4/output/LayerNorm/add" source_file="/python3.9-env/lib/python3.9/site-packages/flax/linen/normalization.py" source_line=139}
  %bitcast.1318 = f32[4,1024,1]{1,0,2} bitcast(f32[4,1024]{1,0} %add.1819), metadata={op_name="parallelize(train_step_shard_parallel)/jit(main)/transpose(jvp(FlaxGPTForLMModule))/transformers/encoder/layer/4/remat(core_fn)/4/output/LayerNorm/add" source_file="/python3.9-env/lib/python3.9/site-packages/flax/linen/normalization.py" source_line=139}
  %rsqrt.96 = f32[4,1024,1]{1,0,2} rsqrt(f32[4,1024,1]{1,0,2} %bitcast.1318), metadata={op_name="parallelize(train_step_shard_parallel)/jit(main)/transpose(jvp(FlaxGPTForLMModule))/transformers/encoder/layer/4/remat(core_fn)/4/output/LayerNorm/rsqrt" source_file="/python3.9-env/lib/python3.9/site-packages/flax/linen/normalization.py" source_line=139}
  %bitcast.1317 = f32[4,1024]{1,0} bitcast(f32[4,1024,1]{1,0,2} %rsqrt.96), metadata={op_name="parallelize(train_step_shard_parallel)/jit(main)/transpose(jvp(FlaxGPTForLMModule))/transformers/encoder/layer/4/remat(core_fn)/4/output/LayerNorm/mul" source_file="/python3.9-env/lib/python3.9/site-packages/flax/linen/normalization.py" source_line=144}
  %broadcast.2427 = f32[4,1024,1024]{2,1,0} broadcast(f32[4,1024]{1,0} %bitcast.1317), dimensions={0,1}, metadata={op_name="parallelize(train_step_shard_parallel)/jit(main)/transpose(jvp(FlaxGPTForLMModule))/transformers/encoder/layer/4/remat(core_fn)/4/output/LayerNorm/mul" source_file="/python3.9-env/lib/python3.9/site-packages/flax/linen/normalization.py" source_line=144}
  %param_7.641 = f16[4,1024,1024]{2,1,0} parameter(7)
  %convert.828 = f32[4,1024,1024]{2,1,0} convert(f16[4,1024,1024]{2,1,0} %param_7.641), metadata={op_name="parallelize(train_step_shard_parallel)/jit(main)/transpose(jvp(FlaxGPTForLMModule))/transformers/encoder/layer/4/remat(core_fn)/4/output/LayerNorm/convert_element_type[new_dtype=float32 weak_type=False]" source_file="/python3.9-env/lib/python3.9/site-packages/flax/linen/normalization.py" source_line=80}
  %broadcast.2462 = f32[4,1024,1024]{2,1,0} broadcast(f32[4,1024]{1,0} %divide.788), dimensions={0,1}, metadata={op_name="parallelize(train_step_shard_parallel)/jit(main)/transpose(jvp(FlaxGPTForLMModule))/transformers/encoder/layer/4/remat(core_fn)/4/output/LayerNorm/sub" source_file="/python3.9-env/lib/python3.9/site-packages/flax/linen/normalization.py" source_line=138}
  %subtract.273 = f32[4,1024,1024]{2,1,0} subtract(f32[4,1024,1024]{2,1,0} %convert.828, f32[4,1024,1024]{2,1,0} %broadcast.2462), metadata={op_name="parallelize(train_step_shard_parallel)/jit(main)/transpose(jvp(FlaxGPTForLMModule))/transformers/encoder/layer/4/remat(core_fn)/4/output/LayerNorm/sub" source_file="/python3.9-env/lib/python3.9/site-packages/flax/linen/normalization.py" source_line=138}
  %param_6.1022 = f16[4,1024,1024]{2,1,0} parameter(6)
  %convert.827 = f32[4,1024,1024]{2,1,0} convert(f16[4,1024,1024]{2,1,0} %param_6.1022), metadata={op_name="parallelize(train_step_shard_parallel)/jit(main)/transpose(jvp(FlaxGPTForLMModule))/transformers/encoder/layer/4/remat(core_fn)/4/output/LayerNorm/convert_element_type[new_dtype=float32 weak_type=False]" source_file="/python3.9-env/lib/python3.9/site-packages/flax/linen/normalization.py" source_line=153}
  %multiply.2418 = f32[4,1024,1024]{2,1,0} multiply(f32[4,1024,1024]{2,1,0} %subtract.273, f32[4,1024,1024]{2,1,0} %convert.827), metadata={op_name="parallelize(train_step_shard_parallel)/jit(main)/transpose(jvp(FlaxGPTForLMModule))/transformers/encoder/layer/4/remat(core_fn)/4/output/LayerNorm/mul" source_file="/python3.9-env/lib/python3.9/site-packages/flax/linen/normalization.py" source_line=146}
  %multiply.114 = f32[4,1024,1024]{2,1,0} multiply(f32[4,1024,1024]{2,1,0} %broadcast.2427, f32[4,1024,1024]{2,1,0} %multiply.2418), metadata={op_name="parallelize(train_step_shard_parallel)/jit(main)/transpose(jvp(FlaxGPTForLMModule))/transformers/encoder/layer/4/remat(core_fn)/4/output/LayerNorm/mul" source_file="/python3.9-env/lib/python3.9/site-packages/flax/linen/normalization.py" source_line=144}
  %bitcast.626 = f32[4096,1024]{1,0} bitcast(f32[4,1024,1024]{2,1,0} %multiply.114)
  %constant_129 = f32[] constant(0)
  %reduce.217 = f32[1024]{0} reduce(f32[4096,1024]{1,0} %bitcast.626, f32[] %constant_129), dimensions={0}, to_apply=%region_72.2484, metadata={op_name="parallelize(train_step_shard_parallel)/jit(main)/transpose(jvp(FlaxGPTForLMModule))/transformers/encoder/layer/4/remat(core_fn)/4/output/LayerNorm/reduce_sum[axes=(0, 1)]" source_file="/python3.9-env/lib/python3.9/site-packages/flax/linen/normalization.py" source_line=144}
  %bitcast.627.clone.1 = f32[4096,1024]{1,0} bitcast(f32[4,1024,1024]{2,1,0} %convert.827)
  %reduce.218.clone.1 = f32[1024]{0} reduce(f32[4096,1024]{1,0} %bitcast.627.clone.1, f32[] %constant_129), dimensions={0}, to_apply=%region_71.2474, metadata={op_name="parallelize(train_step_shard_parallel)/jit(main)/transpose(jvp(FlaxGPTForLMModule))/transformers/encoder/layer/4/remat(core_fn)/4/output/LayerNorm/reduce_sum[axes=(0, 1)]" source_file="/python3.9-env/lib/python3.9/site-packages/flax/linen/normalization.py" source_line=150}
  ROOT %tuple.205 = (f32[1024]{0}, f32[1024]{0}) tuple(f32[1024]{0} %reduce.217, f32[1024]{0} %reduce.218.clone.1)
}

%region_78.2564 (Arg_0.2565: f32[], Arg_1.2566: f32[]) -> f32[] {
  %Arg_0.2565 = f32[] parameter(0)
  %Arg_1.2566 = f32[] parameter(1)
  ROOT %add.2567 = f32[] add(f32[] %Arg_0.2565, f32[] %Arg_1.2566), metadata={op_name="parallelize(train_step_shard_parallel)/jit(main)/transpose(jvp(FlaxGPTForLMModule))/transformers/encoder/layer/4/remat(core_fn)/4/attention/output/LayerNorm/reduce_sum[axes=(0, 1)]" source_file="/python3.9-env/lib/python3.9/site-packages/flax/linen/normalization.py" source_line=144}
}

%region_77.2554 (Arg_0.2555: f32[], Arg_1.2556: f32[]) -> f32[] {
  %Arg_0.2555 = f32[] parameter(0)
  %Arg_1.2556 = f32[] parameter(1)
  ROOT %add.2557 = f32[] add(f32[] %Arg_0.2555, f32[] %Arg_1.2556), metadata={op_name="parallelize(train_step_shard_parallel)/jit(main)/transpose(jvp(FlaxGPTForLMModule))/transformers/encoder/layer/4/remat(core_fn)/4/attention/output/LayerNorm/reduce_sum[axes=(0, 1)]" source_file="/python3.9-env/lib/python3.9/site-packages/flax/linen/normalization.py" source_line=150}
}

%fused_computation.75 (param_0.2086: f32[], param_1.2535: f32[4,1024], param_2.2312: f32[], param_3.1767: f32[4,1024], param_4.1222: f32[], param_5.1228: f32[], param_6.1033: f16[4,1024,1024], param_7.654: f16[4096,1024], param_8.376: f16[4,1024,1024]) -> (f32[1024], f32[1024]) {
  %param_5.1228 = f32[] parameter(5)
  %broadcast.2309 = f32[4,1024]{1,0} broadcast(f32[] %param_5.1228), dimensions={}, metadata={op_name="parallelize(train_step_shard_parallel)/jit(main)/transpose(jvp(FlaxGPTForLMModule))/transformers/encoder/layer/4/remat(core_fn)/4/attention/output/LayerNorm/max" source_file="/python3.9-env/lib/python3.9/site-packages/flax/linen/normalization.py" source_line=93}
  %param_3.1767 = f32[4,1024]{1,0} parameter(3)
  %param_4.1222 = f32[] parameter(4)
  %broadcast.2308 = f32[4,1024]{1,0} broadcast(f32[] %param_4.1222), dimensions={}, metadata={op_name="parallelize(train_step_shard_parallel)/jit(main)/transpose(jvp(FlaxGPTForLMModule))/transformers/encoder/layer/4/remat(core_fn)/4/attention/output/LayerNorm/div" source_file="/python3.9-env/lib/python3.9/site-packages/flax/linen/normalization.py" source_line=83}
  %divide.753 = f32[4,1024]{1,0} divide(f32[4,1024]{1,0} %param_3.1767, f32[4,1024]{1,0} %broadcast.2308), metadata={op_name="parallelize(train_step_shard_parallel)/jit(main)/transpose(jvp(FlaxGPTForLMModule))/transformers/encoder/layer/4/remat(core_fn)/4/attention/output/LayerNorm/div" source_file="/python3.9-env/lib/python3.9/site-packages/flax/linen/normalization.py" source_line=83}
  %param_1.2535 = f32[4,1024]{1,0} parameter(1)
  %param_2.2312 = f32[] parameter(2)
  %broadcast.2307 = f32[4,1024]{1,0} broadcast(f32[] %param_2.2312), dimensions={}, metadata={op_name="parallelize(train_step_shard_parallel)/jit(main)/transpose(jvp(FlaxGPTForLMModule))/transformers/encoder/layer/4/remat(core_fn)/4/attention/output/LayerNorm/div" source_file="/python3.9-env/lib/python3.9/site-packages/flax/linen/normalization.py" source_line=82}
  %divide.752 = f32[4,1024]{1,0} divide(f32[4,1024]{1,0} %param_1.2535, f32[4,1024]{1,0} %broadcast.2307), metadata={op_name="parallelize(train_step_shard_parallel)/jit(main)/transpose(jvp(FlaxGPTForLMModule))/transformers/encoder/layer/4/remat(core_fn)/4/attention/output/LayerNorm/div" source_file="/python3.9-env/lib/python3.9/site-packages/flax/linen/normalization.py" source_line=82}
  %multiply.2336 = f32[4,1024]{1,0} multiply(f32[4,1024]{1,0} %divide.752, f32[4,1024]{1,0} %divide.752), metadata={op_name="parallelize(train_step_shard_parallel)/jit(main)/transpose(jvp(FlaxGPTForLMModule))/transformers/encoder/layer/4/remat(core_fn)/4/attention/output/LayerNorm/mul" source_file="/python3.9-env/lib/python3.9/site-packages/flax/linen/normalization.py" source_line=46}
  %subtract.249 = f32[4,1024]{1,0} subtract(f32[4,1024]{1,0} %divide.753, f32[4,1024]{1,0} %multiply.2336), metadata={op_name="parallelize(train_step_shard_parallel)/jit(main)/transpose(jvp(FlaxGPTForLMModule))/transformers/encoder/layer/4/remat(core_fn)/4/attention/output/LayerNorm/sub" source_file="/python3.9-env/lib/python3.9/site-packages/flax/linen/normalization.py" source_line=93}
  %maximum.106 = f32[4,1024]{1,0} maximum(f32[4,1024]{1,0} %broadcast.2309, f32[4,1024]{1,0} %subtract.249), metadata={op_name="parallelize(train_step_shard_parallel)/jit(main)/transpose(jvp(FlaxGPTForLMModule))/transformers/encoder/layer/4/remat(core_fn)/4/attention/output/LayerNorm/max" source_file="/python3.9-env/lib/python3.9/site-packages/flax/linen/normalization.py" source_line=93}
  %param_0.2086 = f32[] parameter(0)
  %broadcast.2306 = f32[4,1024]{1,0} broadcast(f32[] %param_0.2086), dimensions={}, metadata={op_name="parallelize(train_step_shard_parallel)/jit(main)/transpose(jvp(FlaxGPTForLMModule))/transformers/encoder/layer/4/remat(core_fn)/4/attention/output/LayerNorm/add" source_file="/python3.9-env/lib/python3.9/site-packages/flax/linen/normalization.py" source_line=139}
  %add.1757 = f32[4,1024]{1,0} add(f32[4,1024]{1,0} %maximum.106, f32[4,1024]{1,0} %broadcast.2306), metadata={op_name="parallelize(train_step_shard_parallel)/jit(main)/transpose(jvp(FlaxGPTForLMModule))/transformers/encoder/layer/4/remat(core_fn)/4/attention/output/LayerNorm/add" source_file="/python3.9-env/lib/python3.9/site-packages/flax/linen/normalization.py" source_line=139}
  %bitcast.1298 = f32[4,1024,1]{1,0,2} bitcast(f32[4,1024]{1,0} %add.1757), metadata={op_name="parallelize(train_step_shard_parallel)/jit(main)/transpose(jvp(FlaxGPTForLMModule))/transformers/encoder/layer/4/remat(core_fn)/4/attention/output/LayerNorm/add" source_file="/python3.9-env/lib/python3.9/site-packages/flax/linen/normalization.py" source_line=139}
  %rsqrt.90 = f32[4,1024,1]{1,0,2} rsqrt(f32[4,1024,1]{1,0,2} %bitcast.1298), metadata={op_name="parallelize(train_step_shard_parallel)/jit(main)/transpose(jvp(FlaxGPTForLMModule))/transformers/encoder/layer/4/remat(core_fn)/4/attention/output/LayerNorm/rsqrt" source_file="/python3.9-env/lib/python3.9/site-packages/flax/linen/normalization.py" source_line=139}
  %bitcast.1297 = f32[4,1024]{1,0} bitcast(f32[4,1024,1]{1,0,2} %rsqrt.90), metadata={op_name="parallelize(train_step_shard_parallel)/jit(main)/transpose(jvp(FlaxGPTForLMModule))/transformers/encoder/layer/4/remat(core_fn)/4/attention/output/LayerNorm/mul" source_file="/python3.9-env/lib/python3.9/site-packages/flax/linen/normalization.py" source_line=144}
  %broadcast.2305 = f32[4,1024,1024]{2,1,0} broadcast(f32[4,1024]{1,0} %bitcast.1297), dimensions={0,1}, metadata={op_name="parallelize(train_step_shard_parallel)/jit(main)/transpose(jvp(FlaxGPTForLMModule))/transformers/encoder/layer/4/remat(core_fn)/4/attention/output/LayerNorm/mul" source_file="/python3.9-env/lib/python3.9/site-packages/flax/linen/normalization.py" source_line=144}
  %param_8.376 = f16[4,1024,1024]{2,1,0} parameter(8)
  %convert.840 = f32[4,1024,1024]{2,1,0} convert(f16[4,1024,1024]{2,1,0} %param_8.376), metadata={op_name="parallelize(train_step_shard_parallel)/jit(main)/transpose(jvp(FlaxGPTForLMModule))/transformers/encoder/layer/4/remat(core_fn)/4/attention/output/LayerNorm/convert_element_type[new_dtype=float32 weak_type=False]" source_file="/python3.9-env/lib/python3.9/site-packages/flax/linen/normalization.py" source_line=80}
  %broadcast.2494 = f32[4,1024,1024]{2,1,0} broadcast(f32[4,1024]{1,0} %divide.752), dimensions={0,1}, metadata={op_name="parallelize(train_step_shard_parallel)/jit(main)/transpose(jvp(FlaxGPTForLMModule))/transformers/encoder/layer/4/remat(core_fn)/4/attention/output/LayerNorm/sub" source_file="/python3.9-env/lib/python3.9/site-packages/flax/linen/normalization.py" source_line=138}
  %subtract.284 = f32[4,1024,1024]{2,1,0} subtract(f32[4,1024,1024]{2,1,0} %convert.840, f32[4,1024,1024]{2,1,0} %broadcast.2494), metadata={op_name="parallelize(train_step_shard_parallel)/jit(main)/transpose(jvp(FlaxGPTForLMModule))/transformers/encoder/layer/4/remat(core_fn)/4/attention/output/LayerNorm/sub" source_file="/python3.9-env/lib/python3.9/site-packages/flax/linen/normalization.py" source_line=138}
  %param_6.1033 = f16[4,1024,1024]{2,1,0} parameter(6)
  %param_7.654 = f16[4096,1024]{1,0} parameter(7)
  %bitcast.1348 = f16[4,1024,1024]{2,1,0} bitcast(f16[4096,1024]{1,0} %param_7.654), metadata={op_name="parallelize(train_step_shard_parallel)/jit(main)/transpose(jvp(FlaxGPTForLMModule))/transformers/encoder/layer/4/remat(core_fn)/4/intermediate/dense/dot_general[dimension_numbers=(((2,), (1,)), ((), ())) precision=None preferred_element_type=None]" source_file="/python3.9-env/lib/python3.9/site-packages/flax/linen/linear.py" source_line=196}
  %add.1842 = f16[4,1024,1024]{2,1,0} add(f16[4,1024,1024]{2,1,0} %param_6.1033, f16[4,1024,1024]{2,1,0} %bitcast.1348), metadata={op_name="parallelize(train_step_shard_parallel)/jit(main)/transpose(jvp(FlaxGPTForLMModule))/transformers/encoder/layer/4/remat(core_fn)/4/intermediate/dense/add_any" source_file="/python3.9-env/lib/python3.9/site-packages/flax/linen/linear.py" source_line=196}
  %convert.839 = f32[4,1024,1024]{2,1,0} convert(f16[4,1024,1024]{2,1,0} %add.1842), metadata={op_name="parallelize(train_step_shard_parallel)/jit(main)/transpose(jvp(FlaxGPTForLMModule))/transformers/encoder/layer/4/remat(core_fn)/4/attention/output/LayerNorm/convert_element_type[new_dtype=float32 weak_type=False]" source_file="/python3.9-env/lib/python3.9/site-packages/flax/linen/normalization.py" source_line=153}
  %multiply.2434 = f32[4,1024,1024]{2,1,0} multiply(f32[4,1024,1024]{2,1,0} %subtract.284, f32[4,1024,1024]{2,1,0} %convert.839), metadata={op_name="parallelize(train_step_shard_parallel)/jit(main)/transpose(jvp(FlaxGPTForLMModule))/transformers/encoder/layer/4/remat(core_fn)/4/attention/output/LayerNorm/mul" source_file="/python3.9-env/lib/python3.9/site-packages/flax/linen/normalization.py" source_line=146}
  %multiply.481 = f32[4,1024,1024]{2,1,0} multiply(f32[4,1024,1024]{2,1,0} %broadcast.2305, f32[4,1024,1024]{2,1,0} %multiply.2434), metadata={op_name="parallelize(train_step_shard_parallel)/jit(main)/transpose(jvp(FlaxGPTForLMModule))/transformers/encoder/layer/4/remat(core_fn)/4/attention/output/LayerNorm/mul" source_file="/python3.9-env/lib/python3.9/site-packages/flax/linen/normalization.py" source_line=144}
  %bitcast.628 = f32[4096,1024]{1,0} bitcast(f32[4,1024,1024]{2,1,0} %multiply.481)
  %constant_187 = f32[] constant(0)
  %reduce.219 = f32[1024]{0} reduce(f32[4096,1024]{1,0} %bitcast.628, f32[] %constant_187), dimensions={0}, to_apply=%region_78.2564, metadata={op_name="parallelize(train_step_shard_parallel)/jit(main)/transpose(jvp(FlaxGPTForLMModule))/transformers/encoder/layer/4/remat(core_fn)/4/attention/output/LayerNorm/reduce_sum[axes=(0, 1)]" source_file="/python3.9-env/lib/python3.9/site-packages/flax/linen/normalization.py" source_line=144}
  %bitcast.629.clone.1 = f32[4096,1024]{1,0} bitcast(f32[4,1024,1024]{2,1,0} %convert.839)
  %reduce.220.clone.1 = f32[1024]{0} reduce(f32[4096,1024]{1,0} %bitcast.629.clone.1, f32[] %constant_187), dimensions={0}, to_apply=%region_77.2554, metadata={op_name="parallelize(train_step_shard_parallel)/jit(main)/transpose(jvp(FlaxGPTForLMModule))/transformers/encoder/layer/4/remat(core_fn)/4/attention/output/LayerNorm/reduce_sum[axes=(0, 1)]" source_file="/python3.9-env/lib/python3.9/site-packages/flax/linen/normalization.py" source_line=150}
  ROOT %tuple.203 = (f32[1024]{0}, f32[1024]{0}) tuple(f32[1024]{0} %reduce.219, f32[1024]{0} %reduce.220.clone.1)
}

%region_92.2943 (Arg_0.2944: f32[], Arg_1.2945: f32[]) -> f32[] {
  %Arg_0.2944 = f32[] parameter(0)
  %Arg_1.2945 = f32[] parameter(1)
  ROOT %add.2946 = f32[] add(f32[] %Arg_0.2944, f32[] %Arg_1.2945), metadata={op_name="parallelize(train_step_shard_parallel)/jit(main)/transpose(jvp(FlaxGPTForLMModule))/transformers/encoder/layer/3/remat(core_fn)/3/output/LayerNorm/reduce_sum[axes=(0, 1)]" source_file="/python3.9-env/lib/python3.9/site-packages/flax/linen/normalization.py" source_line=144}
}

%region_91.2933 (Arg_0.2934: f32[], Arg_1.2935: f32[]) -> f32[] {
  %Arg_0.2934 = f32[] parameter(0)
  %Arg_1.2935 = f32[] parameter(1)
  ROOT %add.2936 = f32[] add(f32[] %Arg_0.2934, f32[] %Arg_1.2935), metadata={op_name="parallelize(train_step_shard_parallel)/jit(main)/transpose(jvp(FlaxGPTForLMModule))/transformers/encoder/layer/3/remat(core_fn)/3/output/LayerNorm/reduce_sum[axes=(0, 1)]" source_file="/python3.9-env/lib/python3.9/site-packages/flax/linen/normalization.py" source_line=150}
}

%fused_computation.89 (param_0.2145: f32[], param_1.2607: f32[4,1024], param_2.2394: f32[], param_3.1848: f32[4,1024], param_4.1295: f32[], param_5.1309: f32[], param_6.1093: f16[4,1024,1024], param_7.707: f16[4,1024,1024]) -> (f32[1024], f32[1024]) {
  %param_5.1309 = f32[] parameter(5)
  %broadcast.2677 = f32[4,1024]{1,0} broadcast(f32[] %param_5.1309), dimensions={}, metadata={op_name="parallelize(train_step_shard_parallel)/jit(main)/transpose(jvp(FlaxGPTForLMModule))/transformers/encoder/layer/3/remat(core_fn)/3/output/LayerNorm/max" source_file="/python3.9-env/lib/python3.9/site-packages/flax/linen/normalization.py" source_line=93}
  %param_3.1848 = f32[4,1024]{1,0} parameter(3)
  %param_4.1295 = f32[] parameter(4)
  %broadcast.2676 = f32[4,1024]{1,0} broadcast(f32[] %param_4.1295), dimensions={}, metadata={op_name="parallelize(train_step_shard_parallel)/jit(main)/transpose(jvp(FlaxGPTForLMModule))/transformers/encoder/layer/3/remat(core_fn)/3/output/LayerNorm/div" source_file="/python3.9-env/lib/python3.9/site-packages/flax/linen/normalization.py" source_line=83}
  %divide.877 = f32[4,1024]{1,0} divide(f32[4,1024]{1,0} %param_3.1848, f32[4,1024]{1,0} %broadcast.2676), metadata={op_name="parallelize(train_step_shard_parallel)/jit(main)/transpose(jvp(FlaxGPTForLMModule))/transformers/encoder/layer/3/remat(core_fn)/3/output/LayerNorm/div" source_file="/python3.9-env/lib/python3.9/site-packages/flax/linen/normalization.py" source_line=83}
  %param_1.2607 = f32[4,1024]{1,0} parameter(1)
  %param_2.2394 = f32[] parameter(2)
  %broadcast.2675 = f32[4,1024]{1,0} broadcast(f32[] %param_2.2394), dimensions={}, metadata={op_name="parallelize(train_step_shard_parallel)/jit(main)/transpose(jvp(FlaxGPTForLMModule))/transformers/encoder/layer/3/remat(core_fn)/3/output/LayerNorm/div" source_file="/python3.9-env/lib/python3.9/site-packages/flax/linen/normalization.py" source_line=82}
  %divide.876 = f32[4,1024]{1,0} divide(f32[4,1024]{1,0} %param_1.2607, f32[4,1024]{1,0} %broadcast.2675), metadata={op_name="parallelize(train_step_shard_parallel)/jit(main)/transpose(jvp(FlaxGPTForLMModule))/transformers/encoder/layer/3/remat(core_fn)/3/output/LayerNorm/div" source_file="/python3.9-env/lib/python3.9/site-packages/flax/linen/normalization.py" source_line=82}
  %multiply.2512 = f32[4,1024]{1,0} multiply(f32[4,1024]{1,0} %divide.876, f32[4,1024]{1,0} %divide.876), metadata={op_name="parallelize(train_step_shard_parallel)/jit(main)/transpose(jvp(FlaxGPTForLMModule))/transformers/encoder/layer/3/remat(core_fn)/3/output/LayerNorm/mul" source_file="/python3.9-env/lib/python3.9/site-packages/flax/linen/normalization.py" source_line=46}
  %subtract.324 = f32[4,1024]{1,0} subtract(f32[4,1024]{1,0} %divide.877, f32[4,1024]{1,0} %multiply.2512), metadata={op_name="parallelize(train_step_shard_parallel)/jit(main)/transpose(jvp(FlaxGPTForLMModule))/transformers/encoder/layer/3/remat(core_fn)/3/output/LayerNorm/sub" source_file="/python3.9-env/lib/python3.9/site-packages/flax/linen/normalization.py" source_line=93}
  %maximum.142 = f32[4,1024]{1,0} maximum(f32[4,1024]{1,0} %broadcast.2677, f32[4,1024]{1,0} %subtract.324), metadata={op_name="parallelize(train_step_shard_parallel)/jit(main)/transpose(jvp(FlaxGPTForLMModule))/transformers/encoder/layer/3/remat(core_fn)/3/output/LayerNorm/max" source_file="/python3.9-env/lib/python3.9/site-packages/flax/linen/normalization.py" source_line=93}
  %param_0.2145 = f32[] parameter(0)
  %broadcast.2674 = f32[4,1024]{1,0} broadcast(f32[] %param_0.2145), dimensions={}, metadata={op_name="parallelize(train_step_shard_parallel)/jit(main)/transpose(jvp(FlaxGPTForLMModule))/transformers/encoder/layer/3/remat(core_fn)/3/output/LayerNorm/add" source_file="/python3.9-env/lib/python3.9/site-packages/flax/linen/normalization.py" source_line=139}
  %add.1914 = f32[4,1024]{1,0} add(f32[4,1024]{1,0} %maximum.142, f32[4,1024]{1,0} %broadcast.2674), metadata={op_name="parallelize(train_step_shard_parallel)/jit(main)/transpose(jvp(FlaxGPTForLMModule))/transformers/encoder/layer/3/remat(core_fn)/3/output/LayerNorm/add" source_file="/python3.9-env/lib/python3.9/site-packages/flax/linen/normalization.py" source_line=139}
  %bitcast.1396 = f32[4,1024,1]{1,0,2} bitcast(f32[4,1024]{1,0} %add.1914), metadata={op_name="parallelize(train_step_shard_parallel)/jit(main)/transpose(jvp(FlaxGPTForLMModule))/transformers/encoder/layer/3/remat(core_fn)/3/output/LayerNorm/add" source_file="/python3.9-env/lib/python3.9/site-packages/flax/linen/normalization.py" source_line=139}
  %rsqrt.114 = f32[4,1024,1]{1,0,2} rsqrt(f32[4,1024,1]{1,0,2} %bitcast.1396), metadata={op_name="parallelize(train_step_shard_parallel)/jit(main)/transpose(jvp(FlaxGPTForLMModule))/transformers/encoder/layer/3/remat(core_fn)/3/output/LayerNorm/rsqrt" source_file="/python3.9-env/lib/python3.9/site-packages/flax/linen/normalization.py" source_line=139}
  %bitcast.1395 = f32[4,1024]{1,0} bitcast(f32[4,1024,1]{1,0,2} %rsqrt.114), metadata={op_name="parallelize(train_step_shard_parallel)/jit(main)/transpose(jvp(FlaxGPTForLMModule))/transformers/encoder/layer/3/remat(core_fn)/3/output/LayerNorm/mul" source_file="/python3.9-env/lib/python3.9/site-packages/flax/linen/normalization.py" source_line=144}
  %broadcast.2673 = f32[4,1024,1024]{2,1,0} broadcast(f32[4,1024]{1,0} %bitcast.1395), dimensions={0,1}, metadata={op_name="parallelize(train_step_shard_parallel)/jit(main)/transpose(jvp(FlaxGPTForLMModule))/transformers/encoder/layer/3/remat(core_fn)/3/output/LayerNorm/mul" source_file="/python3.9-env/lib/python3.9/site-packages/flax/linen/normalization.py" source_line=144}
  %param_7.707 = f16[4,1024,1024]{2,1,0} parameter(7)
  %convert.864 = f32[4,1024,1024]{2,1,0} convert(f16[4,1024,1024]{2,1,0} %param_7.707), metadata={op_name="parallelize(train_step_shard_parallel)/jit(main)/transpose(jvp(FlaxGPTForLMModule))/transformers/encoder/layer/3/remat(core_fn)/3/output/LayerNorm/convert_element_type[new_dtype=float32 weak_type=False]" source_file="/python3.9-env/lib/python3.9/site-packages/flax/linen/normalization.py" source_line=80}
  %broadcast.2708 = f32[4,1024,1024]{2,1,0} broadcast(f32[4,1024]{1,0} %divide.876), dimensions={0,1}, metadata={op_name="parallelize(train_step_shard_parallel)/jit(main)/transpose(jvp(FlaxGPTForLMModule))/transformers/encoder/layer/3/remat(core_fn)/3/output/LayerNorm/sub" source_file="/python3.9-env/lib/python3.9/site-packages/flax/linen/normalization.py" source_line=138}
  %subtract.332 = f32[4,1024,1024]{2,1,0} subtract(f32[4,1024,1024]{2,1,0} %convert.864, f32[4,1024,1024]{2,1,0} %broadcast.2708), metadata={op_name="parallelize(train_step_shard_parallel)/jit(main)/transpose(jvp(FlaxGPTForLMModule))/transformers/encoder/layer/3/remat(core_fn)/3/output/LayerNorm/sub" source_file="/python3.9-env/lib/python3.9/site-packages/flax/linen/normalization.py" source_line=138}
  %param_6.1093 = f16[4,1024,1024]{2,1,0} parameter(6)
  %convert.863 = f32[4,1024,1024]{2,1,0} convert(f16[4,1024,1024]{2,1,0} %param_6.1093), metadata={op_name="parallelize(train_step_shard_parallel)/jit(main)/transpose(jvp(FlaxGPTForLMModule))/transformers/encoder/layer/3/remat(core_fn)/3/output/LayerNorm/convert_element_type[new_dtype=float32 weak_type=False]" source_file="/python3.9-env/lib/python3.9/site-packages/flax/linen/normalization.py" source_line=153}
  %multiply.2528 = f32[4,1024,1024]{2,1,0} multiply(f32[4,1024,1024]{2,1,0} %subtract.332, f32[4,1024,1024]{2,1,0} %convert.863), metadata={op_name="parallelize(train_step_shard_parallel)/jit(main)/transpose(jvp(FlaxGPTForLMModule))/transformers/encoder/layer/3/remat(core_fn)/3/output/LayerNorm/mul" source_file="/python3.9-env/lib/python3.9/site-packages/flax/linen/normalization.py" source_line=146}
  %multiply.800 = f32[4,1024,1024]{2,1,0} multiply(f32[4,1024,1024]{2,1,0} %broadcast.2673, f32[4,1024,1024]{2,1,0} %multiply.2528), metadata={op_name="parallelize(train_step_shard_parallel)/jit(main)/transpose(jvp(FlaxGPTForLMModule))/transformers/encoder/layer/3/remat(core_fn)/3/output/LayerNorm/mul" source_file="/python3.9-env/lib/python3.9/site-packages/flax/linen/normalization.py" source_line=144}
  %bitcast.630 = f32[4096,1024]{1,0} bitcast(f32[4,1024,1024]{2,1,0} %multiply.800)
  %constant_215 = f32[] constant(0)
  %reduce.221 = f32[1024]{0} reduce(f32[4096,1024]{1,0} %bitcast.630, f32[] %constant_215), dimensions={0}, to_apply=%region_92.2943, metadata={op_name="parallelize(train_step_shard_parallel)/jit(main)/transpose(jvp(FlaxGPTForLMModule))/transformers/encoder/layer/3/remat(core_fn)/3/output/LayerNorm/reduce_sum[axes=(0, 1)]" source_file="/python3.9-env/lib/python3.9/site-packages/flax/linen/normalization.py" source_line=144}
  %bitcast.631.clone.1 = f32[4096,1024]{1,0} bitcast(f32[4,1024,1024]{2,1,0} %convert.863)
  %reduce.222.clone.1 = f32[1024]{0} reduce(f32[4096,1024]{1,0} %bitcast.631.clone.1, f32[] %constant_215), dimensions={0}, to_apply=%region_91.2933, metadata={op_name="parallelize(train_step_shard_parallel)/jit(main)/transpose(jvp(FlaxGPTForLMModule))/transformers/encoder/layer/3/remat(core_fn)/3/output/LayerNorm/reduce_sum[axes=(0, 1)]" source_file="/python3.9-env/lib/python3.9/site-packages/flax/linen/normalization.py" source_line=150}
  ROOT %tuple.195 = (f32[1024]{0}, f32[1024]{0}) tuple(f32[1024]{0} %reduce.221, f32[1024]{0} %reduce.222.clone.1)
}

%fused_computation.109 (param_0.185: f32[1024], param_1.2958: f32[], param_2.2822: f32[], param_3.2254: f32[1024], param_4.1708: f16[1024], param_5.1844: f32[1024], param_6.1932: f32[1024], param_7.1229: f32[1024], param_8.667: f32[1024], param_9.584: f32[1024], param_10.548: f32[1024], param_11.467: f32[1024], param_12.385: f32[1024], param_13.423: f32[1024], param_14.547: f32[1024], param_15.533: f32[1024], param_16.476: f16[1024], param_17.382: f32[1024], param_18.301: f32[1024], param_19.159: f32[1024], param_20.44: f32[1024], param_21.84: f32[1024], param_22.173: f32[1024], param_23.121: f32[1024], param_24.44: f32[1024], param_25.84: f32[1024], param_26.153: f32[1024], param_27.101: f32[1024], param_28.19: f16[1024], param_29.36: f32[1024], param_30.70: f32[1024], param_31.47: f32[1024], param_32.14: f32[1024], param_33.26: f32[1024]) -> (f32[1024], f32[1024], f32[1024], f32[1024], f32[1024], /*index=5*/f32[1024], f32[1024], f32[1024], f32[1024], f32[1024], /*index=10*/f32[1024], f32[1024], f32[1024], f32[1024], f32[1024], /*index=15*/f32[1024], f32[1024], f32[1024], f32[1024], f32[1024], /*index=20*/f32[1024], f32[1024], f32[1024], f32[1024]) {
  %param_0.185 = f32[1024]{0} parameter(0)
  %param_4.1708 = f16[1024]{0} parameter(4)
  %convert.343.clone.1 = f32[1024]{0} convert(f16[1024]{0} %param_4.1708), metadata={op_name="parallelize(train_step_shard_parallel)/jit(main)/transpose(jvp(FlaxGPTForLMModule))/transformers/encoder/layer/3/remat(core_fn)/3/attention/output/dense/convert_element_type[new_dtype=float32 weak_type=False]" source_file="/python3.9-env/lib/python3.9/site-packages/flax/linen/dtypes.py" source_line=97}
  %constant_269_clone_1 = f32[] constant(0.1)
  %broadcast.623.clone.1 = f32[1024]{0} broadcast(f32[] %constant_269_clone_1), dimensions={}, metadata={op_name="parallelize(train_step_shard_parallel)/jit(main)/mul" source_file="/python3.9-env/lib/python3.9/site-packages/optax/_src/transform.py" source_line=84}
  %multiply.1211.clone.1 = f32[1024]{0} multiply(f32[1024]{0} %convert.343.clone.1, f32[1024]{0} %broadcast.623.clone.1), metadata={op_name="parallelize(train_step_shard_parallel)/jit(main)/mul" source_file="/python3.9-env/lib/python3.9/site-packages/optax/_src/transform.py" source_line=84}
  %param_5.1844 = f32[1024]{0} parameter(5)
  %constant_270_clone_1 = f32[] constant(0.9)
  %broadcast.624.clone.1 = f32[1024]{0} broadcast(f32[] %constant_270_clone_1), dimensions={}, metadata={op_name="parallelize(train_step_shard_parallel)/jit(main)/mul" source_file="/python3.9-env/lib/python3.9/site-packages/optax/_src/transform.py" source_line=84}
  %multiply.1209.clone.1 = f32[1024]{0} multiply(f32[1024]{0} %param_5.1844, f32[1024]{0} %broadcast.624.clone.1), metadata={op_name="parallelize(train_step_shard_parallel)/jit(main)/mul" source_file="/python3.9-env/lib/python3.9/site-packages/optax/_src/transform.py" source_line=84}
  %add.952.clone.1 = f32[1024]{0} add(f32[1024]{0} %multiply.1211.clone.1, f32[1024]{0} %multiply.1209.clone.1), metadata={op_name="parallelize(train_step_shard_parallel)/jit(main)/add" source_file="/python3.9-env/lib/python3.9/site-packages/optax/_src/transform.py" source_line=84}
  %param_2.2822 = f32[] parameter(2)
  %broadcast.613 = f32[1024]{0} broadcast(f32[] %param_2.2822), dimensions={}, metadata={op_name="parallelize(train_step_shard_parallel)/jit(main)/div" source_file="/python3.9-env/lib/python3.9/site-packages/optax/_src/transform.py" source_line=114}
  %multiply.1207.clone.1 = f32[1024]{0} multiply(f32[1024]{0} %convert.343.clone.1, f32[1024]{0} %convert.343.clone.1), metadata={op_name="parallelize(train_step_shard_parallel)/jit(main)/mul" source_file="/python3.9-env/lib/python3.9/site-packages/optax/_src/transform.py" source_line=98}
  %constant_267_clone_1 = f32[] constant(0.001)
  %broadcast.619.clone.1 = f32[1024]{0} broadcast(f32[] %constant_267_clone_1), dimensions={}, metadata={op_name="parallelize(train_step_shard_parallel)/jit(main)/mul" source_file="/python3.9-env/lib/python3.9/site-packages/optax/_src/transform.py" source_line=107}
  %multiply.1205.clone.1 = f32[1024]{0} multiply(f32[1024]{0} %multiply.1207.clone.1, f32[1024]{0} %broadcast.619.clone.1), metadata={op_name="parallelize(train_step_shard_parallel)/jit(main)/mul" source_file="/python3.9-env/lib/python3.9/site-packages/optax/_src/transform.py" source_line=107}
  %param_3.2254 = f32[1024]{0} parameter(3)
  %constant_268_clone_1 = f32[] constant(0.999)
  %broadcast.621.clone.1 = f32[1024]{0} broadcast(f32[] %constant_268_clone_1), dimensions={}, metadata={op_name="parallelize(train_step_shard_parallel)/jit(main)/mul" source_file="/python3.9-env/lib/python3.9/site-packages/optax/_src/transform.py" source_line=107}
  %multiply.1203.clone.1 = f32[1024]{0} multiply(f32[1024]{0} %param_3.2254, f32[1024]{0} %broadcast.621.clone.1), metadata={op_name="parallelize(train_step_shard_parallel)/jit(main)/mul" source_file="/python3.9-env/lib/python3.9/site-packages/optax/_src/transform.py" source_line=107}
  %add.951.clone.1 = f32[1024]{0} add(f32[1024]{0} %multiply.1205.clone.1, f32[1024]{0} %multiply.1203.clone.1), metadata={op_name="parallelize(train_step_shard_parallel)/jit(main)/add" source_file="/python3.9-env/lib/python3.9/site-packages/optax/_src/transform.py" source_line=107}
  %param_1.2958 = f32[] parameter(1)
  %broadcast.610 = f32[1024]{0} broadcast(f32[] %param_1.2958), dimensions={}, metadata={op_name="parallelize(train_step_shard_parallel)/jit(main)/div" source_file="/python3.9-env/lib/python3.9/site-packages/optax/_src/transform.py" source_line=114}
  %divide.67 = f32[1024]{0} divide(f32[1024]{0} %add.951.clone.1, f32[1024]{0} %broadcast.610), metadata={op_name="parallelize(train_step_shard_parallel)/jit(main)/div" source_file="/python3.9-env/lib/python3.9/site-packages/optax/_src/transform.py" source_line=114}
  %sqrt.110 = f32[1024]{0} sqrt(f32[1024]{0} %divide.67), metadata={op_name="parallelize(train_step_shard_parallel)/jit(main)/sqrt" source_file="/python3.9-env/lib/python3.9/site-packages/optax/_src/transform.py" source_line=340}
  %constant_264 = f32[] constant(1e-08)
  %broadcast.612 = f32[1024]{0} broadcast(f32[] %constant_264), dimensions={}, metadata={op_name="parallelize(train_step_shard_parallel)/jit(main)/add" source_file="/python3.9-env/lib/python3.9/site-packages/optax/_src/transform.py" source_line=340}
  %add.950 = f32[1024]{0} add(f32[1024]{0} %sqrt.110, f32[1024]{0} %broadcast.612), metadata={op_name="parallelize(train_step_shard_parallel)/jit(main)/add" source_file="/python3.9-env/lib/python3.9/site-packages/optax/_src/transform.py" source_line=340}
  %multiply.1202 = f32[1024]{0} multiply(f32[1024]{0} %broadcast.613, f32[1024]{0} %add.950)
  %divide.66 = f32[1024]{0} divide(f32[1024]{0} %add.952.clone.1, f32[1024]{0} %multiply.1202), metadata={op_name="parallelize(train_step_shard_parallel)/jit(main)/div" source_file="/python3.9-env/lib/python3.9/site-packages/optax/_src/transform.py" source_line=340}
  %constant_266 = f32[] constant(-0.01)
  %broadcast.617 = f32[1024]{0} broadcast(f32[] %constant_266), dimensions={}, metadata={op_name="parallelize(train_step_shard_parallel)/jit(main)/mul" source_file="/python3.9-env/lib/python3.9/site-packages/optax/_src/transform.py" source_line=405}
  %multiply.1184 = f32[1024]{0} multiply(f32[1024]{0} %divide.66, f32[1024]{0} %broadcast.617), metadata={op_name="parallelize(train_step_shard_parallel)/jit(main)/mul" source_file="/python3.9-env/lib/python3.9/site-packages/optax/_src/transform.py" source_line=405}
  %add.949 = f32[1024]{0} add(f32[1024]{0} %param_0.185, f32[1024]{0} %multiply.1184), metadata={op_name="parallelize(train_step_shard_parallel)/jit(main)/add" source_file="/python3.9-env/lib/python3.9/site-packages/optax/_src/update.py" source_line=43}
  %param_6.1932 = f32[1024]{0} parameter(6)
  %param_8.667 = f32[1024]{0} parameter(8)
  %multiply.1225.clone.1.clone.1 = f32[1024]{0} multiply(f32[1024]{0} %param_8.667, f32[1024]{0} %broadcast.623.clone.1), metadata={op_name="parallelize(train_step_shard_parallel)/jit(main)/mul" source_file="/python3.9-env/lib/python3.9/site-packages/optax/_src/transform.py" source_line=84}
  %param_9.584 = f32[1024]{0} parameter(9)
  %multiply.1223.clone.1.clone.1 = f32[1024]{0} multiply(f32[1024]{0} %param_9.584, f32[1024]{0} %broadcast.624.clone.1), metadata={op_name="parallelize(train_step_shard_parallel)/jit(main)/mul" source_file="/python3.9-env/lib/python3.9/site-packages/optax/_src/transform.py" source_line=84}
  %add.956.clone.1.clone.1 = f32[1024]{0} add(f32[1024]{0} %multiply.1225.clone.1.clone.1, f32[1024]{0} %multiply.1223.clone.1.clone.1), metadata={op_name="parallelize(train_step_shard_parallel)/jit(main)/add" source_file="/python3.9-env/lib/python3.9/site-packages/optax/_src/transform.py" source_line=84}
  %multiply.1221.clone.1.clone.1 = f32[1024]{0} multiply(f32[1024]{0} %param_8.667, f32[1024]{0} %param_8.667), metadata={op_name="parallelize(train_step_shard_parallel)/jit(main)/mul" source_file="/python3.9-env/lib/python3.9/site-packages/optax/_src/transform.py" source_line=98}
  %multiply.1219.clone.1.clone.1 = f32[1024]{0} multiply(f32[1024]{0} %multiply.1221.clone.1.clone.1, f32[1024]{0} %broadcast.619.clone.1), metadata={op_name="parallelize(train_step_shard_parallel)/jit(main)/mul" source_file="/python3.9-env/lib/python3.9/site-packages/optax/_src/transform.py" source_line=107}
  %param_7.1229 = f32[1024]{0} parameter(7)
  %multiply.1217.clone.1.clone.1 = f32[1024]{0} multiply(f32[1024]{0} %param_7.1229, f32[1024]{0} %broadcast.621.clone.1), metadata={op_name="parallelize(train_step_shard_parallel)/jit(main)/mul" source_file="/python3.9-env/lib/python3.9/site-packages/optax/_src/transform.py" source_line=107}
  %add.955.clone.1.clone.1 = f32[1024]{0} add(f32[1024]{0} %multiply.1219.clone.1.clone.1, f32[1024]{0} %multiply.1217.clone.1.clone.1), metadata={op_name="parallelize(train_step_shard_parallel)/jit(main)/add" source_file="/python3.9-env/lib/python3.9/site-packages/optax/_src/transform.py" source_line=107}
  %divide.69.clone.1 = f32[1024]{0} divide(f32[1024]{0} %add.955.clone.1.clone.1, f32[1024]{0} %broadcast.610), metadata={op_name="parallelize(train_step_shard_parallel)/jit(main)/div" source_file="/python3.9-env/lib/python3.9/site-packages/optax/_src/transform.py" source_line=114}
  %sqrt.111.clone.1 = f32[1024]{0} sqrt(f32[1024]{0} %divide.69.clone.1), metadata={op_name="parallelize(train_step_shard_parallel)/jit(main)/sqrt" source_file="/python3.9-env/lib/python3.9/site-packages/optax/_src/transform.py" source_line=340}
  %add.954.clone.1 = f32[1024]{0} add(f32[1024]{0} %sqrt.111.clone.1, f32[1024]{0} %broadcast.612), metadata={op_name="parallelize(train_step_shard_parallel)/jit(main)/add" source_file="/python3.9-env/lib/python3.9/site-packages/optax/_src/transform.py" source_line=340}
  %multiply.1215.clone.1 = f32[1024]{0} multiply(f32[1024]{0} %broadcast.613, f32[1024]{0} %add.954.clone.1)
  %divide.68.clone.1 = f32[1024]{0} divide(f32[1024]{0} %add.956.clone.1.clone.1, f32[1024]{0} %multiply.1215.clone.1), metadata={op_name="parallelize(train_step_shard_parallel)/jit(main)/div" source_file="/python3.9-env/lib/python3.9/site-packages/optax/_src/transform.py" source_line=340}
  %multiply.1213.clone.1 = f32[1024]{0} multiply(f32[1024]{0} %divide.68.clone.1, f32[1024]{0} %broadcast.617), metadata={op_name="parallelize(train_step_shard_parallel)/jit(main)/mul" source_file="/python3.9-env/lib/python3.9/site-packages/optax/_src/transform.py" source_line=405}
  %add.953.clone.1 = f32[1024]{0} add(f32[1024]{0} %param_6.1932, f32[1024]{0} %multiply.1213.clone.1), metadata={op_name="parallelize(train_step_shard_parallel)/jit(main)/add" source_file="/python3.9-env/lib/python3.9/site-packages/optax/_src/update.py" source_line=43}
  %param_10.548 = f32[1024]{0} parameter(10)
  %param_12.385 = f32[1024]{0} parameter(12)
  %multiply.1344.clone.1.clone.1 = f32[1024]{0} multiply(f32[1024]{0} %param_12.385, f32[1024]{0} %broadcast.623.clone.1), metadata={op_name="parallelize(train_step_shard_parallel)/jit(main)/mul" source_file="/python3.9-env/lib/python3.9/site-packages/optax/_src/transform.py" source_line=84}
  %param_13.423 = f32[1024]{0} parameter(13)
  %multiply.1343.clone.1.clone.1 = f32[1024]{0} multiply(f32[1024]{0} %param_13.423, f32[1024]{0} %broadcast.624.clone.1), metadata={op_name="parallelize(train_step_shard_parallel)/jit(main)/mul" source_file="/python3.9-env/lib/python3.9/site-packages/optax/_src/transform.py" source_line=84}
  %add.960.clone.1.clone.1 = f32[1024]{0} add(f32[1024]{0} %multiply.1344.clone.1.clone.1, f32[1024]{0} %multiply.1343.clone.1.clone.1), metadata={op_name="parallelize(train_step_shard_parallel)/jit(main)/add" source_file="/python3.9-env/lib/python3.9/site-packages/optax/_src/transform.py" source_line=84}
  %multiply.1276.clone.1.clone.1 = f32[1024]{0} multiply(f32[1024]{0} %param_12.385, f32[1024]{0} %param_12.385), metadata={op_name="parallelize(train_step_shard_parallel)/jit(main)/mul" source_file="/python3.9-env/lib/python3.9/site-packages/optax/_src/transform.py" source_line=98}
  %multiply.1275.clone.1.clone.1 = f32[1024]{0} multiply(f32[1024]{0} %multiply.1276.clone.1.clone.1, f32[1024]{0} %broadcast.619.clone.1), metadata={op_name="parallelize(train_step_shard_parallel)/jit(main)/mul" source_file="/python3.9-env/lib/python3.9/site-packages/optax/_src/transform.py" source_line=107}
  %param_11.467 = f32[1024]{0} parameter(11)
  %multiply.1262.clone.1.clone.1 = f32[1024]{0} multiply(f32[1024]{0} %param_11.467, f32[1024]{0} %broadcast.621.clone.1), metadata={op_name="parallelize(train_step_shard_parallel)/jit(main)/mul" source_file="/python3.9-env/lib/python3.9/site-packages/optax/_src/transform.py" source_line=107}
  %add.959.clone.1.clone.1 = f32[1024]{0} add(f32[1024]{0} %multiply.1275.clone.1.clone.1, f32[1024]{0} %multiply.1262.clone.1.clone.1), metadata={op_name="parallelize(train_step_shard_parallel)/jit(main)/add" source_file="/python3.9-env/lib/python3.9/site-packages/optax/_src/transform.py" source_line=107}
  %divide.71.clone.1 = f32[1024]{0} divide(f32[1024]{0} %add.959.clone.1.clone.1, f32[1024]{0} %broadcast.610), metadata={op_name="parallelize(train_step_shard_parallel)/jit(main)/div" source_file="/python3.9-env/lib/python3.9/site-packages/optax/_src/transform.py" source_line=114}
  %sqrt.112.clone.1 = f32[1024]{0} sqrt(f32[1024]{0} %divide.71.clone.1), metadata={op_name="parallelize(train_step_shard_parallel)/jit(main)/sqrt" source_file="/python3.9-env/lib/python3.9/site-packages/optax/_src/transform.py" source_line=340}
  %add.958.clone.1 = f32[1024]{0} add(f32[1024]{0} %sqrt.112.clone.1, f32[1024]{0} %broadcast.612), metadata={op_name="parallelize(train_step_shard_parallel)/jit(main)/add" source_file="/python3.9-env/lib/python3.9/site-packages/optax/_src/transform.py" source_line=340}
  %multiply.1255.clone.1 = f32[1024]{0} multiply(f32[1024]{0} %broadcast.613, f32[1024]{0} %add.958.clone.1)
  %divide.70.clone.1 = f32[1024]{0} divide(f32[1024]{0} %add.960.clone.1.clone.1, f32[1024]{0} %multiply.1255.clone.1), metadata={op_name="parallelize(train_step_shard_parallel)/jit(main)/div" source_file="/python3.9-env/lib/python3.9/site-packages/optax/_src/transform.py" source_line=340}
  %multiply.1231.clone.1 = f32[1024]{0} multiply(f32[1024]{0} %divide.70.clone.1, f32[1024]{0} %broadcast.617), metadata={op_name="parallelize(train_step_shard_parallel)/jit(main)/mul" source_file="/python3.9-env/lib/python3.9/site-packages/optax/_src/transform.py" source_line=405}
  %add.957.clone.1 = f32[1024]{0} add(f32[1024]{0} %param_10.548, f32[1024]{0} %multiply.1231.clone.1), metadata={op_name="parallelize(train_step_shard_parallel)/jit(main)/add" source_file="/python3.9-env/lib/python3.9/site-packages/optax/_src/update.py" source_line=43}
  %param_14.547 = f32[1024]{0} parameter(14)
  %param_16.476 = f16[1024]{0} parameter(16)
  %convert.348.clone.1.clone.1 = f32[1024]{0} convert(f16[1024]{0} %param_16.476), metadata={op_name="parallelize(train_step_shard_parallel)/jit(main)/transpose(jvp(FlaxGPTForLMModule))/transformers/encoder/layer/2/remat(core_fn)/2/output/dense/convert_element_type[new_dtype=float32 weak_type=False]" source_file="/python3.9-env/lib/python3.9/site-packages/flax/linen/dtypes.py" source_line=97}
  %multiply.1359.clone.1.clone.1 = f32[1024]{0} multiply(f32[1024]{0} %convert.348.clone.1.clone.1, f32[1024]{0} %broadcast.623.clone.1), metadata={op_name="parallelize(train_step_shard_parallel)/jit(main)/mul" source_file="/python3.9-env/lib/python3.9/site-packages/optax/_src/transform.py" source_line=84}
  %param_17.382 = f32[1024]{0} parameter(17)
  %multiply.1358.clone.1.clone.1 = f32[1024]{0} multiply(f32[1024]{0} %param_17.382, f32[1024]{0} %broadcast.624.clone.1), metadata={op_name="parallelize(train_step_shard_parallel)/jit(main)/mul" source_file="/python3.9-env/lib/python3.9/site-packages/optax/_src/transform.py" source_line=84}
  %add.970.clone.1.clone.1 = f32[1024]{0} add(f32[1024]{0} %multiply.1359.clone.1.clone.1, f32[1024]{0} %multiply.1358.clone.1.clone.1), metadata={op_name="parallelize(train_step_shard_parallel)/jit(main)/add" source_file="/python3.9-env/lib/python3.9/site-packages/optax/_src/transform.py" source_line=84}
  %multiply.1357.clone.1.clone.1 = f32[1024]{0} multiply(f32[1024]{0} %convert.348.clone.1.clone.1, f32[1024]{0} %convert.348.clone.1.clone.1), metadata={op_name="parallelize(train_step_shard_parallel)/jit(main)/mul" source_file="/python3.9-env/lib/python3.9/site-packages/optax/_src/transform.py" source_line=98}
  %multiply.1356.clone.1.clone.1 = f32[1024]{0} multiply(f32[1024]{0} %multiply.1357.clone.1.clone.1, f32[1024]{0} %broadcast.619.clone.1), metadata={op_name="parallelize(train_step_shard_parallel)/jit(main)/mul" source_file="/python3.9-env/lib/python3.9/site-packages/optax/_src/transform.py" source_line=107}
  %param_15.533 = f32[1024]{0} parameter(15)
  %multiply.1355.clone.1.clone.1 = f32[1024]{0} multiply(f32[1024]{0} %param_15.533, f32[1024]{0} %broadcast.621.clone.1), metadata={op_name="parallelize(train_step_shard_parallel)/jit(main)/mul" source_file="/python3.9-env/lib/python3.9/site-packages/optax/_src/transform.py" source_line=107}
  %add.969.clone.1.clone.1 = f32[1024]{0} add(f32[1024]{0} %multiply.1356.clone.1.clone.1, f32[1024]{0} %multiply.1355.clone.1.clone.1), metadata={op_name="parallelize(train_step_shard_parallel)/jit(main)/add" source_file="/python3.9-env/lib/python3.9/site-packages/optax/_src/transform.py" source_line=107}
  %divide.75.clone.1 = f32[1024]{0} divide(f32[1024]{0} %add.969.clone.1.clone.1, f32[1024]{0} %broadcast.610), metadata={op_name="parallelize(train_step_shard_parallel)/jit(main)/div" source_file="/python3.9-env/lib/python3.9/site-packages/optax/_src/transform.py" source_line=114}
  %sqrt.114.clone.1 = f32[1024]{0} sqrt(f32[1024]{0} %divide.75.clone.1), metadata={op_name="parallelize(train_step_shard_parallel)/jit(main)/sqrt" source_file="/python3.9-env/lib/python3.9/site-packages/optax/_src/transform.py" source_line=340}
  %add.968.clone.1 = f32[1024]{0} add(f32[1024]{0} %sqrt.114.clone.1, f32[1024]{0} %broadcast.612), metadata={op_name="parallelize(train_step_shard_parallel)/jit(main)/add" source_file="/python3.9-env/lib/python3.9/site-packages/optax/_src/transform.py" source_line=340}
  %multiply.1354.clone.1 = f32[1024]{0} multiply(f32[1024]{0} %broadcast.613, f32[1024]{0} %add.968.clone.1)
  %divide.74.clone.1 = f32[1024]{0} divide(f32[1024]{0} %add.970.clone.1.clone.1, f32[1024]{0} %multiply.1354.clone.1), metadata={op_name="parallelize(train_step_shard_parallel)/jit(main)/div" source_file="/python3.9-env/lib/python3.9/site-packages/optax/_src/transform.py" source_line=340}
  %multiply.1353.clone.1 = f32[1024]{0} multiply(f32[1024]{0} %divide.74.clone.1, f32[1024]{0} %broadcast.617), metadata={op_name="parallelize(train_step_shard_parallel)/jit(main)/mul" source_file="/python3.9-env/lib/python3.9/site-packages/optax/_src/transform.py" source_line=405}
  %add.967.clone.1 = f32[1024]{0} add(f32[1024]{0} %param_14.547, f32[1024]{0} %multiply.1353.clone.1), metadata={op_name="parallelize(train_step_shard_parallel)/jit(main)/add" source_file="/python3.9-env/lib/python3.9/site-packages/optax/_src/update.py" source_line=43}
  %param_18.301 = f32[1024]{0} parameter(18)
  %param_20.44 = f32[1024]{0} parameter(20)
  %multiply.1366.clone.1.clone.1 = f32[1024]{0} multiply(f32[1024]{0} %param_20.44, f32[1024]{0} %broadcast.623.clone.1), metadata={op_name="parallelize(train_step_shard_parallel)/jit(main)/mul" source_file="/python3.9-env/lib/python3.9/site-packages/optax/_src/transform.py" source_line=84}
  %param_21.84 = f32[1024]{0} parameter(21)
  %multiply.1365.clone.1.clone.1 = f32[1024]{0} multiply(f32[1024]{0} %param_21.84, f32[1024]{0} %broadcast.624.clone.1), metadata={op_name="parallelize(train_step_shard_parallel)/jit(main)/mul" source_file="/python3.9-env/lib/python3.9/site-packages/optax/_src/transform.py" source_line=84}
  %add.974.clone.1.clone.1 = f32[1024]{0} add(f32[1024]{0} %multiply.1366.clone.1.clone.1, f32[1024]{0} %multiply.1365.clone.1.clone.1), metadata={op_name="parallelize(train_step_shard_parallel)/jit(main)/add" source_file="/python3.9-env/lib/python3.9/site-packages/optax/_src/transform.py" source_line=84}
  %multiply.1364.clone.1.clone.1 = f32[1024]{0} multiply(f32[1024]{0} %param_20.44, f32[1024]{0} %param_20.44), metadata={op_name="parallelize(train_step_shard_parallel)/jit(main)/mul" source_file="/python3.9-env/lib/python3.9/site-packages/optax/_src/transform.py" source_line=98}
  %multiply.1363.clone.1.clone.1 = f32[1024]{0} multiply(f32[1024]{0} %multiply.1364.clone.1.clone.1, f32[1024]{0} %broadcast.619.clone.1), metadata={op_name="parallelize(train_step_shard_parallel)/jit(main)/mul" source_file="/python3.9-env/lib/python3.9/site-packages/optax/_src/transform.py" source_line=107}
  %param_19.159 = f32[1024]{0} parameter(19)
  %multiply.1362.clone.1.clone.1 = f32[1024]{0} multiply(f32[1024]{0} %param_19.159, f32[1024]{0} %broadcast.621.clone.1), metadata={op_name="parallelize(train_step_shard_parallel)/jit(main)/mul" source_file="/python3.9-env/lib/python3.9/site-packages/optax/_src/transform.py" source_line=107}
  %add.973.clone.1.clone.1 = f32[1024]{0} add(f32[1024]{0} %multiply.1363.clone.1.clone.1, f32[1024]{0} %multiply.1362.clone.1.clone.1), metadata={op_name="parallelize(train_step_shard_parallel)/jit(main)/add" source_file="/python3.9-env/lib/python3.9/site-packages/optax/_src/transform.py" source_line=107}
  %divide.77.clone.1 = f32[1024]{0} divide(f32[1024]{0} %add.973.clone.1.clone.1, f32[1024]{0} %broadcast.610), metadata={op_name="parallelize(train_step_shard_parallel)/jit(main)/div" source_file="/python3.9-env/lib/python3.9/site-packages/optax/_src/transform.py" source_line=114}
  %sqrt.115.clone.1 = f32[1024]{0} sqrt(f32[1024]{0} %divide.77.clone.1), metadata={op_name="parallelize(train_step_shard_parallel)/jit(main)/sqrt" source_file="/python3.9-env/lib/python3.9/site-packages/optax/_src/transform.py" source_line=340}
  %add.972.clone.1 = f32[1024]{0} add(f32[1024]{0} %sqrt.115.clone.1, f32[1024]{0} %broadcast.612), metadata={op_name="parallelize(train_step_shard_parallel)/jit(main)/add" source_file="/python3.9-env/lib/python3.9/site-packages/optax/_src/transform.py" source_line=340}
  %multiply.1361.clone.1 = f32[1024]{0} multiply(f32[1024]{0} %broadcast.613, f32[1024]{0} %add.972.clone.1)
  %divide.76.clone.1 = f32[1024]{0} divide(f32[1024]{0} %add.974.clone.1.clone.1, f32[1024]{0} %multiply.1361.clone.1), metadata={op_name="parallelize(train_step_shard_parallel)/jit(main)/div" source_file="/python3.9-env/lib/python3.9/site-packages/optax/_src/transform.py" source_line=340}
  %multiply.1360.clone.1 = f32[1024]{0} multiply(f32[1024]{0} %divide.76.clone.1, f32[1024]{0} %broadcast.617), metadata={op_name="parallelize(train_step_shard_parallel)/jit(main)/mul" source_file="/python3.9-env/lib/python3.9/site-packages/optax/_src/transform.py" source_line=405}
  %add.971.clone.1 = f32[1024]{0} add(f32[1024]{0} %param_18.301, f32[1024]{0} %multiply.1360.clone.1), metadata={op_name="parallelize(train_step_shard_parallel)/jit(main)/add" source_file="/python3.9-env/lib/python3.9/site-packages/optax/_src/update.py" source_line=43}
  %param_22.173 = f32[1024]{0} parameter(22)
  %param_24.44 = f32[1024]{0} parameter(24)
  %multiply.1374.clone.1.clone.1 = f32[1024]{0} multiply(f32[1024]{0} %param_24.44, f32[1024]{0} %broadcast.623.clone.1), metadata={op_name="parallelize(train_step_shard_parallel)/jit(main)/mul" source_file="/python3.9-env/lib/python3.9/site-packages/optax/_src/transform.py" source_line=84}
  %param_25.84 = f32[1024]{0} parameter(25)
  %multiply.1373.clone.1.clone.1 = f32[1024]{0} multiply(f32[1024]{0} %param_25.84, f32[1024]{0} %broadcast.624.clone.1), metadata={op_name="parallelize(train_step_shard_parallel)/jit(main)/mul" source_file="/python3.9-env/lib/python3.9/site-packages/optax/_src/transform.py" source_line=84}
  %add.979.clone.1.clone.1 = f32[1024]{0} add(f32[1024]{0} %multiply.1374.clone.1.clone.1, f32[1024]{0} %multiply.1373.clone.1.clone.1), metadata={op_name="parallelize(train_step_shard_parallel)/jit(main)/add" source_file="/python3.9-env/lib/python3.9/site-packages/optax/_src/transform.py" source_line=84}
  %multiply.1372.clone.1.clone.1 = f32[1024]{0} multiply(f32[1024]{0} %param_24.44, f32[1024]{0} %param_24.44), metadata={op_name="parallelize(train_step_shard_parallel)/jit(main)/mul" source_file="/python3.9-env/lib/python3.9/site-packages/optax/_src/transform.py" source_line=98}
  %multiply.1371.clone.1.clone.1 = f32[1024]{0} multiply(f32[1024]{0} %multiply.1372.clone.1.clone.1, f32[1024]{0} %broadcast.619.clone.1), metadata={op_name="parallelize(train_step_shard_parallel)/jit(main)/mul" source_file="/python3.9-env/lib/python3.9/site-packages/optax/_src/transform.py" source_line=107}
  %param_23.121 = f32[1024]{0} parameter(23)
  %multiply.1370.clone.1.clone.1 = f32[1024]{0} multiply(f32[1024]{0} %param_23.121, f32[1024]{0} %broadcast.621.clone.1), metadata={op_name="parallelize(train_step_shard_parallel)/jit(main)/mul" source_file="/python3.9-env/lib/python3.9/site-packages/optax/_src/transform.py" source_line=107}
  %add.978.clone.1.clone.1 = f32[1024]{0} add(f32[1024]{0} %multiply.1371.clone.1.clone.1, f32[1024]{0} %multiply.1370.clone.1.clone.1), metadata={op_name="parallelize(train_step_shard_parallel)/jit(main)/add" source_file="/python3.9-env/lib/python3.9/site-packages/optax/_src/transform.py" source_line=107}
  %divide.79.clone.1 = f32[1024]{0} divide(f32[1024]{0} %add.978.clone.1.clone.1, f32[1024]{0} %broadcast.610), metadata={op_name="parallelize(train_step_shard_parallel)/jit(main)/div" source_file="/python3.9-env/lib/python3.9/site-packages/optax/_src/transform.py" source_line=114}
  %sqrt.116.clone.1 = f32[1024]{0} sqrt(f32[1024]{0} %divide.79.clone.1), metadata={op_name="parallelize(train_step_shard_parallel)/jit(main)/sqrt" source_file="/python3.9-env/lib/python3.9/site-packages/optax/_src/transform.py" source_line=340}
  %add.977.clone.1 = f32[1024]{0} add(f32[1024]{0} %sqrt.116.clone.1, f32[1024]{0} %broadcast.612), metadata={op_name="parallelize(train_step_shard_parallel)/jit(main)/add" source_file="/python3.9-env/lib/python3.9/site-packages/optax/_src/transform.py" source_line=340}
  %multiply.1369.clone.1 = f32[1024]{0} multiply(f32[1024]{0} %broadcast.613, f32[1024]{0} %add.977.clone.1)
  %divide.78.clone.1 = f32[1024]{0} divide(f32[1024]{0} %add.979.clone.1.clone.1, f32[1024]{0} %multiply.1369.clone.1), metadata={op_name="parallelize(train_step_shard_parallel)/jit(main)/div" source_file="/python3.9-env/lib/python3.9/site-packages/optax/_src/transform.py" source_line=340}
  %multiply.1368.clone.1 = f32[1024]{0} multiply(f32[1024]{0} %divide.78.clone.1, f32[1024]{0} %broadcast.617), metadata={op_name="parallelize(train_step_shard_parallel)/jit(main)/mul" source_file="/python3.9-env/lib/python3.9/site-packages/optax/_src/transform.py" source_line=405}
  %add.976.clone.1 = f32[1024]{0} add(f32[1024]{0} %param_22.173, f32[1024]{0} %multiply.1368.clone.1), metadata={op_name="parallelize(train_step_shard_parallel)/jit(main)/add" source_file="/python3.9-env/lib/python3.9/site-packages/optax/_src/update.py" source_line=43}
  %param_26.153 = f32[1024]{0} parameter(26)
  %param_28.19 = f16[1024]{0} parameter(28)
  %convert.361.clone.1.clone.1 = f32[1024]{0} convert(f16[1024]{0} %param_28.19), metadata={op_name="parallelize(train_step_shard_parallel)/jit(main)/transpose(jvp(FlaxGPTForLMModule))/transformers/encoder/layer/2/remat(core_fn)/2/attention/output/dense/convert_element_type[new_dtype=float32 weak_type=False]" source_file="/python3.9-env/lib/python3.9/site-packages/flax/linen/dtypes.py" source_line=97}
  %multiply.1419.clone.1.clone.1 = f32[1024]{0} multiply(f32[1024]{0} %convert.361.clone.1.clone.1, f32[1024]{0} %broadcast.623.clone.1), metadata={op_name="parallelize(train_step_shard_parallel)/jit(main)/mul" source_file="/python3.9-env/lib/python3.9/site-packages/optax/_src/transform.py" source_line=84}
  %param_29.36 = f32[1024]{0} parameter(29)
  %multiply.1418.clone.1.clone.1 = f32[1024]{0} multiply(f32[1024]{0} %param_29.36, f32[1024]{0} %broadcast.624.clone.1), metadata={op_name="parallelize(train_step_shard_parallel)/jit(main)/mul" source_file="/python3.9-env/lib/python3.9/site-packages/optax/_src/transform.py" source_line=84}
  %add.1006.clone.1.clone.1 = f32[1024]{0} add(f32[1024]{0} %multiply.1419.clone.1.clone.1, f32[1024]{0} %multiply.1418.clone.1.clone.1), metadata={op_name="parallelize(train_step_shard_parallel)/jit(main)/add" source_file="/python3.9-env/lib/python3.9/site-packages/optax/_src/transform.py" source_line=84}
  %multiply.1417.clone.1.clone.1 = f32[1024]{0} multiply(f32[1024]{0} %convert.361.clone.1.clone.1, f32[1024]{0} %convert.361.clone.1.clone.1), metadata={op_name="parallelize(train_step_shard_parallel)/jit(main)/mul" source_file="/python3.9-env/lib/python3.9/site-packages/optax/_src/transform.py" source_line=98}
  %multiply.1416.clone.1.clone.1 = f32[1024]{0} multiply(f32[1024]{0} %multiply.1417.clone.1.clone.1, f32[1024]{0} %broadcast.619.clone.1), metadata={op_name="parallelize(train_step_shard_parallel)/jit(main)/mul" source_file="/python3.9-env/lib/python3.9/site-packages/optax/_src/transform.py" source_line=107}
  %param_27.101 = f32[1024]{0} parameter(27)
  %multiply.1415.clone.1.clone.1 = f32[1024]{0} multiply(f32[1024]{0} %param_27.101, f32[1024]{0} %broadcast.621.clone.1), metadata={op_name="parallelize(train_step_shard_parallel)/jit(main)/mul" source_file="/python3.9-env/lib/python3.9/site-packages/optax/_src/transform.py" source_line=107}
  %add.1005.clone.1.clone.1 = f32[1024]{0} add(f32[1024]{0} %multiply.1416.clone.1.clone.1, f32[1024]{0} %multiply.1415.clone.1.clone.1), metadata={op_name="parallelize(train_step_shard_parallel)/jit(main)/add" source_file="/python3.9-env/lib/python3.9/site-packages/optax/_src/transform.py" source_line=107}
  %divide.91.clone.1 = f32[1024]{0} divide(f32[1024]{0} %add.1005.clone.1.clone.1, f32[1024]{0} %broadcast.610), metadata={op_name="parallelize(train_step_shard_parallel)/jit(main)/div" source_file="/python3.9-env/lib/python3.9/site-packages/optax/_src/transform.py" source_line=114}
  %sqrt.122.clone.1 = f32[1024]{0} sqrt(f32[1024]{0} %divide.91.clone.1), metadata={op_name="parallelize(train_step_shard_parallel)/jit(main)/sqrt" source_file="/python3.9-env/lib/python3.9/site-packages/optax/_src/transform.py" source_line=340}
  %add.1004.clone.1 = f32[1024]{0} add(f32[1024]{0} %sqrt.122.clone.1, f32[1024]{0} %broadcast.612), metadata={op_name="parallelize(train_step_shard_parallel)/jit(main)/add" source_file="/python3.9-env/lib/python3.9/site-packages/optax/_src/transform.py" source_line=340}
  %multiply.1414.clone.1 = f32[1024]{0} multiply(f32[1024]{0} %broadcast.613, f32[1024]{0} %add.1004.clone.1)
  %divide.90.clone.1 = f32[1024]{0} divide(f32[1024]{0} %add.1006.clone.1.clone.1, f32[1024]{0} %multiply.1414.clone.1), metadata={op_name="parallelize(train_step_shard_parallel)/jit(main)/div" source_file="/python3.9-env/lib/python3.9/site-packages/optax/_src/transform.py" source_line=340}
  %multiply.1413.clone.1 = f32[1024]{0} multiply(f32[1024]{0} %divide.90.clone.1, f32[1024]{0} %broadcast.617), metadata={op_name="parallelize(train_step_shard_parallel)/jit(main)/mul" source_file="/python3.9-env/lib/python3.9/site-packages/optax/_src/transform.py" source_line=405}
  %add.1003.clone.1 = f32[1024]{0} add(f32[1024]{0} %param_26.153, f32[1024]{0} %multiply.1413.clone.1), metadata={op_name="parallelize(train_step_shard_parallel)/jit(main)/add" source_file="/python3.9-env/lib/python3.9/site-packages/optax/_src/update.py" source_line=43}
  %param_30.70 = f32[1024]{0} parameter(30)
  %param_32.14 = f32[1024]{0} parameter(32)
  %multiply.1426.clone.1.clone.1 = f32[1024]{0} multiply(f32[1024]{0} %param_32.14, f32[1024]{0} %broadcast.623.clone.1), metadata={op_name="parallelize(train_step_shard_parallel)/jit(main)/mul" source_file="/python3.9-env/lib/python3.9/site-packages/optax/_src/transform.py" source_line=84}
  %param_33.26 = f32[1024]{0} parameter(33)
  %multiply.1425.clone.1.clone.1 = f32[1024]{0} multiply(f32[1024]{0} %param_33.26, f32[1024]{0} %broadcast.624.clone.1), metadata={op_name="parallelize(train_step_shard_parallel)/jit(main)/mul" source_file="/python3.9-env/lib/python3.9/site-packages/optax/_src/transform.py" source_line=84}
  %add.1010.clone.1.clone.1 = f32[1024]{0} add(f32[1024]{0} %multiply.1426.clone.1.clone.1, f32[1024]{0} %multiply.1425.clone.1.clone.1), metadata={op_name="parallelize(train_step_shard_parallel)/jit(main)/add" source_file="/python3.9-env/lib/python3.9/site-packages/optax/_src/transform.py" source_line=84}
…
  %get-tuple-element.1048 = f32[1024]{0} get-tuple-element((f32[1024]{0}, f32[1024]{0}, f32[1024]{0}, f32[1024]{0}, f32[1024]{0}, /*index=5*/f32[1024]{0}, f32[1024]{0}, f32[1024]{0}, f32[1024]{0}, f32[1024]{0}, /*index=10*/f32[1024]{0}, f32[1024]{0}, f32[1024]{0}, f32[1024]{0}, f32[1024]{0}, /*index=15*/f32[1024]{0}, f32[1024]{0}, f32[1024]{0}, f32[1024]{0}, f32[1024]{0}, /*index=20*/f32[1024]{0}, f32[1024]{0}, f32[1024]{0}, f32[1024]{0}) %fusion.258), index=11
  %get-tuple-element.1049 = f32[1024]{0} get-tuple-element((f32[1024]{0}, f32[1024]{0}, f32[1024]{0}, f32[1024]{0}, f32[1024]{0}, /*index=5*/f32[1024]{0}, f32[1024]{0}, f32[1024]{0}, f32[1024]{0}, f32[1024]{0}, /*index=10*/f32[1024]{0}, f32[1024]{0}, f32[1024]{0}, f32[1024]{0}, f32[1024]{0}, /*index=15*/f32[1024]{0}, f32[1024]{0}, f32[1024]{0}, f32[1024]{0}, f32[1024]{0}, /*index=20*/f32[1024]{0}, f32[1024]{0}, f32[1024]{0}, f32[1024]{0}) %fusion.258), index=8
  %get-tuple-element.1050 = f32[1024]{0} get-tuple-element((f32[1024]{0}, f32[1024]{0}, f32[1024]{0}, f32[1024]{0}, f32[1024]{0}, /*index=5*/f32[1024]{0}, f32[1024]{0}, f32[1024]{0}, f32[1024]{0}, f32[1024]{0}, /*index=10*/f32[1024]{0}, f32[1024]{0}, f32[1024]{0}, f32[1024]{0}, f32[1024]{0}, /*index=15*/f32[1024]{0}, f32[1024]{0}, f32[1024]{0}, f32[1024]{0}, f32[1024]{0}, /*index=20*/f32[1024]{0}, f32[1024]{0}, f32[1024]{0}, f32[1024]{0}) %fusion.258), index=5
  %get-tuple-element.1051 = f32[512,1024]{1,0} get-tuple-element((f32[512,1024]{1,0}, f32[512,1024]{1,0}, f32[512,1024]{1,0}, f32[512,1024]{1,0}, f32[512,1024]{1,0}, /*index=5*/f32[512,1024]{1,0}, f32[512,1024]{1,0}, f32[512,1024]{1,0}, f32[512,1024]{1,0}, f32[512,1024]{1,0}, /*index=10*/f32[512,1024]{1,0}, f32[512,1024]{1,0}, f32[512,1024]{1,0}, f32[512,1024]{1,0}, f32[512,1024]{1,0}, /*index=15*/f32[512,1024]{1,0}, f32[512,1024]{1,0}, f32[512,1024]{1,0}) %fusion.200), index=5
  %get-tuple-element.1052 = f32[6400]{0} get-tuple-element((f32[6400]{0}, f32[6400]{0}, f32[6400]{0}) %fusion.527), index=1
  %get-tuple-element.1053 = f32[1024]{0} get-tuple-element((f32[1024]{0}, f32[1024]{0}, f32[1024]{0}, f32[1024]{0}, f32[1024]{0}, /*index=5*/f32[1024]{0}, f32[1024]{0}, f32[1024]{0}, f32[1024]{0}, f32[1024]{0}, /*index=10*/f32[1024]{0}, f32[1024]{0}, f32[1024]{0}, f32[1024]{0}, f32[1024]{0}, /*index=15*/f32[1024]{0}, f32[1024]{0}, f32[1024]{0}, f32[1024]{0}, f32[1024]{0}, /*index=20*/f32[1024]{0}, f32[1024]{0}, f32[1024]{0}, f32[1024]{0}) %fusion.258), index=1
  %get-tuple-element.1054 = f32[1024]{0} get-tuple-element((f32[1024]{0}, f32[1024]{0}, f32[1024]{0}, f32[1024]{0}, f32[1024]{0}, /*index=5*/f32[1024]{0}, f32[1024]{0}, f32[1024]{0}, f32[1024]{0}, f32[1024]{0}, /*index=10*/f32[1024]{0}, f32[1024]{0}, f32[1024]{0}, f32[1024]{0}, f32[1024]{0}, /*index=15*/f32[1024]{0}, f32[1024]{0}, f32[1024]{0}) %fusion.206), index=16
  %get-tuple-element.1055 = f32[128,1024]{1,0} get-tuple-element((f32[128,1024]{1,0}, f32[128,1024]{1,0}, f32[128,1024]{1,0}, f32[128,1024]{1,0}, f32[128,1024]{1,0}, /*index=5*/f32[128,1024]{1,0}, f32[128,1024]{1,0}, f32[128,1024]{1,0}, f32[128,1024]{1,0}, f32[128,1024]{1,0}, /*index=10*/f32[128,1024]{1,0}, f32[128,1024]{1,0}, f32[128,1024]{1,0}, f32[128,1024]{1,0}, f32[128,1024]{1,0}, /*index=15*/f32[128,1024]{1,0}, f32[128,1024]{1,0}, f32[128,1024]{1,0}, f32[128,1024]{1,0}, f32[128,1024]{1,0}, /*index=20*/f32[128,1024]{1,0}) %fusion.245), index=1
  %get-tuple-element.1056 = f32[6400,1024]{1,0} get-tuple-element((f32[6400,1024]{1,0}, f32[6400,1024]{1,0}, f32[6400,1024]{1,0}) %fusion.240), index=1
  %get-tuple-element.1057 = f32[1024]{0} get-tuple-element((f32[1024]{0}, f32[1024]{0}, f32[1024]{0}, f32[1024]{0}, f32[1024]{0}, /*index=5*/f32[1024]{0}, f32[1024]{0}, f32[1024]{0}, f32[1024]{0}, f32[1024]{0}, /*index=10*/f32[1024]{0}, f32[1024]{0}, f32[1024]{0}, f32[1024]{0}, f32[1024]{0}, /*index=15*/f32[1024]{0}, f32[1024]{0}, f32[1024]{0}) %fusion.206), index=13
  %get-tuple-element.1058 = f32[1024]{0} get-tuple-element((f32[1024]{0}, f32[1024]{0}, f32[1024]{0}, f32[1024]{0}, f32[1024]{0}, /*index=5*/f32[1024]{0}, f32[1024]{0}, f32[1024]{0}, f32[1024]{0}, f32[1024]{0}, /*index=10*/f32[1024]{0}, f32[1024]{0}, f32[1024]{0}, f32[1024]{0}, f32[1024]{0}, /*index=15*/f32[1024]{0}, f32[1024]{0}, f32[1024]{0}) %fusion.206), index=10
  %get-tuple-element.1059 = f32[1024]{0} get-tuple-element((f32[1024]{0}, f32[1024]{0}, f32[1024]{0}, f32[1024]{0}, f32[1024]{0}, /*index=5*/f32[1024]{0}, f32[1024]{0}, f32[1024]{0}, f32[1024]{0}, f32[1024]{0}, /*index=10*/f32[1024]{0}, f32[1024]{0}, f32[1024]{0}, f32[1024]{0}, f32[1024]{0}, /*index=15*/f32[1024]{0}, f32[1024]{0}, f32[1024]{0}) %fusion.206), index=7
  %get-tuple-element.1060 = f32[128,1024]{1,0} get-tuple-element((f32[128,1024]{1,0}, f32[128,1024]{1,0}, f32[128,1024]{1,0}, f32[128,1024]{1,0}, f32[128,1024]{1,0}, /*index=5*/f32[128,1024]{1,0}, f32[128,1024]{1,0}, f32[128,1024]{1,0}, f32[128,1024]{1,0}, f32[128,1024]{1,0}, /*index=10*/f32[128,1024]{1,0}, f32[128,1024]{1,0}, f32[128,1024]{1,0}, f32[128,1024]{1,0}, f32[128,1024]{1,0}, /*index=15*/f32[128,1024]{1,0}, f32[128,1024]{1,0}, f32[128,1024]{1,0}, f32[128,1024]{1,0}, f32[128,1024]{1,0}, /*index=20*/f32[128,1024]{1,0}) %fusion.245), index=19
  %get-tuple-element.1061 = f32[384]{0} get-tuple-element((f32[384]{0}, f32[384]{0}, f32[384]{0}, f32[384]{0}, f32[384]{0}, /*index=5*/f32[384]{0}, f32[384]{0}, f32[384]{0}, f32[384]{0}, f32[384]{0}, /*index=10*/f32[384]{0}, f32[384]{0}, f32[384]{0}, f32[384]{0}, f32[384]{0}, /*index=15*/f32[384]{0}, f32[384]{0}, f32[384]{0}) %fusion.223), index=1
  %get-tuple-element.1062 = f32[1024,384]{1,0} get-tuple-element((f32[1024,384]{1,0}, f32[1024,384]{1,0}, f32[1024,384]{1,0}, f32[1024,384]{1,0}, f32[1024,384]{1,0}, /*index=5*/f32[1024,384]{1,0}, f32[1024,384]{1,0}, f32[1024,384]{1,0}, f32[1024,384]{1,0}, f32[1024,384]{1,0}, /*index=10*/f32[1024,384]{1,0}, f32[1024,384]{1,0}, f32[1024,384]{1,0}, f32[1024,384]{1,0}, f32[1024,384]{1,0}, /*index=15*/f32[1024,384]{1,0}, f32[1024,384]{1,0}, f32[1024,384]{1,0}) %fusion.220), index=1
  %get-tuple-element.1063 = f32[512]{0} get-tuple-element((f32[512]{0}, f32[512]{0}, f32[512]{0}, f32[512]{0}, f32[512]{0}, /*index=5*/f32[512]{0}, f32[512]{0}, f32[512]{0}, f32[512]{0}, f32[512]{0}, /*index=10*/f32[512]{0}, f32[512]{0}, f32[512]{0}, f32[512]{0}, f32[512]{0}, /*index=15*/f32[512]{0}, f32[512]{0}, f32[512]{0}) %fusion.217), index=1
  %get-tuple-element.1064 = f32[1024,512]{1,0} get-tuple-element((f32[1024,512]{1,0}, f32[1024,512]{1,0}, f32[1024,512]{1,0}, f32[1024,512]{1,0}, f32[1024,512]{1,0}, /*index=5*/f32[1024,512]{1,0}, f32[1024,512]{1,0}, f32[1024,512]{1,0}, f32[1024,512]{1,0}, f32[1024,512]{1,0}, /*index=10*/f32[1024,512]{1,0}, f32[1024,512]{1,0}, f32[1024,512]{1,0}, f32[1024,512]{1,0}, f32[1024,512]{1,0}, /*index=15*/f32[1024,512]{1,0}, f32[1024,512]{1,0}, f32[1024,512]{1,0}) %fusion.214), index=1
  %get-tuple-element.1065 = f32[1024]{0} get-tuple-element((f32[1024]{0}, f32[1024]{0}, f32[1024]{0}, f32[1024]{0}, f32[1024]{0}, /*index=5*/f32[1024]{0}, f32[1024]{0}, f32[1024]{0}, f32[1024]{0}, f32[1024]{0}, /*index=10*/f32[1024]{0}, f32[1024]{0}, f32[1024]{0}, f32[1024]{0}, f32[1024]{0}, /*index=15*/f32[1024]{0}, f32[1024]{0}, f32[1024]{0}) %fusion.206), index=4
  %get-tuple-element.1066 = f32[1024]{0} get-tuple-element((f32[1024]{0}, f32[1024]{0}, f32[1024]{0}, f32[1024]{0}, f32[1024]{0}, /*index=5*/f32[1024]{0}, f32[1024]{0}, f32[1024]{0}, f32[1024]{0}, f32[1024]{0}, /*index=10*/f32[1024]{0}, f32[1024]{0}, f32[1024]{0}, f32[1024]{0}, f32[1024]{0}, /*index=15*/f32[1024]{0}, f32[1024]{0}, f32[1024]{0}) %fusion.206), index=1
  %get-tuple-element.1067 = f32[1024]{0} get-tuple-element((f32[1024]{0}, f32[1024]{0}, f32[1024]{0}, f32[1024]{0}, f32[1024]{0}, /*index=5*/f32[1024]{0}, f32[1024]{0}, f32[1024]{0}, f32[1024]{0}, f32[1024]{0}, /*index=10*/f32[1024]{0}, f32[1024]{0}, f32[1024]{0}, f32[1024]{0}, f32[1024]{0}, /*index=15*/f32[1024]{0}, f32[1024]{0}, f32[1024]{0}, f32[1024]{0}, f32[1024]{0}, /*index=20*/f32[1024]{0}, f32[1024]{0}, f32[1024]{0}, f32[1024]{0}) %fusion.156), index=22
  %get-tuple-element.1068 = f32[512,1024]{1,0} get-tuple-element((f32[512,1024]{1,0}, f32[512,1024]{1,0}, f32[512,1024]{1,0}, f32[512,1024]{1,0}, f32[512,1024]{1,0}, /*index=5*/f32[512,1024]{1,0}, f32[512,1024]{1,0}, f32[512,1024]{1,0}, f32[512,1024]{1,0}, f32[512,1024]{1,0}, /*index=10*/f32[512,1024]{1,0}, f32[512,1024]{1,0}, f32[512,1024]{1,0}, f32[512,1024]{1,0}, f32[512,1024]{1,0}, /*index=15*/f32[512,1024]{1,0}, f32[512,1024]{1,0}, f32[512,1024]{1,0}) %fusion.200), index=1
  %get-tuple-element.1069 = f32[1024]{0} get-tuple-element((f32[1024]{0}, f32[1024]{0}, f32[1024]{0}, f32[1024]{0}, f32[1024]{0}, /*index=5*/f32[1024]{0}, f32[1024]{0}, f32[1024]{0}, f32[1024]{0}, f32[1024]{0}, /*index=10*/f32[1024]{0}, f32[1024]{0}, f32[1024]{0}, f32[1024]{0}, f32[1024]{0}, /*index=15*/f32[1024]{0}, f32[1024]{0}, f32[1024]{0}, f32[1024]{0}, f32[1024]{0}, /*index=20*/f32[1024]{0}, f32[1024]{0}, f32[1024]{0}, f32[1024]{0}) %fusion.156), index=19
  %get-tuple-element.1070 = f32[1024]{0} get-tuple-element((f32[1024]{0}, f32[1024]{0}, f32[1024]{0}, f32[1024]{0}, f32[1024]{0}, /*index=5*/f32[1024]{0}, f32[1024]{0}, f32[1024]{0}, f32[1024]{0}, f32[1024]{0}, /*index=10*/f32[1024]{0}, f32[1024]{0}, f32[1024]{0}, f32[1024]{0}, f32[1024]{0}, /*index=15*/f32[1024]{0}, f32[1024]{0}, f32[1024]{0}, f32[1024]{0}, f32[1024]{0}, /*index=20*/f32[1024]{0}, f32[1024]{0}, f32[1024]{0}, f32[1024]{0}) %fusion.156), index=16
  %get-tuple-element.1071 = f32[1024]{0} get-tuple-element((f32[1024]{0}, f32[1024]{0}, f32[1024]{0}, f32[1024]{0}, f32[1024]{0}, /*index=5*/f32[1024]{0}, f32[1024]{0}, f32[1024]{0}, f32[1024]{0}, f32[1024]{0}, /*index=10*/f32[1024]{0}, f32[1024]{0}, f32[1024]{0}, f32[1024]{0}, f32[1024]{0}, /*index=15*/f32[1024]{0}, f32[1024]{0}, f32[1024]{0}, f32[1024]{0}, f32[1024]{0}, /*index=20*/f32[1024]{0}, f32[1024]{0}, f32[1024]{0}, f32[1024]{0}) %fusion.156), index=13
  %get-tuple-element.1072 = f32[128,1024]{1,0} get-tuple-element((f32[128,1024]{1,0}, f32[128,1024]{1,0}, f32[128,1024]{1,0}, f32[128,1024]{1,0}, f32[128,1024]{1,0}, /*index=5*/f32[128,1024]{1,0}, f32[128,1024]{1,0}, f32[128,1024]{1,0}, f32[128,1024]{1,0}, f32[128,1024]{1,0}, /*index=10*/f32[128,1024]{1,0}, f32[128,1024]{1,0}, f32[128,1024]{1,0}, f32[128,1024]{1,0}, f32[128,1024]{1,0}, /*index=15*/f32[128,1024]{1,0}, f32[128,1024]{1,0}, f32[128,1024]{1,0}, f32[128,1024]{1,0}, f32[128,1024]{1,0}, /*index=20*/f32[128,1024]{1,0}) %fusion.245), index=16
  %get-tuple-element.1073 = f32[384]{0} get-tuple-element((f32[384]{0}, f32[384]{0}, f32[384]{0}, f32[384]{0}, f32[384]{0}, /*index=5*/f32[384]{0}, f32[384]{0}, f32[384]{0}, f32[384]{0}, f32[384]{0}, /*index=10*/f32[384]{0}, f32[384]{0}, f32[384]{0}, f32[384]{0}, f32[384]{0}, /*index=15*/f32[384]{0}, f32[384]{0}, f32[384]{0}) %fusion.223), index=16
  %get-tuple-element.1074 = f32[1024,384]{1,0} get-tuple-element((f32[1024,384]{1,0}, f32[1024,384]{1,0}, f32[1024,384]{1,0}, f32[1024,384]{1,0}, f32[1024,384]{1,0}, /*index=5*/f32[1024,384]{1,0}, f32[1024,384]{1,0}, f32[1024,384]{1,0}, f32[1024,384]{1,0}, f32[1024,384]{1,0}, /*index=10*/f32[1024,384]{1,0}, f32[1024,384]{1,0}, f32[1024,384]{1,0}, f32[1024,384]{1,0}, f32[1024,384]{1,0}, /*index=15*/f32[1024,384]{1,0}, f32[1024,384]{1,0}, f32[1024,384]{1,0}) %fusion.220), index=16
  %get-tuple-element.1075 = f32[512]{0} get-tuple-element((f32[512]{0}, f32[512]{0}, f32[512]{0}, f32[512]{0}, f32[512]{0}, /*index=5*/f32[512]{0}, f32[512]{0}, f32[512]{0}, f32[512]{0}, f32[512]{0}, /*index=10*/f32[512]{0}, f32[512]{0}, f32[512]{0}, f32[512]{0}, f32[512]{0}, /*index=15*/f32[512]{0}, f32[512]{0}, f32[512]{0}) %fusion.217), index=16
  %get-tuple-element.1076 = f32[1024,512]{1,0} get-tuple-element((f32[1024,512]{1,0}, f32[1024,512]{1,0}, f32[1024,512]{1,0}, f32[1024,512]{1,0}, f32[1024,512]{1,0}, /*index=5*/f32[1024,512]{1,0}, f32[1024,512]{1,0}, f32[1024,512]{1,0}, f32[1024,512]{1,0}, f32[1024,512]{1,0}, /*index=10*/f32[1024,512]{1,0}, f32[1024,512]{1,0}, f32[1024,512]{1,0}, f32[1024,512]{1,0}, f32[1024,512]{1,0}, /*index=15*/f32[1024,512]{1,0}, f32[1024,512]{1,0}, f32[1024,512]{1,0}) %fusion.214), index=16
  %get-tuple-element.1077 = f32[1024]{0} get-tuple-element((f32[1024]{0}, f32[1024]{0}, f32[1024]{0}, f32[1024]{0}, f32[1024]{0}, /*index=5*/f32[1024]{0}, f32[1024]{0}, f32[1024]{0}, f32[1024]{0}, f32[1024]{0}, /*index=10*/f32[1024]{0}, f32[1024]{0}, f32[1024]{0}, f32[1024]{0}, f32[1024]{0}, /*index=15*/f32[1024]{0}, f32[1024]{0}, f32[1024]{0}, f32[1024]{0}, f32[1024]{0}, /*index=20*/f32[1024]{0}, f32[1024]{0}, f32[1024]{0}, f32[1024]{0}) %fusion.156), index=10
  %get-tuple-element.1078 = f32[1024]{0} get-tuple-element((f32[1024]{0}, f32[1024]{0}, f32[1024]{0}, f32[1024]{0}, f32[1024]{0}, /*index=5*/f32[1024]{0}, f32[1024]{0}, f32[1024]{0}, f32[1024]{0}, f32[1024]{0}, /*index=10*/f32[1024]{0}, f32[1024]{0}, f32[1024]{0}, f32[1024]{0}, f32[1024]{0}, /*index=15*/f32[1024]{0}, f32[1024]{0}, f32[1024]{0}, f32[1024]{0}, f32[1024]{0}, /*index=20*/f32[1024]{0}, f32[1024]{0}, f32[1024]{0}, f32[1024]{0}) %fusion.156), index=7
  %get-tuple-element.1079 = f32[1024]{0} get-tuple-element((f32[1024]{0}, f32[1024]{0}, f32[1024]{0}, f32[1024]{0}, f32[1024]{0}, /*index=5*/f32[1024]{0}, f32[1024]{0}, f32[1024]{0}, f32[1024]{0}, f32[1024]{0}, /*index=10*/f32[1024]{0}, f32[1024]{0}, f32[1024]{0}, f32[1024]{0}, f32[1024]{0}, /*index=15*/f32[1024]{0}, f32[1024]{0}, f32[1024]{0}, f32[1024]{0}, f32[1024]{0}, /*index=20*/f32[1024]{0}, f32[1024]{0}, f32[1024]{0}, f32[1024]{0}) %fusion.156), index=4
  %get-tuple-element.1080 = f32[512,1024]{1,0} get-tuple-element((f32[512,1024]{1,0}, f32[512,1024]{1,0}, f32[512,1024]{1,0}, f32[512,1024]{1,0}, f32[512,1024]{1,0}, /*index=5*/f32[512,1024]{1,0}, f32[512,1024]{1,0}, f32[512,1024]{1,0}, f32[512,1024]{1,0}, f32[512,1024]{1,0}, /*index=10*/f32[512,1024]{1,0}, f32[512,1024]{1,0}, f32[512,1024]{1,0}, f32[512,1024]{1,0}, f32[512,1024]{1,0}, /*index=15*/f32[512,1024]{1,0}, f32[512,1024]{1,0}, f32[512,1024]{1,0}) %fusion.200), index=16
  %get-tuple-element.1081 = f32[1024]{0} get-tuple-element((f32[1024]{0}, f32[1024]{0}, f32[1024]{0}, f32[1024]{0}, f32[1024]{0}, /*index=5*/f32[1024]{0}, f32[1024]{0}, f32[1024]{0}, f32[1024]{0}, f32[1024]{0}, /*index=10*/f32[1024]{0}, f32[1024]{0}, f32[1024]{0}, f32[1024]{0}, f32[1024]{0}, /*index=15*/f32[1024]{0}, f32[1024]{0}, f32[1024]{0}, f32[1024]{0}, f32[1024]{0}, /*index=20*/f32[1024]{0}, f32[1024]{0}, f32[1024]{0}, f32[1024]{0}) %fusion.156), index=1
  %get-tuple-element.1082 = f32[1024]{0} get-tuple-element((f32[1024]{0}, f32[1024]{0}, f32[1024]{0}, f32[1024]{0}, f32[1024]{0}, /*index=5*/f32[1024]{0}, f32[1024]{0}, f32[1024]{0}, f32[1024]{0}, f32[1024]{0}, /*index=10*/f32[1024]{0}, f32[1024]{0}, f32[1024]{0}, f32[1024]{0}, f32[1024]{0}, /*index=15*/f32[1024]{0}, f32[1024]{0}, f32[1024]{0}, f32[1024]{0}, f32[1024]{0}, /*index=20*/f32[1024]{0}, f32[1024]{0}, f32[1024]{0}, f32[1024]{0}) %fusion.109), index=22
  %get-tuple-element.1083 = f32[1024]{0} get-tuple-element((f32[1024]{0}, f32[1024]{0}, f32[1024]{0}, f32[1024]{0}, f32[1024]{0}, /*index=5*/f32[1024]{0}, f32[1024]{0}, f32[1024]{0}, f32[1024]{0}, f32[1024]{0}, /*index=10*/f32[1024]{0}, f32[1024]{0}, f32[1024]{0}, f32[1024]{0}, f32[1024]{0}, /*index=15*/f32[1024]{0}, f32[1024]{0}, f32[1024]{0}, f32[1024]{0}, f32[1024]{0}, /*index=20*/f32[1024]{0}, f32[1024]{0}, f32[1024]{0}, f32[1024]{0}) %fusion.109), index=19
  %get-tuple-element.1084 = f32[128,1024]{1,0} get-tuple-element((f32[128,1024]{1,0}, f32[128,1024]{1,0}, f32[128,1024]{1,0}, f32[128,1024]{1,0}, f32[128,1024]{1,0}, /*index=5*/f32[128,1024]{1,0}, f32[128,1024]{1,0}, f32[128,1024]{1,0}, f32[128,1024]{1,0}, f32[128,1024]{1,0}, /*index=10*/f32[128,1024]{1,0}, f32[128,1024]{1,0}, f32[128,1024]{1,0}, f32[128,1024]{1,0}, f32[128,1024]{1,0}, /*index=15*/f32[128,1024]{1,0}, f32[128,1024]{1,0}, f32[128,1024]{1,0}, f32[128,1024]{1,0}, f32[128,1024]{1,0}, /*index=20*/f32[128,1024]{1,0}) %fusion.245), index=13
  %get-tuple-element.1085 = f32[384]{0} get-tuple-element((f32[384]{0}, f32[384]{0}, f32[384]{0}, f32[384]{0}, f32[384]{0}, /*index=5*/f32[384]{0}, f32[384]{0}, f32[384]{0}, f32[384]{0}, f32[384]{0}, /*index=10*/f32[384]{0}, f32[384]{0}, f32[384]{0}, f32[384]{0}, f32[384]{0}, /*index=15*/f32[384]{0}, f32[384]{0}, f32[384]{0}) %fusion.223), index=13
  %get-tuple-element.1086 = f32[1024,384]{1,0} get-tuple-element((f32[1024,384]{1,0}, f32[1024,384]{1,0}, f32[1024,384]{1,0}, f32[1024,384]{1,0}, f32[1024,384]{1,0}, /*index=5*/f32[1024,384]{1,0}, f32[1024,384]{1,0}, f32[1024,384]{1,0}, f32[1024,384]{1,0}, f32[1024,384]{1,0}, /*index=10*/f32[1024,384]{1,0}, f32[1024,384]{1,0}, f32[1024,384]{1,0}, f32[1024,384]{1,0}, f32[1024,384]{1,0}, /*index=15*/f32[1024,384]{1,0}, f32[1024,384]{1,0}, f32[1024,384]{1,0}) %fusion.220), index=13
  %get-tuple-element.1087 = f32[512]{0} get-tuple-element((f32[512]{0}, f32[512]{0}, f32[512]{0}, f32[512]{0}, f32[512]{0}, /*index=5*/f32[512]{0}, f32[512]{0}, f32[512]{0}, f32[512]{0}, f32[512]{0}, /*index=10*/f32[512]{0}, f32[512]{0}, f32[512]{0}, f32[512]{0}, f32[512]{0}, /*index=15*/f32[512]{0}, f32[512]{0}, f32[512]{0}) %fusion.217), index=13
  %get-tuple-element.1088 = f32[1024,512]{1,0} get-tuple-element((f32[1024,512]{1,0}, f32[1024,512]{1,0}, f32[1024,512]{1,0}, f32[1024,512]{1,0}, f32[1024,512]{1,0}, /*index=5*/f32[1024,512]{1,0}, f32[1024,512]{1,0}, f32[1024,512]{1,0}, f32[1024,512]{1,0}, f32[1024,512]{1,0}, /*index=10*/f32[1024,512]{1,0}, f32[1024,512]{1,0}, f32[1024,512]{1,0}, f32[1024,512]{1,0}, f32[1024,512]{1,0}, /*index=15*/f32[1024,512]{1,0}, f32[1024,512]{1,0}, f32[1024,512]{1,0}) %fusion.214), index=13
  %get-tuple-element.1089 = f32[1024]{0} get-tuple-element((f32[1024]{0}, f32[1024]{0}, f32[1024]{0}, f32[1024]{0}, f32[1024]{0}, /*index=5*/f32[1024]{0}, f32[1024]{0}, f32[1024]{0}, f32[1024]{0}, f32[1024]{0}, /*index=10*/f32[1024]{0}, f32[1024]{0}, f32[1024]{0}, f32[1024]{0}, f32[1024]{0}, /*index=15*/f32[1024]{0}, f32[1024]{0}, f32[1024]{0}, f32[1024]{0}, f32[1024]{0}, /*index=20*/f32[1024]{0}, f32[1024]{0}, f32[1024]{0}, f32[1024]{0}) %fusion.109), index=16
  %get-tuple-element.1090 = f32[1024]{0} get-tuple-element((f32[1024]{0}, f32[1024]{0}, f32[1024]{0}, f32[1024]{0}, f32[1024]{0}, /*index=5*/f32[1024]{0}, f32[1024]{0}, f32[1024]{0}, f32[1024]{0}, f32[1024]{0}, /*index=10*/f32[1024]{0}, f32[1024]{0}, f32[1024]{0}, f32[1024]{0}, f32[1024]{0}, /*index=15*/f32[1024]{0}, f32[1024]{0}, f32[1024]{0}, f32[1024]{0}, f32[1024]{0}, /*index=20*/f32[1024]{0}, f32[1024]{0}, f32[1024]{0}, f32[1024]{0}) %fusion.109), index=13
  %get-tuple-element.1091 = f32[1024]{0} get-tuple-element((f32[1024]{0}, f32[1024]{0}, f32[1024]{0}, f32[1024]{0}, f32[1024]{0}, /*index=5*/f32[1024]{0}, f32[1024]{0}, f32[1024]{0}, f32[1024]{0}, f32[1024]{0}, /*index=10*/f32[1024]{0}, f32[1024]{0}, f32[1024]{0}, f32[1024]{0}, f32[1024]{0}, /*index=15*/f32[1024]{0}, f32[1024]{0}, f32[1024]{0}, f32[1024]{0}, f32[1024]{0}, /*index=20*/f32[1024]{0}, f32[1024]{0}, f32[1024]{0}, f32[1024]{0}) %fusion.109), index=10
  %get-tuple-element.1092 = f32[512,1024]{1,0} get-tuple-element((f32[512,1024]{1,0}, f32[512,1024]{1,0}, f32[512,1024]{1,0}, f32[512,1024]{1,0}, f32[512,1024]{1,0}, /*index=5*/f32[512,1024]{1,0}, f32[512,1024]{1,0}, f32[512,1024]{1,0}, f32[512,1024]{1,0}, f32[512,1024]{1,0}, /*index=10*/f32[512,1024]{1,0}, f32[512,1024]{1,0}, f32[512,1024]{1,0}, f32[512,1024]{1,0}, f32[512,1024]{1,0}, /*index=15*/f32[512,1024]{1,0}, f32[512,1024]{1,0}, f32[512,1024]{1,0}) %fusion.200), index=13
  %get-tuple-element.1093 = f32[1024]{0} get-tuple-element((f32[1024]{0}, f32[1024]{0}, f32[1024]{0}, f32[1024]{0}, f32[1024]{0}, /*index=5*/f32[1024]{0}, f32[1024]{0}, f32[1024]{0}, f32[1024]{0}, f32[1024]{0}, /*index=10*/f32[1024]{0}, f32[1024]{0}, f32[1024]{0}, f32[1024]{0}, f32[1024]{0}, /*index=15*/f32[1024]{0}, f32[1024]{0}, f32[1024]{0}, f32[1024]{0}, f32[1024]{0}, /*index=20*/f32[1024]{0}, f32[1024]{0}, f32[1024]{0}, f32[1024]{0}) %fusion.109), index=7
  %get-tuple-element.1094 = f32[1024]{0} get-tuple-element((f32[1024]{0}, f32[1024]{0}, f32[1024]{0}, f32[1024]{0}, f32[1024]{0}, /*index=5*/f32[1024]{0}, f32[1024]{0}, f32[1024]{0}, f32[1024]{0}, f32[1024]{0}, /*index=10*/f32[1024]{0}, f32[1024]{0}, f32[1024]{0}, f32[1024]{0}, f32[1024]{0}, /*index=15*/f32[1024]{0}, f32[1024]{0}, f32[1024]{0}, f32[1024]{0}, f32[1024]{0}, /*index=20*/f32[1024]{0}, f32[1024]{0}, f32[1024]{0}, f32[1024]{0}) %fusion.109), index=4
  %get-tuple-element.1095 = f32[1024]{0} get-tuple-element((f32[1024]{0}, f32[1024]{0}, f32[1024]{0}, f32[1024]{0}, f32[1024]{0}, /*index=5*/f32[1024]{0}, f32[1024]{0}, f32[1024]{0}, f32[1024]{0}, f32[1024]{0}, /*index=10*/f32[1024]{0}, f32[1024]{0}, f32[1024]{0}, f32[1024]{0}, f32[1024]{0}, /*index=15*/f32[1024]{0}, f32[1024]{0}, f32[1024]{0}, f32[1024]{0}, f32[1024]{0}, /*index=20*/f32[1024]{0}, f32[1024]{0}, f32[1024]{0}, f32[1024]{0}) %fusion.109), index=1
  %get-tuple-element.1096 = f32[128,1024]{1,0} get-tuple-element((f32[128,1024]{1,0}, f32[128,1024]{1,0}, f32[128,1024]{1,0}, f32[128,1024]{1,0}, f32[128,1024]{1,0}, /*index=5*/f32[128,1024]{1,0}, f32[128,1024]{1,0}, f32[128,1024]{1,0}, f32[128,1024]{1,0}, f32[128,1024]{1,0}, /*index=10*/f32[128,1024]{1,0}, f32[128,1024]{1,0}, f32[128,1024]{1,0}, f32[128,1024]{1,0}, f32[128,1024]{1,0}, /*index=15*/f32[128,1024]{1,0}, f32[128,1024]{1,0}, f32[128,1024]{1,0}, f32[128,1024]{1,0}, f32[128,1024]{1,0}, /*index=20*/f32[128,1024]{1,0}) %fusion.245), index=10
  %get-tuple-element.1097 = f32[384]{0} get-tuple-element((f32[384]{0}, f32[384]{0}, f32[384]{0}, f32[384]{0}, f32[384]{0}, /*index=5*/f32[384]{0}, f32[384]{0}, f32[384]{0}, f32[384]{0}, f32[384]{0}, /*index=10*/f32[384]{0}, f32[384]{0}, f32[384]{0}, f32[384]{0}, f32[384]{0}, /*index=15*/f32[384]{0}, f32[384]{0}, f32[384]{0}) %fusion.223), index=10
  %get-tuple-element.1098 = f32[1024,384]{1,0} get-tuple-element((f32[1024,384]{1,0}, f32[1024,384]{1,0}, f32[1024,384]{1,0}, f32[1024,384]{1,0}, f32[1024,384]{1,0}, /*index=5*/f32[1024,384]{1,0}, f32[1024,384]{1,0}, f32[1024,384]{1,0}, f32[1024,384]{1,0}, f32[1024,384]{1,0}, /*index=10*/f32[1024,384]{1,0}, f32[1024,384]{1,0}, f32[1024,384]{1,0}, f32[1024,384]{1,0}, f32[1024,384]{1,0}, /*index=15*/f32[1024,384]{1,0}, f32[1024,384]{1,0}, f32[1024,384]{1,0}) %fusion.220), index=10
  %get-tuple-element.1099 = f32[512]{0} get-tuple-element((f32[512]{0}, f32[512]{0}, f32[512]{0}, f32[512]{0}, f32[512]{0}, /*index=5*/f32[512]{0}, f32[512]{0}, f32[512]{0}, f32[512]{0}, f32[512]{0}, /*index=10*/f32[512]{0}, f32[512]{0}, f32[512]{0}, f32[512]{0}, f32[512]{0}, /*index=15*/f32[512]{0}, f32[512]{0}, f32[512]{0}) %fusion.217), index=10
  %get-tuple-element.1100 = f32[1024,512]{1,0} get-tuple-element((f32[1024,512]{1,0}, f32[1024,512]{1,0}, f32[1024,512]{1,0}, f32[1024,512]{1,0}, f32[1024,512]{1,0}, /*index=5*/f32[1024,512]{1,0}, f32[1024,512]{1,0}, f32[1024,512]{1,0}, f32[1024,512]{1,0}, f32[1024,512]{1,0}, /*index=10*/f32[1024,512]{1,0}, f32[1024,512]{1,0}, f32[1024,512]{1,0}, f32[1024,512]{1,0}, f32[1024,512]{1,0}, /*index=15*/f32[1024,512]{1,0}, f32[1024,512]{1,0}, f32[1024,512]{1,0}) %fusion.214), index=10
  %get-tuple-element.1101 = f32[1024]{0} get-tuple-element((f32[1024]{0}, f32[1024]{0}, f32[1024]{0}, f32[1024]{0}, f32[1024]{0}, /*index=5*/f32[1024]{0}, f32[1024]{0}, f32[1024]{0}, f32[1024]{0}, f32[1024]{0}, /*index=10*/f32[1024]{0}, f32[1024]{0}, f32[1024]{0}, f32[1024]{0}, f32[1024]{0}, /*index=15*/f32[1024]{0}, f32[1024]{0}, f32[1024]{0}, f32[1024]{0}, f32[1024]{0}, /*index=20*/f32[1024]{0}, f32[1024]{0}, f32[1024]{0}, f32[1024]{0}) %fusion.46), index=22
  %get-tuple-element.1102 = f32[1024]{0} get-tuple-element((f32[1024]{0}, f32[1024]{0}, f32[1024]{0}, f32[1024]{0}, f32[1024]{0}, /*index=5*/f32[1024]{0}, f32[1024]{0}, f32[1024]{0}, f32[1024]{0}, f32[1024]{0}, /*index=10*/f32[1024]{0}, f32[1024]{0}, f32[1024]{0}, f32[1024]{0}, f32[1024]{0}, /*index=15*/f32[1024]{0}, f32[1024]{0}, f32[1024]{0}, f32[1024]{0}, f32[1024]{0}, /*index=20*/f32[1024]{0}, f32[1024]{0}, f32[1024]{0}, f32[1024]{0}) %fusion.46), index=19
  %get-tuple-element.1103 = f32[1024]{0} get-tuple-element((f32[1024]{0}, f32[1024]{0}, f32[1024]{0}, f32[1024]{0}, f32[1024]{0}, /*index=5*/f32[1024]{0}, f32[1024]{0}, f32[1024]{0}, f32[1024]{0}, f32[1024]{0}, /*index=10*/f32[1024]{0}, f32[1024]{0}, f32[1024]{0}, f32[1024]{0}, f32[1024]{0}, /*index=15*/f32[1024]{0}, f32[1024]{0}, f32[1024]{0}, f32[1024]{0}, f32[1024]{0}, /*index=20*/f32[1024]{0}, f32[1024]{0}, f32[1024]{0}, f32[1024]{0}) %fusion.46), index=16
  %get-tuple-element.1104 = f32[512,1024]{1,0} get-tuple-element((f32[512,1024]{1,0}, f32[512,1024]{1,0}, f32[512,1024]{1,0}, f32[512,1024]{1,0}, f32[512,1024]{1,0}, /*index=5*/f32[512,1024]{1,0}, f32[512,1024]{1,0}, f32[512,1024]{1,0}, f32[512,1024]{1,0}, f32[512,1024]{1,0}, /*index=10*/f32[512,1024]{1,0}, f32[512,1024]{1,0}, f32[512,1024]{1,0}, f32[512,1024]{1,0}, f32[512,1024]{1,0}, /*index=15*/f32[512,1024]{1,0}, f32[512,1024]{1,0}, f32[512,1024]{1,0}) %fusion.200), index=10
  %get-tuple-element.1105 = f32[1024]{0} get-tuple-element((f32[1024]{0}, f32[1024]{0}, f32[1024]{0}, f32[1024]{0}, f32[1024]{0}, /*index=5*/f32[1024]{0}, f32[1024]{0}, f32[1024]{0}, f32[1024]{0}, f32[1024]{0}, /*index=10*/f32[1024]{0}, f32[1024]{0}, f32[1024]{0}, f32[1024]{0}, f32[1024]{0}, /*index=15*/f32[1024]{0}, f32[1024]{0}, f32[1024]{0}, f32[1024]{0}, f32[1024]{0}, /*index=20*/f32[1024]{0}, f32[1024]{0}, f32[1024]{0}, f32[1024]{0}) %fusion.46), index=13
  %get-tuple-element.1106 = f32[1024]{0} get-tuple-element((f32[1024]{0}, f32[1024]{0}, f32[1024]{0}, f32[1024]{0}, f32[1024]{0}, /*index=5*/f32[1024]{0}, f32[1024]{0}, f32[1024]{0}, f32[1024]{0}, f32[1024]{0}, /*index=10*/f32[1024]{0}, f32[1024]{0}, f32[1024]{0}, f32[1024]{0}, f32[1024]{0}, /*index=15*/f32[1024]{0}, f32[1024]{0}, f32[1024]{0}, f32[1024]{0}, f32[1024]{0}, /*index=20*/f32[1024]{0}, f32[1024]{0}, f32[1024]{0}, f32[1024]{0}) %fusion.46), index=10
  %get-tuple-element.1107 = f32[1024]{0} get-tuple-element((f32[1024]{0}, f32[1024]{0}, f32[1024]{0}, f32[1024]{0}, f32[1024]{0}, /*index=5*/f32[1024]{0}, f32[1024]{0}, f32[1024]{0}, f32[1024]{0}, f32[1024]{0}, /*index=10*/f32[1024]{0}, f32[1024]{0}, f32[1024]{0}, f32[1024]{0}, f32[1024]{0}, /*index=15*/f32[1024]{0}, f32[1024]{0}, f32[1024]{0}, f32[1024]{0}, f32[1024]{0}, /*index=20*/f32[1024]{0}, f32[1024]{0}, f32[1024]{0}, f32[1024]{0}) %fusion.46), index=7
  %get-tuple-element.1108 = f32[128,1024]{1,0} get-tuple-element((f32[128,1024]{1,0}, f32[128,1024]{1,0}, f32[128,1024]{1,0}, f32[128,1024]{1,0}, f32[128,1024]{1,0}, /*index=5*/f32[128,1024]{1,0}, f32[128,1024]{1,0}, f32[128,1024]{1,0}, f32[128,1024]{1,0}, f32[128,1024]{1,0}, /*index=10*/f32[128,1024]{1,0}, f32[128,1024]{1,0}, f32[128,1024]{1,0}, f32[128,1024]{1,0}, f32[128,1024]{1,0}, /*index=15*/f32[128,1024]{1,0}, f32[128,1024]{1,0}, f32[128,1024]{1,0}, f32[128,1024]{1,0}, f32[128,1024]{1,0}, /*index=20*/f32[128,1024]{1,0}) %fusion.245), index=7
  %get-tuple-element.1109 = f32[384]{0} get-tuple-element((f32[384]{0}, f32[384]{0}, f32[384]{0}, f32[384]{0}, f32[384]{0}, /*index=5*/f32[384]{0}, f32[384]{0}, f32[384]{0}, f32[384]{0}, f32[384]{0}, /*index=10*/f32[384]{0}, f32[384]{0}, f32[384]{0}, f32[384]{0}, f32[384]{0}, /*index=15*/f32[384]{0}, f32[384]{0}, f32[384]{0}) %fusion.223), index=7
  %get-tuple-element.1110 = f32[1024,384]{1,0} get-tuple-element((f32[1024,384]{1,0}, f32[1024,384]{1,0}, f32[1024,384]{1,0}, f32[1024,384]{1,0}, f32[1024,384]{1,0}, /*index=5*/f32[1024,384]{1,0}, f32[1024,384]{1,0}, f32[1024,384]{1,0}, f32[1024,384]{1,0}, f32[1024,384]{1,0}, /*index=10*/f32[1024,384]{1,0}, f32[1024,384]{1,0}, f32[1024,384]{1,0}, f32[1024,384]{1,0}, f32[1024,384]{1,0}, /*index=15*/f32[1024,384]{1,0}, f32[1024,384]{1,0}, f32[1024,384]{1,0}) %fusion.220), index=7
  %get-tuple-element.1111 = f32[512]{0} get-tuple-element((f32[512]{0}, f32[512]{0}, f32[512]{0}, f32[512]{0}, f32[512]{0}, /*index=5*/f32[512]{0}, f32[512]{0}, f32[512]{0}, f32[512]{0}, f32[512]{0}, /*index=10*/f32[512]{0}, f32[512]{0}, f32[512]{0}, f32[512]{0}, f32[512]{0}, /*index=15*/f32[512]{0}, f32[512]{0}, f32[512]{0}) %fusion.217), index=7
  %get-tuple-element.1112 = f32[1024,512]{1,0} get-tuple-element((f32[1024,512]{1,0}, f32[1024,512]{1,0}, f32[1024,512]{1,0}, f32[1024,512]{1,0}, f32[1024,512]{1,0}, /*index=5*/f32[1024,512]{1,0}, f32[1024,512]{1,0}, f32[1024,512]{1,0}, f32[1024,512]{1,0}, f32[1024,512]{1,0}, /*index=10*/f32[1024,512]{1,0}, f32[1024,512]{1,0}, f32[1024,512]{1,0}, f32[1024,512]{1,0}, f32[1024,512]{1,0}, /*index=15*/f32[1024,512]{1,0}, f32[1024,512]{1,0}, f32[1024,512]{1,0}) %fusion.214), index=7
  %get-tuple-element.1113 = f32[1024]{0} get-tuple-element((f32[1024]{0}, f32[1024]{0}, f32[1024]{0}, f32[1024]{0}, f32[1024]{0}, /*index=5*/f32[1024]{0}, f32[1024]{0}, f32[1024]{0}, f32[1024]{0}, f32[1024]{0}, /*index=10*/f32[1024]{0}, f32[1024]{0}, f32[1024]{0}, f32[1024]{0}, f32[1024]{0}, /*index=15*/f32[1024]{0}, f32[1024]{0}, f32[1024]{0}, f32[1024]{0}, f32[1024]{0}, /*index=20*/f32[1024]{0}, f32[1024]{0}, f32[1024]{0}, f32[1024]{0}) %fusion.46), index=4
  %get-tuple-element.1114 = f32[1024]{0} get-tuple-element((f32[1024]{0}, f32[1024]{0}, f32[1024]{0}, f32[1024]{0}, f32[1024]{0}, /*index=5*/f32[1024]{0}, f32[1024]{0}, f32[1024]{0}, f32[1024]{0}, f32[1024]{0}, /*index=10*/f32[1024]{0}, f32[1024]{0}, f32[1024]{0}, f32[1024]{0}, f32[1024]{0}, /*index=15*/f32[1024]{0}, f32[1024]{0}, f32[1024]{0}, f32[1024]{0}, f32[1024]{0}, /*index=20*/f32[1024]{0}, f32[1024]{0}, f32[1024]{0}, f32[1024]{0}) %fusion.46), index=1
  %get-tuple-element.1115 = f32[1024]{0} get-tuple-element((f32[1024]{0}, f32[1024]{0}, f32[1024]{0}, f32[1024]{0}, f32[1024]{0}, /*index=5*/f32[1024]{0}, f32[1024]{0}, f32[1024]{0}, f32[1024]{0}, f32[1024]{0}, /*index=10*/f32[1024]{0}, f32[1024]{0}, f32[1024]{0}, f32[1024]{0}, f32[1024]{0}, /*index=15*/f32[1024]{0}, f32[1024]{0}, f32[1024]{0}, f32[1024]{0}, f32[1024]{0}, /*index=20*/f32[1024]{0}, f32[1024]{0}, f32[1024]{0}, f32[1024]{0}) %fusion.258), index=22
  %get-tuple-element.1116 = f32[512,1024]{1,0} get-tuple-element((f32[512,1024]{1,0}, f32[512,1024]{1,0}, f32[512,1024]{1,0}, f32[512,1024]{1,0}, f32[512,1024]{1,0}, /*index=5*/f32[512,1024]{1,0}, f32[512,1024]{1,0}, f32[512,1024]{1,0}, f32[512,1024]{1,0}, f32[512,1024]{1,0}, /*index=10*/f32[512,1024]{1,0}, f32[512,1024]{1,0}, f32[512,1024]{1,0}, f32[512,1024]{1,0}, f32[512,1024]{1,0}, /*index=15*/f32[512,1024]{1,0}, f32[512,1024]{1,0}, f32[512,1024]{1,0}) %fusion.200), index=7
  %get-tuple-element.1117 = f32[1024]{0} get-tuple-element((f32[1024]{0}, f32[1024]{0}, f32[1024]{0}, f32[1024]{0}, f32[1024]{0}, /*index=5*/f32[1024]{0}, f32[1024]{0}, f32[1024]{0}, f32[1024]{0}, f32[1024]{0}, /*index=10*/f32[1024]{0}, f32[1024]{0}, f32[1024]{0}, f32[1024]{0}, f32[1024]{0}, /*index=15*/f32[1024]{0}, f32[1024]{0}, f32[1024]{0}, f32[1024]{0}, f32[1024]{0}, /*index=20*/f32[1024]{0}, f32[1024]{0}, f32[1024]{0}, f32[1024]{0}) %fusion.258), index=19
  %get-tuple-element.1118 = f32[1024]{0} get-tuple-element((f32[1024]{0}, f32[1024]{0}, f32[1024]{0}, f32[1024]{0}, f32[1024]{0}, /*index=5*/f32[1024]{0}, f32[1024]{0}, f32[1024]{0}, f32[1024]{0}, f32[1024]{0}, /*index=10*/f32[1024]{0}, f32[1024]{0}, f32[1024]{0}, f32[1024]{0}, f32[1024]{0}, /*index=15*/f32[1024]{0}, f32[1024]{0}, f32[1024]{0}, f32[1024]{0}, f32[1024]{0}, /*index=20*/f32[1024]{0}, f32[1024]{0}, f32[1024]{0}, f32[1024]{0}) %fusion.258), index=16
  %get-tuple-element.1119 = f32[1024]{0} get-tuple-element((f32[1024]{0}, f32[1024]{0}, f32[1024]{0}, f32[1024]{0}, f32[1024]{0}, /*index=5*/f32[1024]{0}, f32[1024]{0}, f32[1024]{0}, f32[1024]{0}, f32[1024]{0}, /*index=10*/f32[1024]{0}, f32[1024]{0}, f32[1024]{0}, f32[1024]{0}, f32[1024]{0}, /*index=15*/f32[1024]{0}, f32[1024]{0}, f32[1024]{0}, f32[1024]{0}, f32[1024]{0}, /*index=20*/f32[1024]{0}, f32[1024]{0}, f32[1024]{0}, f32[1024]{0}) %fusion.258), index=13
  %get-tuple-element.1120 = f32[128,1024]{1,0} get-tuple-element((f32[128,1024]{1,0}, f32[128,1024]{1,0}, f32[128,1024]{1,0}, f32[128,1024]{1,0}, f32[128,1024]{1,0}, /*index=5*/f32[128,1024]{1,0}, f32[128,1024]{1,0}, f32[128,1024]{1,0}, f32[128,1024]{1,0}, f32[128,1024]{1,0}, /*index=10*/f32[128,1024]{1,0}, f32[128,1024]{1,0}, f32[128,1024]{1,0}, f32[128,1024]{1,0}, f32[128,1024]{1,0}, /*index=15*/f32[128,1024]{1,0}, f32[128,1024]{1,0}, f32[128,1024]{1,0}, f32[128,1024]{1,0}, f32[128,1024]{1,0}, /*index=20*/f32[128,1024]{1,0}) %fusion.245), index=4
  %get-tuple-element.1121 = f32[384]{0} get-tuple-element((f32[384]{0}, f32[384]{0}, f32[384]{0}, f32[384]{0}, f32[384]{0}, /*index=5*/f32[384]{0}, f32[384]{0}, f32[384]{0}, f32[384]{0}, f32[384]{0}, /*index=10*/f32[384]{0}, f32[384]{0}, f32[384]{0}, f32[384]{0}, f32[384]{0}, /*index=15*/f32[384]{0}, f32[384]{0}, f32[384]{0}) %fusion.223), index=4
  %get-tuple-element.1122 = f32[1024,384]{1,0} get-tuple-element((f32[1024,384]{1,0}, f32[1024,384]{1,0}, f32[1024,384]{1,0}, f32[1024,384]{1,0}, f32[1024,384]{1,0}, /*index=5*/f32[1024,384]{1,0}, f32[1024,384]{1,0}, f32[1024,384]{1,0}, f32[1024,384]{1,0}, f32[1024,384]{1,0}, /*index=10*/f32[1024,384]{1,0}, f32[1024,384]{1,0}, f32[1024,384]{1,0}, f32[1024,384]{1,0}, f32[1024,384]{1,0}, /*index=15*/f32[1024,384]{1,0}, f32[1024,384]{1,0}, f32[1024,384]{1,0}) %fusion.220), index=4
  %get-tuple-element.1123 = f32[512]{0} get-tuple-element((f32[512]{0}, f32[512]{0}, f32[512]{0}, f32[512]{0}, f32[512]{0}, /*index=5*/f32[512]{0}, f32[512]{0}, f32[512]{0}, f32[512]{0}, f32[512]{0}, /*index=10*/f32[512]{0}, f32[512]{0}, f32[512]{0}, f32[512]{0}, f32[512]{0}, /*index=15*/f32[512]{0}, f32[512]{0}, f32[512]{0}) %fusion.217), index=4
  %get-tuple-element.1124 = f32[1024,512]{1,0} get-tuple-element((f32[1024,512]{1,0}, f32[1024,512]{1,0}, f32[1024,512]{1,0}, f32[1024,512]{1,0}, f32[1024,512]{1,0}, /*index=5*/f32[1024,512]{1,0}, f32[1024,512]{1,0}, f32[1024,512]{1,0}, f32[1024,512]{1,0}, f32[1024,512]{1,0}, /*index=10*/f32[1024,512]{1,0}, f32[1024,512]{1,0}, f32[1024,512]{1,0}, f32[1024,512]{1,0}, f32[1024,512]{1,0}, /*index=15*/f32[1024,512]{1,0}, f32[1024,512]{1,0}, f32[1024,512]{1,0}) %fusion.214), index=4
  %get-tuple-element.1125 = f32[1024]{0} get-tuple-element((f32[1024]{0}, f32[1024]{0}, f32[1024]{0}, f32[1024]{0}, f32[1024]{0}, /*index=5*/f32[1024]{0}, f32[1024]{0}, f32[1024]{0}, f32[1024]{0}, f32[1024]{0}, /*index=10*/f32[1024]{0}, f32[1024]{0}, f32[1024]{0}, f32[1024]{0}, f32[1024]{0}, /*index=15*/f32[1024]{0}, f32[1024]{0}, f32[1024]{0}, f32[1024]{0}, f32[1024]{0}, /*index=20*/f32[1024]{0}, f32[1024]{0}, f32[1024]{0}, f32[1024]{0}) %fusion.258), index=10
  %get-tuple-element.1126 = f32[1024]{0} get-tuple-element((f32[1024]{0}, f32[1024]{0}, f32[1024]{0}, f32[1024]{0}, f32[1024]{0}, /*index=5*/f32[1024]{0}, f32[1024]{0}, f32[1024]{0}, f32[1024]{0}, f32[1024]{0}, /*index=10*/f32[1024]{0}, f32[1024]{0}, f32[1024]{0}, f32[1024]{0}, f32[1024]{0}, /*index=15*/f32[1024]{0}, f32[1024]{0}, f32[1024]{0}, f32[1024]{0}, f32[1024]{0}, /*index=20*/f32[1024]{0}, f32[1024]{0}, f32[1024]{0}, f32[1024]{0}) %fusion.258), index=7
  %get-tuple-element.1127 = f32[1024]{0} get-tuple-element((f32[1024]{0}, f32[1024]{0}, f32[1024]{0}, f32[1024]{0}, f32[1024]{0}, /*index=5*/f32[1024]{0}, f32[1024]{0}, f32[1024]{0}, f32[1024]{0}, f32[1024]{0}, /*index=10*/f32[1024]{0}, f32[1024]{0}, f32[1024]{0}, f32[1024]{0}, f32[1024]{0}, /*index=15*/f32[1024]{0}, f32[1024]{0}, f32[1024]{0}, f32[1024]{0}, f32[1024]{0}, /*index=20*/f32[1024]{0}, f32[1024]{0}, f32[1024]{0}, f32[1024]{0}) %fusion.258), index=4
  %get-tuple-element.1128 = f32[512,1024]{1,0} get-tuple-element((f32[512,1024]{1,0}, f32[512,1024]{1,0}, f32[512,1024]{1,0}, f32[512,1024]{1,0}, f32[512,1024]{1,0}, /*index=5*/f32[512,1024]{1,0}, f32[512,1024]{1,0}, f32[512,1024]{1,0}, f32[512,1024]{1,0}, f32[512,1024]{1,0}, /*index=10*/f32[512,1024]{1,0}, f32[512,1024]{1,0}, f32[512,1024]{1,0}, f32[512,1024]{1,0}, f32[512,1024]{1,0}, /*index=15*/f32[512,1024]{1,0}, f32[512,1024]{1,0}, f32[512,1024]{1,0}) %fusion.200), index=4
  ROOT %tuple.319 = (s32[], f32[6400]{0}, f32[1024]{0}, f32[1024]{0}, f32[128,1024]{1,0}, /*index=5*/f32[6400,1024]{1,0}, f32[1024]{0}, f32[1024]{0}, f32[1024]{0}, f32[128,1024]{1,0}, /*index=10*/f32[384]{0}, f32[1024,384]{1,0}, f32[512]{0}, f32[1024,512]{1,0}, f32[1024]{0}, /*index=15*/f32[1024]{0}, f32[1024]{0}, f32[512,1024]{1,0}, f32[1024]{0}, f32[1024]{0}, /*index=20*/f32[1024]{0}, f32[128,1024]{1,0}, f32[384]{0}, f32[1024,384]{1,0}, f32[512]{0}, /*index=25*/f32[1024,512]{1,0}, f32[1024]{0}, f32[1024]{0}, f32[1024]{0}, f32[512,1024]{1,0}, /*index=30*/f32[1024]{0}, f32[1024]{0}, f32[1024]{0}, f32[128,1024]{1,0}, f32[384]{0}, /*index=35*/f32[1024,384]{1,0}, f32[512]{0}, f32[1024,512]{1,0}, f32[1024]{0}, f32[1024]{0}, /*index=40*/f32[1024]{0}, f32[512,1024]{1,0}, f32[1024]{0}, f32[1024]{0}, f32[1024]{0}, /*index=45*/f32[128,1024]{1,0}, f32[384]{0}, f32[1024,384]{1,0}, f32[512]{0}, f32[1024,512]{1,0}, /*index=50*/f32[1024]{0}, f32[1024]{0}, f32[1024]{0}, f32[512,1024]{1,0}, f32[1024]{0}, /*index=55*/f32[1024]{0}, f32[1024]{0}, f32[128,1024]{1,0}, f32[384]{0}, f32[1024,384]{1,0}, /*index=60*/f32[512]{0}, f32[1024,512]{1,0}, f32[1024]{0}, f32[1024]{0}, f32[1024]{0}, /*index=65*/f32[512,1024]{1,0}, f32[1024]{0}, f32[1024]{0}, f32[1024]{0}, f32[128,1024]{1,0}, /*index=70*/f32[384]{0}, f32[1024,384]{1,0}, f32[512]{0}, f32[1024,512]{1,0}, f32[1024]{0}, /*index=75*/f32[1024]{0}, f32[1024]{0}, f32[512,1024]{1,0}, s32[], f32[6400]{0}, /*index=80*/f32[1024]{0}, f32[1024]{0}, f32[128,1024]{1,0}, f32[6400,1024]{1,0}, f32[1024]{0}, /*index=85*/f32[1024]{0}, f32[1024]{0}, f32[128,1024]{1,0}, f32[384]{0}, f32[1024,384]{1,0}, /*index=90*/f32[512]{0}, f32[1024,512]{1,0}, f32[1024]{0}, f32[1024]{0}, f32[1024]{0}, /*index=95*/f32[512,1024]{1,0}, f32[1024]{0}, f32[1024]{0}, f32[1024]{0}, f32[128,1024]{1,0}, /*index=100*/f32[384]{0}, f32[1024,384]{1,0}, f32[512]{0}, f32[1024,512]{1,0}, f32[1024]{0}, /*index=105*/f32[1024]{0}, f32[1024]{0}, f32[512,1024]{1,0}, f32[1024]{0}, f32[1024]{0}, /*index=110*/f32[1024]{0}, f32[128,1024]{1,0}, f32[384]{0}, f32[1024,384]{1,0}, f32[512]{0}, /*index=115*/f32[1024,512]{1,0}, f32[1024]{0}, f32[1024]{0}, f32[1024]{0}, f32[512,1024]{1,0}, /*index=120*/f32[1024]{0}, f32[1024]{0}, f32[1024]{0}, f32[128,1024]{1,0}, f32[384]{0}, /*index=125*/f32[1024,384]{1,0}, f32[512]{0}, f32[1024,512]{1,0}, f32[1024]{0}, f32[1024]{0}, /*index=130*/f32[1024]{0}, f32[512,1024]{1,0}, f32[1024]{0}, f32[1024]{0}, f32[1024]{0}, /*index=135*/f32[128,1024]{1,0}, f32[384]{0}, f32[1024,384]{1,0}, f32[512]{0}, f32[1024,512]{1,0}, /*index=140*/f32[1024]{0}, f32[1024]{0}, f32[1024]{0}, f32[512,1024]{1,0}, f32[1024]{0}, /*index=145*/f32[1024]{0}, f32[1024]{0}, f32[128,1024]{1,0}, f32[384]{0}, f32[1024,384]{1,0}, /*index=150*/f32[512]{0}, f32[1024,512]{1,0}, f32[1024]{0}, f32[1024]{0}, f32[1024]{0}, /*index=155*/f32[512,1024]{1,0}, f32[6400]{0}, f32[1024]{0}, f32[1024]{0}, f32[128,1024]{1,0}, /*index=160*/f32[6400,1024]{1,0}, f32[1024]{0}, f32[1024]{0}, f32[1024]{0}, f32[128,1024]{1,0}, /*index=165*/f32[384]{0}, f32[1024,384]{1,0}, f32[512]{0}, f32[1024,512]{1,0}, f32[1024]{0}, /*index=170*/f32[1024]{0}, f32[1024]{0}, f32[512,1024]{1,0}, f32[1024]{0}, f32[1024]{0}, /*index=175*/f32[1024]{0}, f32[128,1024]{1,0}, f32[384]{0}, f32[1024,384]{1,0}, f32[512]{0}, /*index=180*/f32[1024,512]{1,0}, f32[1024]{0}, f32[1024]{0}, f32[1024]{0}, f32[512,1024]{1,0}, /*index=185*/f32[1024]{0}, f32[1024]{0}, f32[1024]{0}, f32[128,1024]{1,0}, f32[384]{0}, /*index=190*/f32[1024,384]{1,0}, f32[512]{0}, f32[1024,512]{1,0}, f32[1024]{0}, f32[1024]{0}, /*index=195*/f32[1024]{0}, f32[512,1024]{1,0}, f32[1024]{0}, f32[1024]{0}, f32[1024]{0}, /*index=200*/f32[128,1024]{1,0}, f32[384]{0}, f32[1024,384]{1,0}, f32[512]{0}, f32[1024,512]{1,0}, /*index=205*/f32[1024]{0}, f32[1024]{0}, f32[1024]{0}, f32[512,1024]{1,0}, f32[1024]{0}, /*index=210*/f32[1024]{0}, f32[1024]{0}, f32[128,1024]{1,0}, f32[384]{0}, f32[1024,384]{1,0}, /*index=215*/f32[512]{0}, f32[1024,512]{1,0}, f32[1024]{0}, f32[1024]{0}, f32[1024]{0}, /*index=220*/f32[512,1024]{1,0}, f32[1024]{0}, f32[1024]{0}, f32[1024]{0}, f32[128,1024]{1,0}, /*index=225*/f32[384]{0}, f32[1024,384]{1,0}, f32[512]{0}, f32[1024,512]{1,0}, f32[1024]{0}, /*index=230*/f32[1024]{0}, f32[1024]{0}, f32[512,1024]{1,0}) tuple(s32[] %add.92, f32[6400]{0} %get-tuple-element.897, f32[1024]{0} %get-tuple-element.898, f32[1024]{0} %get-tuple-element.899, f32[128,1024]{1,0} %get-tuple-element.900, /*index=5*/f32[6400,1024]{1,0} %get-tuple-element.901, f32[1024]{0} %get-tuple-element.902, f32[1024]{0} %get-tuple-element.903, f32[1024]{0} %get-tuple-element.904, f32[128,1024]{1,0} %get-tuple-element.905, /*index=10*/f32[384]{0} %get-tuple-element.906, f32[1024,384]{1,0} %get-tuple-element.907, f32[512]{0} %get-tuple-element.908, f32[1024,512]{1,0} %get-tuple-element.909, f32[1024]{0} %get-tuple-element.910, /*index=15*/f32[1024]{0} %get-tuple-element.911, f32[1024]{0} %get-tuple-element.912, f32[512,1024]{1,0} %get-tuple-element.913, f32[1024]{0} %get-tuple-element.914, f32[1024]{0} %get-tuple-element.915, /*index=20*/f32[1024]{0} %get-tuple-element.916, f32[128,1024]{1,0} %get-tuple-element.917, f32[384]{0} %get-tuple-element.918, f32[1024,384]{1,0} %get-tuple-element.919, f32[512]{0} %get-tuple-element.920, /*index=25*/f32[1024,512]{1,0} %get-tuple-element.921, f32[1024]{0} %get-tuple-element.922, f32[1024]{0} %get-tuple-element.923, f32[1024]{0} %get-tuple-element.924, f32[512,1024]{1,0} %get-tuple-element.925, /*index=30*/f32[1024]{0} %get-tuple-element.926, f32[1024]{0} %get-tuple-element.927, f32[1024]{0} %get-tuple-element.928, f32[128,1024]{1,0} %get-tuple-element.929, f32[384]{0} %get-tuple-element.930, /*index=35*/f32[1024,384]{1,0} %get-tuple-element.931, f32[512]{0} %get-tuple-element.932, f32[1024,512]{1,0} %get-tuple-element.933, f32[1024]{0} %get-tuple-element.934, f32[1024]{0} %get-tuple-element.935, /*index=40*/f32[1024]{0} %get-tuple-element.936, f32[512,1024]{1,0} %get-tuple-element.937, f32[1024]{0} %get-tuple-element.938, f32[1024]{0} %get-tuple-element.939, f32[1024]{0} %get-tuple-element.940, /*index=45*/f32[128,1024]{1,0} %get-tuple-element.941, f32[384]{0} %get-tuple-element.942, f32[1024,384]{1,0} %get-tuple-element.943, f32[512]{0} %get-tuple-element.944, f32[1024,512]{1,0} %get-tuple-element.945, /*index=50*/f32[1024]{0} %get-tuple-element.946, f32[1024]{0} %get-tuple-element.947, f32[1024]{0} %get-tuple-element.948, f32[512,1024]{1,0} %get-tuple-element.949, f32[1024]{0} %get-tuple-element.950, /*index=55*/f32[1024]{0} %get-tuple-element.951, f32[1024]{0} %get-tuple-element.952, f32[128,1024]{1,0} %get-tuple-element.953, f32[384]{0} %get-tuple-element.954, f32[1024,384]{1,0} %get-tuple-element.955, /*index=60*/f32[512]{0} %get-tuple-element.956, f32[1024,512]{1,0} %get-tuple-element.957, f32[1024]{0} %get-tuple-element.958, f32[1024]{0} %get-tuple-element.959, f32[1024]{0} %get-tuple-element.960, /*index=65*/f32[512,1024]{1,0} %get-tuple-element.961, f32[1024]{0} %get-tuple-element.962, f32[1024]{0} %get-tuple-element.963, f32[1024]{0} %get-tuple-element.964, f32[128,1024]{1,0} %get-tuple-element.965, /*index=70*/f32[384]{0} %get-tuple-element.966, f32[1024,384]{1,0} %get-tuple-element.967, f32[512]{0} %get-tuple-element.968, f32[1024,512]{1,0} %get-tuple-element.969, f32[1024]{0} %get-tuple-element.970, /*index=75*/f32[1024]{0} %get-tuple-element.971, f32[1024]{0} %get-tuple-element.972, f32[512,1024]{1,0} %get-tuple-element.973, s32[] %get-tuple-element.974, f32[6400]{0} %get-tuple-element.975, /*index=80*/f32[1024]{0} %get-tuple-element.976, f32[1024]{0} %get-tuple-element.977, f32[128,1024]{1,0} %get-tuple-element.978, f32[6400,1024]{1,0} %get-tuple-element.979, f32[1024]{0} %get-tuple-element.980, /*index=85*/f32[1024]{0} %get-tuple-element.981, f32[1024]{0} %get-tuple-element.982, f32[128,1024]{1,0} %get-tuple-element.983, f32[384]{0} %get-tuple-element.984, f32[1024,384]{1,0} %get-tuple-element.985, /*index=90*/f32[512]{0} %get-tuple-element.986, f32[1024,512]{1,0} %get-tuple-element.987, f32[1024]{0} %get-tuple-element.988, f32[1024]{0} %get-tuple-element.989, f32[1024]{0} %get-tuple-element.990, /*index=95*/f32[512,1024]{1,0} %get-tuple-element.991, f32[1024]{0} %get-tuple-element.992, f32[1024]{0} %get-tuple-element.993, f32[1024]{0} %get-tuple-element.994, f32[128,1024]{1,0} %get-tuple-element.995, /*index=100*/f32[384]{0} %get-tuple-element.996, f32[1024,384]{1,0} %get-tuple-element.997, f32[512]{0} %get-tuple-element.998, f32[1024,512]{1,0} %get-tuple-element.999, f32[1024]{0} %get-tuple-element.1000, /*index=105*/f32[1024]{0} %get-tuple-element.1001, f32[1024]{0} %get-tuple-element.1002, f32[512,1024]{1,0} %get-tuple-element.1003, f32[1024]{0} %get-tuple-element.1004, f32[1024]{0} %get-tuple-element.1005, /*index=110*/f32[1024]{0} %get-tuple-element.1006, f32[128,1024]{1,0} %get-tuple-element.1007, f32[384]{0} %get-tuple-element.1008, f32[1024,384]{1,0} %get-tuple-element.1009, f32[512]{0} %get-tuple-element.1010, /*index=115*/f32[1024,512]{1,0} %get-tuple-element.1011, f32[1024]{0} %get-tuple-element.1012, f32[1024]{0} %get-tuple-element.1013, f32[1024]{0} %get-tuple-element.1014, f32[512,1024]{1,0} %get-tuple-element.1015, /*index=120*/f32[1024]{0} %get-tuple-element.1016, f32[1024]{0} %get-tuple-element.1017, f32[1024]{0} %get-tuple-element.1018, f32[128,1024]{1,0} %get-tuple-element.1019, f32[384]{0} %get-tuple-element.1020, /*index=125*/f32[1024,384]{1,0} %get-tuple-element.1021, f32[512]{0} %get-tuple-element.1022, f32[1024,512]{1,0} %get-tuple-element.1023, f32[1024]{0} %get-tuple-element.1024, f32[1024]{0} %get-tuple-element.1025, /*index=130*/f32[1024]{0} %get-tuple-element.1026, f32[512,1024]{1,0} %get-tuple-element.1027, f32[1024]{0} %get-tuple-element.1028, f32[1024]{0} %get-tuple-element.1029, f32[1024]{0} %get-tuple-element.1030, /*index=135*/f32[128,1024]{1,0} %get-tuple-element.1031, f32[384]{0} %get-tuple-element.1032, f32[1024,384]{1,0} %get-tuple-element.1033, f32[512]{0} %get-tuple-element.1034, f32[1024,512]{1,0} %get-tuple-element.1035, /*index=140*/f32[1024]{0} %get-tuple-element.1036, f32[1024]{0} %get-tuple-element.1037, f32[1024]{0} %get-tuple-element.1038, f32[512,1024]{1,0} %get-tuple-element.1039, f32[1024]{0} %get-tuple-element.1040, /*index=145*/f32[1024]{0} %get-tuple-element.1041, f32[1024]{0} %get-tuple-element.1042, f32[128,1024]{1,0} %get-tuple-element.1043, f32[384]{0} %get-tuple-element.1044, f32[1024,384]{1,0} %get-tuple-element.1045, /*index=150*/f32[512]{0} %get-tuple-element.1046, f32[1024,512]{1,0} %get-tuple-element.1047, f32[1024]{0} %get-tuple-element.1048, f32[1024]{0} %get-tuple-element.1049, f32[1024]{0} %get-tuple-element.1050, /*index=155*/f32[512,1024]{1,0} %get-tuple-element.1051, f32[6400]{0} %get-tuple-element.1052, f32[1024]{0} %get-tuple-element.1053, f32[1024]{0} %get-tuple-element.1054, f32[128,1024]{1,0} %get-tuple-element.1055, /*index=160*/f32[6400,1024]{1,0} %get-tuple-element.1056, f32[1024]{0} %get-tuple-element.1057, f32[1024]{0} %get-tuple-element.1058, f32[1024]{0} %get-tuple-element.1059, f32[128,1024]{1,0} %get-tuple-element.1060, /*index=165*/f32[384]{0} %get-tuple-element.1061, f32[1024,384]{1,0} %get-tuple-element.1062, f32[512]{0} %get-tuple-element.1063, f32[1024,512]{1,0} %get-tuple-element.1064, f32[1024]{0} %get-tuple-element.1065, /*index=170*/f32[1024]{0} %get-tuple-element.1066, f32[1024]{0} %get-tuple-element.1067, f32[512,1024]{1,0} %get-tuple-element.1068, f32[1024]{0} %get-tuple-element.1069, f32[1024]{0} %get-tuple-element.1070, /*index=175*/f32[1024]{0} %get-tuple-element.1071, f32[128,1024]{1,0} %get-tuple-element.1072, f32[384]{0} %get-tuple-element.1073, f32[1024,384]{1,0} %get-tuple-element.1074, f32[512]{0} %get-tuple-element.1075, /*index=180*/f32[1024,512]{1,0} %get-tuple-element.1076, f32[1024]{0} %get-tuple-element.1077, f32[1024]{0} %get-tuple-element.1078, f32[1024]{0} %get-tuple-element.1079, f32[512,1024]{1,0} %get-tuple-element.1080, /*index=185*/f32[1024]{0} %get-tuple-element.1081, f32[1024]{0} %get-tuple-element.1082, f32[1024]{0} %get-tuple-element.1083, f32[128,1024]{1,0} %get-tuple-element.1084, f32[384]{0} %get-tuple-element.1085, /*index=190*/f32[1024,384]{1,0} %get-tuple-element.1086, f32[512]{0} %get-tuple-element.1087, f32[1024,512]{1,0} %get-tuple-element.1088, f32[1024]{0} %get-tuple-element.1089, f32[1024]{0} %get-tuple-element.1090, /*index=195*/f32[1024]{0} %get-tuple-element.1091, f32[512,1024]{1,0} %get-tuple-element.1092, f32[1024]{0} %get-tuple-element.1093, f32[1024]{0} %get-tuple-element.1094, f32[1024]{0} %get-tuple-element.1095, /*index=200*/f32[128,1024]{1,0} %get-tuple-element.1096, f32[384]{0} %get-tuple-element.1097, f32[1024,384]{1,0} %get-tuple-element.1098, f32[512]{0} %get-tuple-element.1099, f32[1024,512]{1,0} %get-tuple-element.1100, /*index=205*/f32[1024]{0} %get-tuple-element.1101, f32[1024]{0} %get-tuple-element.1102, f32[1024]{0} %get-tuple-element.1103, f32[512,1024]{1,0} %get-tuple-element.1104, f32[1024]{0} %get-tuple-element.1105, /*index=210*/f32[1024]{0} %get-tuple-element.1106, f32[1024]{0} %get-tuple-element.1107, f32[128,1024]{1,0} %get-tuple-element.1108, f32[384]{0} %get-tuple-element.1109, f32[1024,384]{1,0} %get-tuple-element.1110, /*index=215*/f32[512]{0} %get-tuple-element.1111, f32[1024,512]{1,0} %get-tuple-element.1112, f32[1024]{0} %get-tuple-element.1113, f32[1024]{0} %get-tuple-element.1114, f32[1024]{0} %get-tuple-element.1115, /*index=220*/f32[512,1024]{1,0} %get-tuple-element.1116, f32[1024]{0} %get-tuple-element.1117, f32[1024]{0} %get-tuple-element.1118, f32[1024]{0} %get-tuple-element.1119, f32[128,1024]{1,0} %get-tuple-element.1120, /*index=225*/f32[384]{0} %get-tuple-element.1121, f32[1024,384]{1,0} %get-tuple-element.1122, f32[512]{0} %get-tuple-element.1123, f32[1024,512]{1,0} %get-tuple-element.1124, f32[1024]{0} %get-tuple-element.1125, /*index=230*/f32[1024]{0} %get-tuple-element.1126, f32[1024]{0} %get-tuple-element.1127, f32[512,1024]{1,0} %get-tuple-element.1128)
}

